{"format": "graph-model", "generatedBy": "2.8.0", "convertedBy": "TensorFlow.js Converter v3.15.0", "signature": {"inputs": {"input.1": {"name": "input_1:0", "dtype": "DT_FLOAT", "tensorShape": {"dim": [{"size": "1"}, {"size": "3"}, {"size": "224"}, {"size": "224"}]}}}, "outputs": {"1103": {"name": "Identity:0", "dtype": "DT_FLOAT", "tensorShape": {"dim": [{"size": "1"}, {"size": "1000"}]}}}}, "modelTopology": {"node": [{"name": "unknown_173", "op": "Const", "attr": {"dtype": {"type": "DT_FLOAT"}, "value": {"tensor": {"dtype": "DT_FLOAT", "tensorShape": {"dim": [{"size": "768"}]}}}}}, {"name": "PartitionedCall/onnx_tf_prefix_ReduceMean_667/reduction_indices", "op": "Const", "attr": {"dtype": {"type": "DT_INT32"}, "value": {"tensor": {"dtype": "DT_INT32", "tensorShape": {}}}}}, {"name": "PartitionedCall/onnx_tf_prefix_Constant_668", "op": "Const", "attr": {"dtype": {"type": "DT_FLOAT"}, "value": {"tensor": {"dtype": "DT_FLOAT", "tensorShape": {}}}}}, {"name": "unknown_172", "op": "Const", "attr": {"dtype": {"type": "DT_FLOAT"}, "value": {"tensor": {"dtype": "DT_FLOAT", "tensorShape": {"dim": [{"size": "768"}]}}}}}, {"name": "PartitionedCall/onnx_tf_prefix_Constant_658", "op": "Const", "attr": {"dtype": {"type": "DT_FLOAT"}, "value": {"tensor": {"dtype": "DT_FLOAT", "tensorShape": {}}}}}, {"name": "unknown_170", "op": "Const", "attr": {"value": {"tensor": {"dtype": "DT_FLOAT", "tensorShape": {"dim": [{"size": "3072"}]}}}, "dtype": {"type": "DT_FLOAT"}}}, {"name": "unknown_167", "op": "Const", "attr": {"value": {"tensor": {"dtype": "DT_FLOAT", "tensorShape": {"dim": [{"size": "768"}]}}}, "dtype": {"type": "DT_FLOAT"}}}, {"name": "PartitionedCall/onnx_tf_prefix_ReduceMean_643/reduction_indices", "op": "Const", "attr": {"value": {"tensor": {"dtype": "DT_INT32", "tensorShape": {}}}, "dtype": {"type": "DT_INT32"}}}, {"name": "PartitionedCall/onnx_tf_prefix_Constant_644", "op": "Const", "attr": {"dtype": {"type": "DT_FLOAT"}, "value": {"tensor": {"dtype": "DT_FLOAT", "tensorShape": {}}}}}, {"name": "unknown_166", "op": "Const", "attr": {"value": {"tensor": {"dtype": "DT_FLOAT", "tensorShape": {"dim": [{"size": "768"}]}}}, "dtype": {"type": "DT_FLOAT"}}}, {"name": "PartitionedCall/onnx_tf_prefix_Constant_630", "op": "Const", "attr": {"dtype": {"type": "DT_FLOAT"}, "value": {"tensor": {"dtype": "DT_FLOAT", "tensorShape": {}}}}}, {"name": "unknown_162", "op": "Const", "attr": {"dtype": {"type": "DT_FLOAT"}, "value": {"tensor": {"dtype": "DT_FLOAT", "tensorShape": {"dim": [{"size": "2304"}]}}}}}, {"name": "unknown_159", "op": "Const", "attr": {"dtype": {"type": "DT_FLOAT"}, "value": {"tensor": {"dtype": "DT_FLOAT", "tensorShape": {"dim": [{"size": "768"}]}}}}}, {"name": "PartitionedCall/onnx_tf_prefix_ReduceMean_613/reduction_indices", "op": "Const", "attr": {"dtype": {"type": "DT_INT32"}, "value": {"tensor": {"dtype": "DT_INT32", "tensorShape": {}}}}}, {"name": "PartitionedCall/onnx_tf_prefix_Constant_614", "op": "Const", "attr": {"value": {"tensor": {"dtype": "DT_FLOAT", "tensorShape": {}}}, "dtype": {"type": "DT_FLOAT"}}}, {"name": "unknown_158", "op": "Const", "attr": {"dtype": {"type": "DT_FLOAT"}, "value": {"tensor": {"dtype": "DT_FLOAT", "tensorShape": {"dim": [{"size": "768"}]}}}}}, {"name": "PartitionedCall/onnx_tf_prefix_Constant_604", "op": "Const", "attr": {"value": {"tensor": {"dtype": "DT_FLOAT", "tensorShape": {}}}, "dtype": {"type": "DT_FLOAT"}}}, {"name": "unknown_156", "op": "Const", "attr": {"dtype": {"type": "DT_FLOAT"}, "value": {"tensor": {"dtype": "DT_FLOAT", "tensorShape": {"dim": [{"size": "3072"}]}}}}}, {"name": "unknown_153", "op": "Const", "attr": {"value": {"tensor": {"dtype": "DT_FLOAT", "tensorShape": {"dim": [{"size": "768"}]}}}, "dtype": {"type": "DT_FLOAT"}}}, {"name": "PartitionedCall/onnx_tf_prefix_ReduceMean_589/reduction_indices", "op": "Const", "attr": {"dtype": {"type": "DT_INT32"}, "value": {"tensor": {"dtype": "DT_INT32", "tensorShape": {}}}}}, {"name": "PartitionedCall/onnx_tf_prefix_Constant_590", "op": "Const", "attr": {"value": {"tensor": {"dtype": "DT_FLOAT", "tensorShape": {}}}, "dtype": {"type": "DT_FLOAT"}}}, {"name": "unknown_152", "op": "Const", "attr": {"value": {"tensor": {"dtype": "DT_FLOAT", "tensorShape": {"dim": [{"size": "768"}]}}}, "dtype": {"type": "DT_FLOAT"}}}, {"name": "PartitionedCall/onnx_tf_prefix_Constant_576", "op": "Const", "attr": {"value": {"tensor": {"dtype": "DT_FLOAT", "tensorShape": {}}}, "dtype": {"type": "DT_FLOAT"}}}, {"name": "unknown_148", "op": "Const", "attr": {"dtype": {"type": "DT_FLOAT"}, "value": {"tensor": {"dtype": "DT_FLOAT", "tensorShape": {"dim": [{"size": "2304"}]}}}}}, {"name": "unknown_145", "op": "Const", "attr": {"dtype": {"type": "DT_FLOAT"}, "value": {"tensor": {"dtype": "DT_FLOAT", "tensorShape": {"dim": [{"size": "768"}]}}}}}, {"name": "PartitionedCall/onnx_tf_prefix_ReduceMean_559/reduction_indices", "op": "Const", "attr": {"value": {"tensor": {"dtype": "DT_INT32", "tensorShape": {}}}, "dtype": {"type": "DT_INT32"}}}, {"name": "PartitionedCall/onnx_tf_prefix_Constant_560", "op": "Const", "attr": {"dtype": {"type": "DT_FLOAT"}, "value": {"tensor": {"dtype": "DT_FLOAT", "tensorShape": {}}}}}, {"name": "unknown_144", "op": "Const", "attr": {"value": {"tensor": {"dtype": "DT_FLOAT", "tensorShape": {"dim": [{"size": "768"}]}}}, "dtype": {"type": "DT_FLOAT"}}}, {"name": "PartitionedCall/onnx_tf_prefix_Constant_550", "op": "Const", "attr": {"dtype": {"type": "DT_FLOAT"}, "value": {"tensor": {"dtype": "DT_FLOAT", "tensorShape": {}}}}}, {"name": "unknown_142", "op": "Const", "attr": {"value": {"tensor": {"dtype": "DT_FLOAT", "tensorShape": {"dim": [{"size": "3072"}]}}}, "dtype": {"type": "DT_FLOAT"}}}, {"name": "unknown_139", "op": "Const", "attr": {"value": {"tensor": {"dtype": "DT_FLOAT", "tensorShape": {"dim": [{"size": "768"}]}}}, "dtype": {"type": "DT_FLOAT"}}}, {"name": "PartitionedCall/onnx_tf_prefix_ReduceMean_535/reduction_indices", "op": "Const", "attr": {"dtype": {"type": "DT_INT32"}, "value": {"tensor": {"dtype": "DT_INT32", "tensorShape": {}}}}}, {"name": "PartitionedCall/onnx_tf_prefix_Constant_536", "op": "Const", "attr": {"dtype": {"type": "DT_FLOAT"}, "value": {"tensor": {"dtype": "DT_FLOAT", "tensorShape": {}}}}}, {"name": "unknown_138", "op": "Const", "attr": {"value": {"tensor": {"dtype": "DT_FLOAT", "tensorShape": {"dim": [{"size": "768"}]}}}, "dtype": {"type": "DT_FLOAT"}}}, {"name": "PartitionedCall/onnx_tf_prefix_Constant_522", "op": "Const", "attr": {"dtype": {"type": "DT_FLOAT"}, "value": {"tensor": {"dtype": "DT_FLOAT", "tensorShape": {}}}}}, {"name": "unknown_134", "op": "Const", "attr": {"dtype": {"type": "DT_FLOAT"}, "value": {"tensor": {"dtype": "DT_FLOAT", "tensorShape": {"dim": [{"size": "2304"}]}}}}}, {"name": "unknown_131", "op": "Const", "attr": {"dtype": {"type": "DT_FLOAT"}, "value": {"tensor": {"dtype": "DT_FLOAT", "tensorShape": {"dim": [{"size": "768"}]}}}}}, {"name": "PartitionedCall/onnx_tf_prefix_ReduceMean_505/reduction_indices", "op": "Const", "attr": {"value": {"tensor": {"dtype": "DT_INT32", "tensorShape": {}}}, "dtype": {"type": "DT_INT32"}}}, {"name": "PartitionedCall/onnx_tf_prefix_Constant_506", "op": "Const", "attr": {"value": {"tensor": {"dtype": "DT_FLOAT", "tensorShape": {}}}, "dtype": {"type": "DT_FLOAT"}}}, {"name": "unknown_130", "op": "Const", "attr": {"value": {"tensor": {"dtype": "DT_FLOAT", "tensorShape": {"dim": [{"size": "768"}]}}}, "dtype": {"type": "DT_FLOAT"}}}, {"name": "PartitionedCall/onnx_tf_prefix_Constant_496", "op": "Const", "attr": {"dtype": {"type": "DT_FLOAT"}, "value": {"tensor": {"dtype": "DT_FLOAT", "tensorShape": {}}}}}, {"name": "unknown_128", "op": "Const", "attr": {"dtype": {"type": "DT_FLOAT"}, "value": {"tensor": {"dtype": "DT_FLOAT", "tensorShape": {"dim": [{"size": "3072"}]}}}}}, {"name": "unknown_125", "op": "Const", "attr": {"value": {"tensor": {"dtype": "DT_FLOAT", "tensorShape": {"dim": [{"size": "768"}]}}}, "dtype": {"type": "DT_FLOAT"}}}, {"name": "PartitionedCall/onnx_tf_prefix_ReduceMean_481/reduction_indices", "op": "Const", "attr": {"value": {"tensor": {"dtype": "DT_INT32", "tensorShape": {}}}, "dtype": {"type": "DT_INT32"}}}, {"name": "PartitionedCall/onnx_tf_prefix_Constant_482", "op": "Const", "attr": {"value": {"tensor": {"dtype": "DT_FLOAT", "tensorShape": {}}}, "dtype": {"type": "DT_FLOAT"}}}, {"name": "unknown_124", "op": "Const", "attr": {"dtype": {"type": "DT_FLOAT"}, "value": {"tensor": {"dtype": "DT_FLOAT", "tensorShape": {"dim": [{"size": "768"}]}}}}}, {"name": "PartitionedCall/onnx_tf_prefix_Constant_468", "op": "Const", "attr": {"value": {"tensor": {"dtype": "DT_FLOAT", "tensorShape": {}}}, "dtype": {"type": "DT_FLOAT"}}}, {"name": "unknown_120", "op": "Const", "attr": {"dtype": {"type": "DT_FLOAT"}, "value": {"tensor": {"dtype": "DT_FLOAT", "tensorShape": {"dim": [{"size": "2304"}]}}}}}, {"name": "unknown_117", "op": "Const", "attr": {"value": {"tensor": {"dtype": "DT_FLOAT", "tensorShape": {"dim": [{"size": "768"}]}}}, "dtype": {"type": "DT_FLOAT"}}}, {"name": "PartitionedCall/onnx_tf_prefix_ReduceMean_451/reduction_indices", "op": "Const", "attr": {"value": {"tensor": {"dtype": "DT_INT32", "tensorShape": {}}}, "dtype": {"type": "DT_INT32"}}}, {"name": "PartitionedCall/onnx_tf_prefix_Constant_452", "op": "Const", "attr": {"dtype": {"type": "DT_FLOAT"}, "value": {"tensor": {"dtype": "DT_FLOAT", "tensorShape": {}}}}}, {"name": "unknown_116", "op": "Const", "attr": {"dtype": {"type": "DT_FLOAT"}, "value": {"tensor": {"dtype": "DT_FLOAT", "tensorShape": {"dim": [{"size": "768"}]}}}}}, {"name": "PartitionedCall/onnx_tf_prefix_Constant_442", "op": "Const", "attr": {"value": {"tensor": {"dtype": "DT_FLOAT", "tensorShape": {}}}, "dtype": {"type": "DT_FLOAT"}}}, {"name": "unknown_114", "op": "Const", "attr": {"dtype": {"type": "DT_FLOAT"}, "value": {"tensor": {"dtype": "DT_FLOAT", "tensorShape": {"dim": [{"size": "3072"}]}}}}}, {"name": "unknown_111", "op": "Const", "attr": {"dtype": {"type": "DT_FLOAT"}, "value": {"tensor": {"dtype": "DT_FLOAT", "tensorShape": {"dim": [{"size": "768"}]}}}}}, {"name": "PartitionedCall/onnx_tf_prefix_ReduceMean_427/reduction_indices", "op": "Const", "attr": {"dtype": {"type": "DT_INT32"}, "value": {"tensor": {"dtype": "DT_INT32", "tensorShape": {}}}}}, {"name": "PartitionedCall/onnx_tf_prefix_Constant_428", "op": "Const", "attr": {"dtype": {"type": "DT_FLOAT"}, "value": {"tensor": {"dtype": "DT_FLOAT", "tensorShape": {}}}}}, {"name": "unknown_110", "op": "Const", "attr": {"dtype": {"type": "DT_FLOAT"}, "value": {"tensor": {"dtype": "DT_FLOAT", "tensorShape": {"dim": [{"size": "768"}]}}}}}, {"name": "PartitionedCall/onnx_tf_prefix_Constant_414", "op": "Const", "attr": {"dtype": {"type": "DT_FLOAT"}, "value": {"tensor": {"dtype": "DT_FLOAT", "tensorShape": {}}}}}, {"name": "unknown_106", "op": "Const", "attr": {"value": {"tensor": {"dtype": "DT_FLOAT", "tensorShape": {"dim": [{"size": "2304"}]}}}, "dtype": {"type": "DT_FLOAT"}}}, {"name": "unknown_103", "op": "Const", "attr": {"value": {"tensor": {"dtype": "DT_FLOAT", "tensorShape": {"dim": [{"size": "768"}]}}}, "dtype": {"type": "DT_FLOAT"}}}, {"name": "PartitionedCall/onnx_tf_prefix_ReduceMean_397/reduction_indices", "op": "Const", "attr": {"value": {"tensor": {"dtype": "DT_INT32", "tensorShape": {}}}, "dtype": {"type": "DT_INT32"}}}, {"name": "PartitionedCall/onnx_tf_prefix_Constant_398", "op": "Const", "attr": {"value": {"tensor": {"dtype": "DT_FLOAT", "tensorShape": {}}}, "dtype": {"type": "DT_FLOAT"}}}, {"name": "unknown_102", "op": "Const", "attr": {"value": {"tensor": {"dtype": "DT_FLOAT", "tensorShape": {"dim": [{"size": "768"}]}}}, "dtype": {"type": "DT_FLOAT"}}}, {"name": "PartitionedCall/onnx_tf_prefix_Constant_388", "op": "Const", "attr": {"dtype": {"type": "DT_FLOAT"}, "value": {"tensor": {"dtype": "DT_FLOAT", "tensorShape": {}}}}}, {"name": "unknown_100", "op": "Const", "attr": {"dtype": {"type": "DT_FLOAT"}, "value": {"tensor": {"dtype": "DT_FLOAT", "tensorShape": {"dim": [{"size": "3072"}]}}}}}, {"name": "unknown_97", "op": "Const", "attr": {"value": {"tensor": {"dtype": "DT_FLOAT", "tensorShape": {"dim": [{"size": "768"}]}}}, "dtype": {"type": "DT_FLOAT"}}}, {"name": "PartitionedCall/onnx_tf_prefix_ReduceMean_373/reduction_indices", "op": "Const", "attr": {"value": {"tensor": {"dtype": "DT_INT32", "tensorShape": {}}}, "dtype": {"type": "DT_INT32"}}}, {"name": "PartitionedCall/onnx_tf_prefix_Constant_374", "op": "Const", "attr": {"value": {"tensor": {"dtype": "DT_FLOAT", "tensorShape": {}}}, "dtype": {"type": "DT_FLOAT"}}}, {"name": "unknown_96", "op": "Const", "attr": {"value": {"tensor": {"dtype": "DT_FLOAT", "tensorShape": {"dim": [{"size": "768"}]}}}, "dtype": {"type": "DT_FLOAT"}}}, {"name": "PartitionedCall/onnx_tf_prefix_Constant_360", "op": "Const", "attr": {"value": {"tensor": {"dtype": "DT_FLOAT", "tensorShape": {}}}, "dtype": {"type": "DT_FLOAT"}}}, {"name": "unknown_92", "op": "Const", "attr": {"value": {"tensor": {"dtype": "DT_FLOAT", "tensorShape": {"dim": [{"size": "2304"}]}}}, "dtype": {"type": "DT_FLOAT"}}}, {"name": "unknown_89", "op": "Const", "attr": {"dtype": {"type": "DT_FLOAT"}, "value": {"tensor": {"dtype": "DT_FLOAT", "tensorShape": {"dim": [{"size": "768"}]}}}}}, {"name": "PartitionedCall/onnx_tf_prefix_ReduceMean_343/reduction_indices", "op": "Const", "attr": {"dtype": {"type": "DT_INT32"}, "value": {"tensor": {"dtype": "DT_INT32", "tensorShape": {}}}}}, {"name": "PartitionedCall/onnx_tf_prefix_Constant_344", "op": "Const", "attr": {"value": {"tensor": {"dtype": "DT_FLOAT", "tensorShape": {}}}, "dtype": {"type": "DT_FLOAT"}}}, {"name": "unknown_88", "op": "Const", "attr": {"value": {"tensor": {"dtype": "DT_FLOAT", "tensorShape": {"dim": [{"size": "768"}]}}}, "dtype": {"type": "DT_FLOAT"}}}, {"name": "PartitionedCall/onnx_tf_prefix_Constant_334", "op": "Const", "attr": {"dtype": {"type": "DT_FLOAT"}, "value": {"tensor": {"dtype": "DT_FLOAT", "tensorShape": {}}}}}, {"name": "unknown_86", "op": "Const", "attr": {"value": {"tensor": {"dtype": "DT_FLOAT", "tensorShape": {"dim": [{"size": "3072"}]}}}, "dtype": {"type": "DT_FLOAT"}}}, {"name": "unknown_83", "op": "Const", "attr": {"value": {"tensor": {"dtype": "DT_FLOAT", "tensorShape": {"dim": [{"size": "768"}]}}}, "dtype": {"type": "DT_FLOAT"}}}, {"name": "PartitionedCall/onnx_tf_prefix_ReduceMean_319/reduction_indices", "op": "Const", "attr": {"value": {"tensor": {"dtype": "DT_INT32", "tensorShape": {}}}, "dtype": {"type": "DT_INT32"}}}, {"name": "PartitionedCall/onnx_tf_prefix_Constant_320", "op": "Const", "attr": {"dtype": {"type": "DT_FLOAT"}, "value": {"tensor": {"dtype": "DT_FLOAT", "tensorShape": {}}}}}, {"name": "unknown_82", "op": "Const", "attr": {"value": {"tensor": {"dtype": "DT_FLOAT", "tensorShape": {"dim": [{"size": "768"}]}}}, "dtype": {"type": "DT_FLOAT"}}}, {"name": "PartitionedCall/onnx_tf_prefix_Constant_306", "op": "Const", "attr": {"value": {"tensor": {"dtype": "DT_FLOAT", "tensorShape": {}}}, "dtype": {"type": "DT_FLOAT"}}}, {"name": "unknown_78", "op": "Const", "attr": {"value": {"tensor": {"dtype": "DT_FLOAT", "tensorShape": {"dim": [{"size": "2304"}]}}}, "dtype": {"type": "DT_FLOAT"}}}, {"name": "unknown_75", "op": "Const", "attr": {"value": {"tensor": {"dtype": "DT_FLOAT", "tensorShape": {"dim": [{"size": "768"}]}}}, "dtype": {"type": "DT_FLOAT"}}}, {"name": "PartitionedCall/onnx_tf_prefix_ReduceMean_289/reduction_indices", "op": "Const", "attr": {"value": {"tensor": {"dtype": "DT_INT32", "tensorShape": {}}}, "dtype": {"type": "DT_INT32"}}}, {"name": "PartitionedCall/onnx_tf_prefix_Constant_290", "op": "Const", "attr": {"dtype": {"type": "DT_FLOAT"}, "value": {"tensor": {"dtype": "DT_FLOAT", "tensorShape": {}}}}}, {"name": "unknown_74", "op": "Const", "attr": {"value": {"tensor": {"dtype": "DT_FLOAT", "tensorShape": {"dim": [{"size": "768"}]}}}, "dtype": {"type": "DT_FLOAT"}}}, {"name": "PartitionedCall/onnx_tf_prefix_Constant_280", "op": "Const", "attr": {"dtype": {"type": "DT_FLOAT"}, "value": {"tensor": {"dtype": "DT_FLOAT", "tensorShape": {}}}}}, {"name": "unknown_72", "op": "Const", "attr": {"dtype": {"type": "DT_FLOAT"}, "value": {"tensor": {"dtype": "DT_FLOAT", "tensorShape": {"dim": [{"size": "3072"}]}}}}}, {"name": "unknown_69", "op": "Const", "attr": {"value": {"tensor": {"dtype": "DT_FLOAT", "tensorShape": {"dim": [{"size": "768"}]}}}, "dtype": {"type": "DT_FLOAT"}}}, {"name": "PartitionedCall/onnx_tf_prefix_ReduceMean_265/reduction_indices", "op": "Const", "attr": {"value": {"tensor": {"dtype": "DT_INT32", "tensorShape": {}}}, "dtype": {"type": "DT_INT32"}}}, {"name": "PartitionedCall/onnx_tf_prefix_Constant_266", "op": "Const", "attr": {"dtype": {"type": "DT_FLOAT"}, "value": {"tensor": {"dtype": "DT_FLOAT", "tensorShape": {}}}}}, {"name": "unknown_68", "op": "Const", "attr": {"dtype": {"type": "DT_FLOAT"}, "value": {"tensor": {"dtype": "DT_FLOAT", "tensorShape": {"dim": [{"size": "768"}]}}}}}, {"name": "PartitionedCall/onnx_tf_prefix_Constant_252", "op": "Const", "attr": {"dtype": {"type": "DT_FLOAT"}, "value": {"tensor": {"dtype": "DT_FLOAT", "tensorShape": {}}}}}, {"name": "unknown_64", "op": "Const", "attr": {"dtype": {"type": "DT_FLOAT"}, "value": {"tensor": {"dtype": "DT_FLOAT", "tensorShape": {"dim": [{"size": "2304"}]}}}}}, {"name": "unknown_61", "op": "Const", "attr": {"value": {"tensor": {"dtype": "DT_FLOAT", "tensorShape": {"dim": [{"size": "768"}]}}}, "dtype": {"type": "DT_FLOAT"}}}, {"name": "PartitionedCall/onnx_tf_prefix_ReduceMean_235/reduction_indices", "op": "Const", "attr": {"value": {"tensor": {"dtype": "DT_INT32", "tensorShape": {}}}, "dtype": {"type": "DT_INT32"}}}, {"name": "PartitionedCall/onnx_tf_prefix_Constant_236", "op": "Const", "attr": {"value": {"tensor": {"dtype": "DT_FLOAT", "tensorShape": {}}}, "dtype": {"type": "DT_FLOAT"}}}, {"name": "unknown_60", "op": "Const", "attr": {"value": {"tensor": {"dtype": "DT_FLOAT", "tensorShape": {"dim": [{"size": "768"}]}}}, "dtype": {"type": "DT_FLOAT"}}}, {"name": "PartitionedCall/onnx_tf_prefix_Constant_226", "op": "Const", "attr": {"value": {"tensor": {"dtype": "DT_FLOAT", "tensorShape": {}}}, "dtype": {"type": "DT_FLOAT"}}}, {"name": "unknown_58", "op": "Const", "attr": {"dtype": {"type": "DT_FLOAT"}, "value": {"tensor": {"dtype": "DT_FLOAT", "tensorShape": {"dim": [{"size": "3072"}]}}}}}, {"name": "unknown_55", "op": "Const", "attr": {"value": {"tensor": {"dtype": "DT_FLOAT", "tensorShape": {"dim": [{"size": "768"}]}}}, "dtype": {"type": "DT_FLOAT"}}}, {"name": "PartitionedCall/onnx_tf_prefix_ReduceMean_211/reduction_indices", "op": "Const", "attr": {"dtype": {"type": "DT_INT32"}, "value": {"tensor": {"dtype": "DT_INT32", "tensorShape": {}}}}}, {"name": "PartitionedCall/onnx_tf_prefix_Constant_212", "op": "Const", "attr": {"dtype": {"type": "DT_FLOAT"}, "value": {"tensor": {"dtype": "DT_FLOAT", "tensorShape": {}}}}}, {"name": "unknown_54", "op": "Const", "attr": {"value": {"tensor": {"dtype": "DT_FLOAT", "tensorShape": {"dim": [{"size": "768"}]}}}, "dtype": {"type": "DT_FLOAT"}}}, {"name": "PartitionedCall/onnx_tf_prefix_Constant_198", "op": "Const", "attr": {"value": {"tensor": {"dtype": "DT_FLOAT", "tensorShape": {}}}, "dtype": {"type": "DT_FLOAT"}}}, {"name": "unknown_50", "op": "Const", "attr": {"dtype": {"type": "DT_FLOAT"}, "value": {"tensor": {"dtype": "DT_FLOAT", "tensorShape": {"dim": [{"size": "2304"}]}}}}}, {"name": "unknown_47", "op": "Const", "attr": {"dtype": {"type": "DT_FLOAT"}, "value": {"tensor": {"dtype": "DT_FLOAT", "tensorShape": {"dim": [{"size": "768"}]}}}}}, {"name": "PartitionedCall/onnx_tf_prefix_ReduceMean_181/reduction_indices", "op": "Const", "attr": {"dtype": {"type": "DT_INT32"}, "value": {"tensor": {"dtype": "DT_INT32", "tensorShape": {}}}}}, {"name": "PartitionedCall/onnx_tf_prefix_Constant_182", "op": "Const", "attr": {"value": {"tensor": {"dtype": "DT_FLOAT", "tensorShape": {}}}, "dtype": {"type": "DT_FLOAT"}}}, {"name": "unknown_46", "op": "Const", "attr": {"value": {"tensor": {"dtype": "DT_FLOAT", "tensorShape": {"dim": [{"size": "768"}]}}}, "dtype": {"type": "DT_FLOAT"}}}, {"name": "PartitionedCall/onnx_tf_prefix_Constant_172", "op": "Const", "attr": {"value": {"tensor": {"dtype": "DT_FLOAT", "tensorShape": {}}}, "dtype": {"type": "DT_FLOAT"}}}, {"name": "unknown_44", "op": "Const", "attr": {"value": {"tensor": {"dtype": "DT_FLOAT", "tensorShape": {"dim": [{"size": "3072"}]}}}, "dtype": {"type": "DT_FLOAT"}}}, {"name": "unknown_41", "op": "Const", "attr": {"value": {"tensor": {"dtype": "DT_FLOAT", "tensorShape": {"dim": [{"size": "768"}]}}}, "dtype": {"type": "DT_FLOAT"}}}, {"name": "PartitionedCall/onnx_tf_prefix_ReduceMean_157/reduction_indices", "op": "Const", "attr": {"value": {"tensor": {"dtype": "DT_INT32", "tensorShape": {}}}, "dtype": {"type": "DT_INT32"}}}, {"name": "PartitionedCall/onnx_tf_prefix_Constant_158", "op": "Const", "attr": {"dtype": {"type": "DT_FLOAT"}, "value": {"tensor": {"dtype": "DT_FLOAT", "tensorShape": {}}}}}, {"name": "unknown_40", "op": "Const", "attr": {"dtype": {"type": "DT_FLOAT"}, "value": {"tensor": {"dtype": "DT_FLOAT", "tensorShape": {"dim": [{"size": "768"}]}}}}}, {"name": "PartitionedCall/onnx_tf_prefix_Constant_144", "op": "Const", "attr": {"value": {"tensor": {"dtype": "DT_FLOAT", "tensorShape": {}}}, "dtype": {"type": "DT_FLOAT"}}}, {"name": "unknown_36", "op": "Const", "attr": {"value": {"tensor": {"dtype": "DT_FLOAT", "tensorShape": {"dim": [{"size": "2304"}]}}}, "dtype": {"type": "DT_FLOAT"}}}, {"name": "unknown_33", "op": "Const", "attr": {"value": {"tensor": {"dtype": "DT_FLOAT", "tensorShape": {"dim": [{"size": "768"}]}}}, "dtype": {"type": "DT_FLOAT"}}}, {"name": "PartitionedCall/onnx_tf_prefix_ReduceMean_127/reduction_indices", "op": "Const", "attr": {"dtype": {"type": "DT_INT32"}, "value": {"tensor": {"dtype": "DT_INT32", "tensorShape": {}}}}}, {"name": "PartitionedCall/onnx_tf_prefix_Constant_128", "op": "Const", "attr": {"value": {"tensor": {"dtype": "DT_FLOAT", "tensorShape": {}}}, "dtype": {"type": "DT_FLOAT"}}}, {"name": "unknown_32", "op": "Const", "attr": {"dtype": {"type": "DT_FLOAT"}, "value": {"tensor": {"dtype": "DT_FLOAT", "tensorShape": {"dim": [{"size": "768"}]}}}}}, {"name": "PartitionedCall/onnx_tf_prefix_Constant_118", "op": "Const", "attr": {"value": {"tensor": {"dtype": "DT_FLOAT", "tensorShape": {}}}, "dtype": {"type": "DT_FLOAT"}}}, {"name": "unknown_30", "op": "Const", "attr": {"dtype": {"type": "DT_FLOAT"}, "value": {"tensor": {"dtype": "DT_FLOAT", "tensorShape": {"dim": [{"size": "3072"}]}}}}}, {"name": "unknown_27", "op": "Const", "attr": {"value": {"tensor": {"dtype": "DT_FLOAT", "tensorShape": {"dim": [{"size": "768"}]}}}, "dtype": {"type": "DT_FLOAT"}}}, {"name": "PartitionedCall/onnx_tf_prefix_ReduceMean_103/reduction_indices", "op": "Const", "attr": {"value": {"tensor": {"dtype": "DT_INT32", "tensorShape": {}}}, "dtype": {"type": "DT_INT32"}}}, {"name": "PartitionedCall/onnx_tf_prefix_Constant_104", "op": "Const", "attr": {"dtype": {"type": "DT_FLOAT"}, "value": {"tensor": {"dtype": "DT_FLOAT", "tensorShape": {}}}}}, {"name": "unknown_26", "op": "Const", "attr": {"dtype": {"type": "DT_FLOAT"}, "value": {"tensor": {"dtype": "DT_FLOAT", "tensorShape": {"dim": [{"size": "768"}]}}}}}, {"name": "PartitionedCall/onnx_tf_prefix_Constant_90", "op": "Const", "attr": {"dtype": {"type": "DT_FLOAT"}, "value": {"tensor": {"dtype": "DT_FLOAT", "tensorShape": {}}}}}, {"name": "unknown_22", "op": "Const", "attr": {"dtype": {"type": "DT_FLOAT"}, "value": {"tensor": {"dtype": "DT_FLOAT", "tensorShape": {"dim": [{"size": "2304"}]}}}}}, {"name": "unknown_19", "op": "Const", "attr": {"dtype": {"type": "DT_FLOAT"}, "value": {"tensor": {"dtype": "DT_FLOAT", "tensorShape": {"dim": [{"size": "768"}]}}}}}, {"name": "PartitionedCall/onnx_tf_prefix_ReduceMean_73/reduction_indices", "op": "Const", "attr": {"value": {"tensor": {"dtype": "DT_INT32", "tensorShape": {}}}, "dtype": {"type": "DT_INT32"}}}, {"name": "PartitionedCall/onnx_tf_prefix_Constant_74", "op": "Const", "attr": {"value": {"tensor": {"dtype": "DT_FLOAT", "tensorShape": {}}}, "dtype": {"type": "DT_FLOAT"}}}, {"name": "unknown_18", "op": "Const", "attr": {"dtype": {"type": "DT_FLOAT"}, "value": {"tensor": {"dtype": "DT_FLOAT", "tensorShape": {"dim": [{"size": "768"}]}}}}}, {"name": "PartitionedCall/onnx_tf_prefix_Constant_64", "op": "Const", "attr": {"dtype": {"type": "DT_FLOAT"}, "value": {"tensor": {"dtype": "DT_FLOAT", "tensorShape": {}}}}}, {"name": "unknown_16", "op": "Const", "attr": {"value": {"tensor": {"dtype": "DT_FLOAT", "tensorShape": {"dim": [{"size": "3072"}]}}}, "dtype": {"type": "DT_FLOAT"}}}, {"name": "unknown_13", "op": "Const", "attr": {"value": {"tensor": {"dtype": "DT_FLOAT", "tensorShape": {"dim": [{"size": "768"}]}}}, "dtype": {"type": "DT_FLOAT"}}}, {"name": "PartitionedCall/onnx_tf_prefix_ReduceMean_49/reduction_indices", "op": "Const", "attr": {"dtype": {"type": "DT_INT32"}, "value": {"tensor": {"dtype": "DT_INT32", "tensorShape": {}}}}}, {"name": "PartitionedCall/onnx_tf_prefix_Constant_50", "op": "Const", "attr": {"dtype": {"type": "DT_FLOAT"}, "value": {"tensor": {"dtype": "DT_FLOAT", "tensorShape": {}}}}}, {"name": "unknown_12", "op": "Const", "attr": {"dtype": {"type": "DT_FLOAT"}, "value": {"tensor": {"dtype": "DT_FLOAT", "tensorShape": {"dim": [{"size": "768"}]}}}}}, {"name": "PartitionedCall/onnx_tf_prefix_Constant_36", "op": "Const", "attr": {"dtype": {"type": "DT_FLOAT"}, "value": {"tensor": {"dtype": "DT_FLOAT", "tensorShape": {}}}}}, {"name": "unknown_8", "op": "Const", "attr": {"dtype": {"type": "DT_FLOAT"}, "value": {"tensor": {"dtype": "DT_FLOAT", "tensorShape": {"dim": [{"size": "2304"}]}}}}}, {"name": "PartitionedCall/onnx_tf_prefix_ReduceMean_19/reduction_indices", "op": "Const", "attr": {"value": {"tensor": {"dtype": "DT_INT32", "tensorShape": {}}}, "dtype": {"type": "DT_INT32"}}}, {"name": "PartitionedCall/onnx_tf_prefix_Constant_20", "op": "Const", "attr": {"dtype": {"type": "DT_FLOAT"}, "value": {"tensor": {"dtype": "DT_FLOAT", "tensorShape": {}}}}}, {"name": "unknown_5", "op": "Const", "attr": {"dtype": {"type": "DT_FLOAT"}, "value": {"tensor": {"dtype": "DT_FLOAT", "tensorShape": {"dim": [{"size": "768"}]}}}}}, {"name": "PartitionedCall/mul", "op": "Const", "attr": {"dtype": {"type": "DT_FLOAT"}, "value": {"tensor": {"dtype": "DT_FLOAT", "tensorShape": {"dim": [{"size": "1"}, {"size": "1"}, {"size": "768"}]}}}}}, {"name": "PartitionedCall/transpose_1/perm", "op": "Const", "attr": {"value": {"tensor": {"dtype": "DT_INT32", "tensorShape": {"dim": [{"size": "4"}]}}}, "dtype": {"type": "DT_INT32"}}}, {"name": "PartitionedCall/split", "op": "Const", "attr": {"value": {"tensor": {"dtype": "DT_FLOAT", "tensorShape": {"dim": [{"size": "16"}, {"size": "16"}, {"size": "3"}, {"size": "768"}]}}}, "dtype": {"type": "DT_FLOAT"}}}, {"name": "unknown_0", "op": "Const", "attr": {"dtype": {"type": "DT_FLOAT"}, "value": {"tensor": {"dtype": "DT_FLOAT", "tensorShape": {"dim": [{"size": "768"}]}}}}}, {"name": "PartitionedCall/transpose_2/perm", "op": "Const", "attr": {"dtype": {"type": "DT_INT32"}, "value": {"tensor": {"dtype": "DT_INT32", "tensorShape": {"dim": [{"size": "4"}]}}}}}, {"name": "PartitionedCall/onnx_tf_prefix_Concat_4", "op": "Const", "attr": {"value": {"tensor": {"dtype": "DT_INT64", "tensorShape": {"dim": [{"size": "3"}]}}}, "dtype": {"type": "DT_INT64"}}}, {"name": "PartitionedCall/Where", "op": "Const", "attr": {"value": {"tensor": {"dtype": "DT_INT64", "tensorShape": {"dim": [{}, {"size": "1"}]}}}, "dtype": {"type": "DT_INT64"}}}, {"name": "PartitionedCall/Cast", "op": "Const", "attr": {"value": {"tensor": {"dtype": "DT_INT64", "tensorShape": {"dim": [{"size": "1"}]}}}, "dtype": {"type": "DT_INT64"}}}, {"name": "PartitionedCall/GatherV2", "op": "Const", "attr": {"dtype": {"type": "DT_INT64"}, "value": {"tensor": {"dtype": "DT_INT64", "tensorShape": {"dim": [{}]}}}}}, {"name": "PartitionedCall/zeros", "op": "Const", "attr": {"dtype": {"type": "DT_INT64"}, "value": {"tensor": {"dtype": "DT_INT64", "tensorShape": {}}}}}, {"name": "PartitionedCall/onnx_tf_prefix_Transpose_6/perm", "op": "Const", "attr": {"value": {"tensor": {"dtype": "DT_INT32", "tensorShape": {"dim": [{"size": "3"}]}}}, "dtype": {"type": "DT_INT32"}}}, {"name": "PartitionedCall/onnx_tf_prefix_Concat_13/axis", "op": "Const", "attr": {"dtype": {"type": "DT_INT32"}, "value": {"tensor": {"dtype": "DT_INT32", "tensorShape": {}}}}}, {"name": "unknown_4", "op": "Const", "attr": {"value": {"tensor": {"dtype": "DT_FLOAT", "tensorShape": {"dim": [{"size": "1"}, {"size": "197"}, {"size": "768"}]}}}, "dtype": {"type": "DT_FLOAT"}}}, {"name": "PartitionedCall/onnx_tf_prefix_ReduceMean_15/reduction_indices", "op": "Const", "attr": {"value": {"tensor": {"dtype": "DT_INT32", "tensorShape": {}}}, "dtype": {"type": "DT_INT32"}}}, {"name": "unknown_6", "op": "Const", "attr": {"dtype": {"type": "DT_FLOAT"}, "value": {"tensor": {"dtype": "DT_FLOAT", "tensorShape": {"dim": [{"size": "768"}]}}}}}, {"name": "unknown_7", "op": "Const", "attr": {"value": {"tensor": {"dtype": "DT_FLOAT", "tensorShape": {"dim": [{"size": "768"}, {"size": "2304"}]}}}, "dtype": {"type": "DT_FLOAT"}}}, {"name": "unknown_9", "op": "Const", "attr": {"dtype": {"type": "DT_INT64"}, "value": {"tensor": {"dtype": "DT_INT64", "tensorShape": {"dim": [{"size": "5"}]}}}}}, {"name": "PartitionedCall/Where_1", "op": "Const", "attr": {"value": {"tensor": {"dtype": "DT_INT64", "tensorShape": {"dim": [{}, {"size": "1"}]}}}, "dtype": {"type": "DT_INT64"}}}, {"name": "PartitionedCall/Cast_1", "op": "Const", "attr": {"dtype": {"type": "DT_INT64"}, "value": {"tensor": {"dtype": "DT_INT64", "tensorShape": {"dim": [{"size": "1"}]}}}}}, {"name": "PartitionedCall/GatherV2_1", "op": "Const", "attr": {"dtype": {"type": "DT_INT64"}, "value": {"tensor": {"dtype": "DT_INT64", "tensorShape": {"dim": [{}]}}}}}, {"name": "PartitionedCall/zeros_1", "op": "Const", "attr": {"dtype": {"type": "DT_INT64"}, "value": {"tensor": {"dtype": "DT_INT64", "tensorShape": {}}}}}, {"name": "PartitionedCall/onnx_tf_prefix_Transpose_29/perm", "op": "Const", "attr": {"value": {"tensor": {"dtype": "DT_INT32", "tensorShape": {"dim": [{"size": "5"}]}}}, "dtype": {"type": "DT_INT32"}}}, {"name": "PartitionedCall/Const_2", "op": "Const", "attr": {"dtype": {"type": "DT_INT32"}, "value": {"tensor": {"dtype": "DT_INT32", "tensorShape": {"dim": [{"size": "3"}]}}}}}, {"name": "PartitionedCall/onnx_tf_prefix_Split_30/split_dim", "op": "Const", "attr": {"dtype": {"type": "DT_INT32"}, "value": {"tensor": {"dtype": "DT_INT32", "tensorShape": {}}}}}, {"name": "PartitionedCall/onnx_tf_prefix_Transpose_40/perm", "op": "Const", "attr": {"dtype": {"type": "DT_INT32"}, "value": {"tensor": {"dtype": "DT_INT32", "tensorShape": {"dim": [{"size": "4"}]}}}}}, {"name": "unknown_10", "op": "Const", "attr": {"value": {"tensor": {"dtype": "DT_INT64", "tensorShape": {"dim": [{"size": "3"}]}}}, "dtype": {"type": "DT_INT64"}}}, {"name": "PartitionedCall/Where_2", "op": "Const", "attr": {"value": {"tensor": {"dtype": "DT_INT64", "tensorShape": {"dim": [{}, {"size": "1"}]}}}, "dtype": {"type": "DT_INT64"}}}, {"name": "PartitionedCall/Cast_2", "op": "Const", "attr": {"dtype": {"type": "DT_INT64"}, "value": {"tensor": {"dtype": "DT_INT64", "tensorShape": {"dim": [{"size": "1"}]}}}}}, {"name": "PartitionedCall/GatherV2_2", "op": "Const", "attr": {"value": {"tensor": {"dtype": "DT_INT64", "tensorShape": {"dim": [{}]}}}, "dtype": {"type": "DT_INT64"}}}, {"name": "PartitionedCall/zeros_2", "op": "Const", "attr": {"value": {"tensor": {"dtype": "DT_INT64", "tensorShape": {}}}, "dtype": {"type": "DT_INT64"}}}, {"name": "unknown_11", "op": "Const", "attr": {"value": {"tensor": {"dtype": "DT_FLOAT", "tensorShape": {"dim": [{"size": "768"}, {"size": "768"}]}}}, "dtype": {"type": "DT_FLOAT"}}}, {"name": "PartitionedCall/onnx_tf_prefix_ReduceMean_45/reduction_indices", "op": "Const", "attr": {"dtype": {"type": "DT_INT32"}, "value": {"tensor": {"dtype": "DT_INT32", "tensorShape": {}}}}}, {"name": "unknown_14", "op": "Const", "attr": {"value": {"tensor": {"dtype": "DT_FLOAT", "tensorShape": {"dim": [{"size": "768"}]}}}, "dtype": {"type": "DT_FLOAT"}}}, {"name": "unknown_15", "op": "Const", "attr": {"dtype": {"type": "DT_FLOAT"}, "value": {"tensor": {"dtype": "DT_FLOAT", "tensorShape": {"dim": [{"size": "768"}, {"size": "3072"}]}}}}}, {"name": "ConstantFolding/PartitionedCall/onnx_tf_prefix_Div_59_recip", "op": "Const", "attr": {"value": {"tensor": {"dtype": "DT_FLOAT", "tensorShape": {}}}, "dtype": {"type": "DT_FLOAT"}}}, {"name": "PartitionedCall/onnx_tf_prefix_Constant_61", "op": "Const", "attr": {"dtype": {"type": "DT_FLOAT"}, "value": {"tensor": {"dtype": "DT_FLOAT", "tensorShape": {}}}}}, {"name": "unknown_17", "op": "Const", "attr": {"value": {"tensor": {"dtype": "DT_FLOAT", "tensorShape": {"dim": [{"size": "3072"}, {"size": "768"}]}}}, "dtype": {"type": "DT_FLOAT"}}}, {"name": "PartitionedCall/onnx_tf_prefix_ReduceMean_69/reduction_indices", "op": "Const", "attr": {"dtype": {"type": "DT_INT32"}, "value": {"tensor": {"dtype": "DT_INT32", "tensorShape": {}}}}}, {"name": "unknown_20", "op": "Const", "attr": {"value": {"tensor": {"dtype": "DT_FLOAT", "tensorShape": {"dim": [{"size": "768"}]}}}, "dtype": {"type": "DT_FLOAT"}}}, {"name": "unknown_21", "op": "Const", "attr": {"dtype": {"type": "DT_FLOAT"}, "value": {"tensor": {"dtype": "DT_FLOAT", "tensorShape": {"dim": [{"size": "768"}, {"size": "2304"}]}}}}}, {"name": "unknown_23", "op": "Const", "attr": {"value": {"tensor": {"dtype": "DT_INT64", "tensorShape": {"dim": [{"size": "5"}]}}}, "dtype": {"type": "DT_INT64"}}}, {"name": "PartitionedCall/Where_3", "op": "Const", "attr": {"value": {"tensor": {"dtype": "DT_INT64", "tensorShape": {"dim": [{}, {"size": "1"}]}}}, "dtype": {"type": "DT_INT64"}}}, {"name": "PartitionedCall/Cast_3", "op": "Const", "attr": {"value": {"tensor": {"dtype": "DT_INT64", "tensorShape": {"dim": [{"size": "1"}]}}}, "dtype": {"type": "DT_INT64"}}}, {"name": "PartitionedCall/GatherV2_3", "op": "Const", "attr": {"value": {"tensor": {"dtype": "DT_INT64", "tensorShape": {"dim": [{}]}}}, "dtype": {"type": "DT_INT64"}}}, {"name": "PartitionedCall/zeros_3", "op": "Const", "attr": {"dtype": {"type": "DT_INT64"}, "value": {"tensor": {"dtype": "DT_INT64", "tensorShape": {}}}}}, {"name": "PartitionedCall/onnx_tf_prefix_Transpose_83/perm", "op": "Const", "attr": {"value": {"tensor": {"dtype": "DT_INT32", "tensorShape": {"dim": [{"size": "5"}]}}}, "dtype": {"type": "DT_INT32"}}}, {"name": "PartitionedCall/Const_5", "op": "Const", "attr": {"dtype": {"type": "DT_INT32"}, "value": {"tensor": {"dtype": "DT_INT32", "tensorShape": {"dim": [{"size": "3"}]}}}}}, {"name": "PartitionedCall/onnx_tf_prefix_Split_84/split_dim", "op": "Const", "attr": {"value": {"tensor": {"dtype": "DT_INT32", "tensorShape": {}}}, "dtype": {"type": "DT_INT32"}}}, {"name": "PartitionedCall/onnx_tf_prefix_Transpose_94/perm", "op": "Const", "attr": {"dtype": {"type": "DT_INT32"}, "value": {"tensor": {"dtype": "DT_INT32", "tensorShape": {"dim": [{"size": "4"}]}}}}}, {"name": "unknown_24", "op": "Const", "attr": {"dtype": {"type": "DT_INT64"}, "value": {"tensor": {"dtype": "DT_INT64", "tensorShape": {"dim": [{"size": "3"}]}}}}}, {"name": "PartitionedCall/Where_4", "op": "Const", "attr": {"dtype": {"type": "DT_INT64"}, "value": {"tensor": {"dtype": "DT_INT64", "tensorShape": {"dim": [{}, {"size": "1"}]}}}}}, {"name": "PartitionedCall/Cast_4", "op": "Const", "attr": {"value": {"tensor": {"dtype": "DT_INT64", "tensorShape": {"dim": [{"size": "1"}]}}}, "dtype": {"type": "DT_INT64"}}}, {"name": "PartitionedCall/GatherV2_4", "op": "Const", "attr": {"dtype": {"type": "DT_INT64"}, "value": {"tensor": {"dtype": "DT_INT64", "tensorShape": {"dim": [{}]}}}}}, {"name": "PartitionedCall/zeros_4", "op": "Const", "attr": {"dtype": {"type": "DT_INT64"}, "value": {"tensor": {"dtype": "DT_INT64", "tensorShape": {}}}}}, {"name": "unknown_25", "op": "Const", "attr": {"dtype": {"type": "DT_FLOAT"}, "value": {"tensor": {"dtype": "DT_FLOAT", "tensorShape": {"dim": [{"size": "768"}, {"size": "768"}]}}}}}, {"name": "PartitionedCall/onnx_tf_prefix_ReduceMean_99/reduction_indices", "op": "Const", "attr": {"value": {"tensor": {"dtype": "DT_INT32", "tensorShape": {}}}, "dtype": {"type": "DT_INT32"}}}, {"name": "unknown_28", "op": "Const", "attr": {"value": {"tensor": {"dtype": "DT_FLOAT", "tensorShape": {"dim": [{"size": "768"}]}}}, "dtype": {"type": "DT_FLOAT"}}}, {"name": "unknown_29", "op": "Const", "attr": {"value": {"tensor": {"dtype": "DT_FLOAT", "tensorShape": {"dim": [{"size": "768"}, {"size": "3072"}]}}}, "dtype": {"type": "DT_FLOAT"}}}, {"name": "ConstantFolding/PartitionedCall/onnx_tf_prefix_Div_113_recip", "op": "Const", "attr": {"value": {"tensor": {"dtype": "DT_FLOAT", "tensorShape": {}}}, "dtype": {"type": "DT_FLOAT"}}}, {"name": "PartitionedCall/onnx_tf_prefix_Constant_115", "op": "Const", "attr": {"dtype": {"type": "DT_FLOAT"}, "value": {"tensor": {"dtype": "DT_FLOAT", "tensorShape": {}}}}}, {"name": "unknown_31", "op": "Const", "attr": {"value": {"tensor": {"dtype": "DT_FLOAT", "tensorShape": {"dim": [{"size": "3072"}, {"size": "768"}]}}}, "dtype": {"type": "DT_FLOAT"}}}, {"name": "PartitionedCall/onnx_tf_prefix_ReduceMean_123/reduction_indices", "op": "Const", "attr": {"value": {"tensor": {"dtype": "DT_INT32", "tensorShape": {}}}, "dtype": {"type": "DT_INT32"}}}, {"name": "unknown_34", "op": "Const", "attr": {"dtype": {"type": "DT_FLOAT"}, "value": {"tensor": {"dtype": "DT_FLOAT", "tensorShape": {"dim": [{"size": "768"}]}}}}}, {"name": "unknown_35", "op": "Const", "attr": {"value": {"tensor": {"dtype": "DT_FLOAT", "tensorShape": {"dim": [{"size": "768"}, {"size": "2304"}]}}}, "dtype": {"type": "DT_FLOAT"}}}, {"name": "unknown_37", "op": "Const", "attr": {"dtype": {"type": "DT_INT64"}, "value": {"tensor": {"dtype": "DT_INT64", "tensorShape": {"dim": [{"size": "5"}]}}}}}, {"name": "PartitionedCall/Where_5", "op": "Const", "attr": {"dtype": {"type": "DT_INT64"}, "value": {"tensor": {"dtype": "DT_INT64", "tensorShape": {"dim": [{}, {"size": "1"}]}}}}}, {"name": "PartitionedCall/Cast_5", "op": "Const", "attr": {"value": {"tensor": {"dtype": "DT_INT64", "tensorShape": {"dim": [{"size": "1"}]}}}, "dtype": {"type": "DT_INT64"}}}, {"name": "PartitionedCall/GatherV2_5", "op": "Const", "attr": {"dtype": {"type": "DT_INT64"}, "value": {"tensor": {"dtype": "DT_INT64", "tensorShape": {"dim": [{}]}}}}}, {"name": "PartitionedCall/zeros_5", "op": "Const", "attr": {"value": {"tensor": {"dtype": "DT_INT64", "tensorShape": {}}}, "dtype": {"type": "DT_INT64"}}}, {"name": "PartitionedCall/onnx_tf_prefix_Transpose_137/perm", "op": "Const", "attr": {"value": {"tensor": {"dtype": "DT_INT32", "tensorShape": {"dim": [{"size": "5"}]}}}, "dtype": {"type": "DT_INT32"}}}, {"name": "PartitionedCall/Const_8", "op": "Const", "attr": {"value": {"tensor": {"dtype": "DT_INT32", "tensorShape": {"dim": [{"size": "3"}]}}}, "dtype": {"type": "DT_INT32"}}}, {"name": "PartitionedCall/onnx_tf_prefix_Split_138/split_dim", "op": "Const", "attr": {"dtype": {"type": "DT_INT32"}, "value": {"tensor": {"dtype": "DT_INT32", "tensorShape": {}}}}}, {"name": "PartitionedCall/onnx_tf_prefix_Transpose_148/perm", "op": "Const", "attr": {"dtype": {"type": "DT_INT32"}, "value": {"tensor": {"dtype": "DT_INT32", "tensorShape": {"dim": [{"size": "4"}]}}}}}, {"name": "unknown_38", "op": "Const", "attr": {"value": {"tensor": {"dtype": "DT_INT64", "tensorShape": {"dim": [{"size": "3"}]}}}, "dtype": {"type": "DT_INT64"}}}, {"name": "PartitionedCall/Where_6", "op": "Const", "attr": {"value": {"tensor": {"dtype": "DT_INT64", "tensorShape": {"dim": [{}, {"size": "1"}]}}}, "dtype": {"type": "DT_INT64"}}}, {"name": "PartitionedCall/Cast_6", "op": "Const", "attr": {"dtype": {"type": "DT_INT64"}, "value": {"tensor": {"dtype": "DT_INT64", "tensorShape": {"dim": [{"size": "1"}]}}}}}, {"name": "PartitionedCall/GatherV2_6", "op": "Const", "attr": {"dtype": {"type": "DT_INT64"}, "value": {"tensor": {"dtype": "DT_INT64", "tensorShape": {"dim": [{}]}}}}}, {"name": "PartitionedCall/zeros_6", "op": "Const", "attr": {"value": {"tensor": {"dtype": "DT_INT64", "tensorShape": {}}}, "dtype": {"type": "DT_INT64"}}}, {"name": "unknown_39", "op": "Const", "attr": {"value": {"tensor": {"dtype": "DT_FLOAT", "tensorShape": {"dim": [{"size": "768"}, {"size": "768"}]}}}, "dtype": {"type": "DT_FLOAT"}}}, {"name": "PartitionedCall/onnx_tf_prefix_ReduceMean_153/reduction_indices", "op": "Const", "attr": {"value": {"tensor": {"dtype": "DT_INT32", "tensorShape": {}}}, "dtype": {"type": "DT_INT32"}}}, {"name": "unknown_42", "op": "Const", "attr": {"dtype": {"type": "DT_FLOAT"}, "value": {"tensor": {"dtype": "DT_FLOAT", "tensorShape": {"dim": [{"size": "768"}]}}}}}, {"name": "unknown_43", "op": "Const", "attr": {"value": {"tensor": {"dtype": "DT_FLOAT", "tensorShape": {"dim": [{"size": "768"}, {"size": "3072"}]}}}, "dtype": {"type": "DT_FLOAT"}}}, {"name": "ConstantFolding/PartitionedCall/onnx_tf_prefix_Div_167_recip", "op": "Const", "attr": {"dtype": {"type": "DT_FLOAT"}, "value": {"tensor": {"dtype": "DT_FLOAT", "tensorShape": {}}}}}, {"name": "PartitionedCall/onnx_tf_prefix_Constant_169", "op": "Const", "attr": {"value": {"tensor": {"dtype": "DT_FLOAT", "tensorShape": {}}}, "dtype": {"type": "DT_FLOAT"}}}, {"name": "unknown_45", "op": "Const", "attr": {"dtype": {"type": "DT_FLOAT"}, "value": {"tensor": {"dtype": "DT_FLOAT", "tensorShape": {"dim": [{"size": "3072"}, {"size": "768"}]}}}}}, {"name": "PartitionedCall/onnx_tf_prefix_ReduceMean_177/reduction_indices", "op": "Const", "attr": {"value": {"tensor": {"dtype": "DT_INT32", "tensorShape": {}}}, "dtype": {"type": "DT_INT32"}}}, {"name": "unknown_48", "op": "Const", "attr": {"dtype": {"type": "DT_FLOAT"}, "value": {"tensor": {"dtype": "DT_FLOAT", "tensorShape": {"dim": [{"size": "768"}]}}}}}, {"name": "unknown_49", "op": "Const", "attr": {"value": {"tensor": {"dtype": "DT_FLOAT", "tensorShape": {"dim": [{"size": "768"}, {"size": "2304"}]}}}, "dtype": {"type": "DT_FLOAT"}}}, {"name": "unknown_51", "op": "Const", "attr": {"dtype": {"type": "DT_INT64"}, "value": {"tensor": {"dtype": "DT_INT64", "tensorShape": {"dim": [{"size": "5"}]}}}}}, {"name": "PartitionedCall/Where_7", "op": "Const", "attr": {"dtype": {"type": "DT_INT64"}, "value": {"tensor": {"dtype": "DT_INT64", "tensorShape": {"dim": [{}, {"size": "1"}]}}}}}, {"name": "PartitionedCall/Cast_7", "op": "Const", "attr": {"value": {"tensor": {"dtype": "DT_INT64", "tensorShape": {"dim": [{"size": "1"}]}}}, "dtype": {"type": "DT_INT64"}}}, {"name": "PartitionedCall/GatherV2_7", "op": "Const", "attr": {"value": {"tensor": {"dtype": "DT_INT64", "tensorShape": {"dim": [{}]}}}, "dtype": {"type": "DT_INT64"}}}, {"name": "PartitionedCall/zeros_7", "op": "Const", "attr": {"dtype": {"type": "DT_INT64"}, "value": {"tensor": {"dtype": "DT_INT64", "tensorShape": {}}}}}, {"name": "PartitionedCall/onnx_tf_prefix_Transpose_191/perm", "op": "Const", "attr": {"dtype": {"type": "DT_INT32"}, "value": {"tensor": {"dtype": "DT_INT32", "tensorShape": {"dim": [{"size": "5"}]}}}}}, {"name": "PartitionedCall/Const_11", "op": "Const", "attr": {"dtype": {"type": "DT_INT32"}, "value": {"tensor": {"dtype": "DT_INT32", "tensorShape": {"dim": [{"size": "3"}]}}}}}, {"name": "PartitionedCall/onnx_tf_prefix_Split_192/split_dim", "op": "Const", "attr": {"value": {"tensor": {"dtype": "DT_INT32", "tensorShape": {}}}, "dtype": {"type": "DT_INT32"}}}, {"name": "PartitionedCall/onnx_tf_prefix_Transpose_202/perm", "op": "Const", "attr": {"dtype": {"type": "DT_INT32"}, "value": {"tensor": {"dtype": "DT_INT32", "tensorShape": {"dim": [{"size": "4"}]}}}}}, {"name": "unknown_52", "op": "Const", "attr": {"value": {"tensor": {"dtype": "DT_INT64", "tensorShape": {"dim": [{"size": "3"}]}}}, "dtype": {"type": "DT_INT64"}}}, {"name": "PartitionedCall/Where_8", "op": "Const", "attr": {"value": {"tensor": {"dtype": "DT_INT64", "tensorShape": {"dim": [{}, {"size": "1"}]}}}, "dtype": {"type": "DT_INT64"}}}, {"name": "PartitionedCall/Cast_8", "op": "Const", "attr": {"dtype": {"type": "DT_INT64"}, "value": {"tensor": {"dtype": "DT_INT64", "tensorShape": {"dim": [{"size": "1"}]}}}}}, {"name": "PartitionedCall/GatherV2_8", "op": "Const", "attr": {"value": {"tensor": {"dtype": "DT_INT64", "tensorShape": {"dim": [{}]}}}, "dtype": {"type": "DT_INT64"}}}, {"name": "PartitionedCall/zeros_8", "op": "Const", "attr": {"value": {"tensor": {"dtype": "DT_INT64", "tensorShape": {}}}, "dtype": {"type": "DT_INT64"}}}, {"name": "unknown_53", "op": "Const", "attr": {"value": {"tensor": {"dtype": "DT_FLOAT", "tensorShape": {"dim": [{"size": "768"}, {"size": "768"}]}}}, "dtype": {"type": "DT_FLOAT"}}}, {"name": "PartitionedCall/onnx_tf_prefix_ReduceMean_207/reduction_indices", "op": "Const", "attr": {"value": {"tensor": {"dtype": "DT_INT32", "tensorShape": {}}}, "dtype": {"type": "DT_INT32"}}}, {"name": "unknown_56", "op": "Const", "attr": {"dtype": {"type": "DT_FLOAT"}, "value": {"tensor": {"dtype": "DT_FLOAT", "tensorShape": {"dim": [{"size": "768"}]}}}}}, {"name": "unknown_57", "op": "Const", "attr": {"value": {"tensor": {"dtype": "DT_FLOAT", "tensorShape": {"dim": [{"size": "768"}, {"size": "3072"}]}}}, "dtype": {"type": "DT_FLOAT"}}}, {"name": "ConstantFolding/PartitionedCall/onnx_tf_prefix_Div_221_recip", "op": "Const", "attr": {"dtype": {"type": "DT_FLOAT"}, "value": {"tensor": {"dtype": "DT_FLOAT", "tensorShape": {}}}}}, {"name": "PartitionedCall/onnx_tf_prefix_Constant_223", "op": "Const", "attr": {"value": {"tensor": {"dtype": "DT_FLOAT", "tensorShape": {}}}, "dtype": {"type": "DT_FLOAT"}}}, {"name": "unknown_59", "op": "Const", "attr": {"dtype": {"type": "DT_FLOAT"}, "value": {"tensor": {"dtype": "DT_FLOAT", "tensorShape": {"dim": [{"size": "3072"}, {"size": "768"}]}}}}}, {"name": "PartitionedCall/onnx_tf_prefix_ReduceMean_231/reduction_indices", "op": "Const", "attr": {"value": {"tensor": {"dtype": "DT_INT32", "tensorShape": {}}}, "dtype": {"type": "DT_INT32"}}}, {"name": "unknown_62", "op": "Const", "attr": {"value": {"tensor": {"dtype": "DT_FLOAT", "tensorShape": {"dim": [{"size": "768"}]}}}, "dtype": {"type": "DT_FLOAT"}}}, {"name": "unknown_63", "op": "Const", "attr": {"dtype": {"type": "DT_FLOAT"}, "value": {"tensor": {"dtype": "DT_FLOAT", "tensorShape": {"dim": [{"size": "768"}, {"size": "2304"}]}}}}}, {"name": "unknown_65", "op": "Const", "attr": {"value": {"tensor": {"dtype": "DT_INT64", "tensorShape": {"dim": [{"size": "5"}]}}}, "dtype": {"type": "DT_INT64"}}}, {"name": "PartitionedCall/Where_9", "op": "Const", "attr": {"value": {"tensor": {"dtype": "DT_INT64", "tensorShape": {"dim": [{}, {"size": "1"}]}}}, "dtype": {"type": "DT_INT64"}}}, {"name": "PartitionedCall/Cast_9", "op": "Const", "attr": {"dtype": {"type": "DT_INT64"}, "value": {"tensor": {"dtype": "DT_INT64", "tensorShape": {"dim": [{"size": "1"}]}}}}}, {"name": "PartitionedCall/GatherV2_9", "op": "Const", "attr": {"dtype": {"type": "DT_INT64"}, "value": {"tensor": {"dtype": "DT_INT64", "tensorShape": {"dim": [{}]}}}}}, {"name": "PartitionedCall/zeros_9", "op": "Const", "attr": {"value": {"tensor": {"dtype": "DT_INT64", "tensorShape": {}}}, "dtype": {"type": "DT_INT64"}}}, {"name": "PartitionedCall/onnx_tf_prefix_Transpose_245/perm", "op": "Const", "attr": {"dtype": {"type": "DT_INT32"}, "value": {"tensor": {"dtype": "DT_INT32", "tensorShape": {"dim": [{"size": "5"}]}}}}}, {"name": "PartitionedCall/Const_14", "op": "Const", "attr": {"dtype": {"type": "DT_INT32"}, "value": {"tensor": {"dtype": "DT_INT32", "tensorShape": {"dim": [{"size": "3"}]}}}}}, {"name": "PartitionedCall/onnx_tf_prefix_Split_246/split_dim", "op": "Const", "attr": {"value": {"tensor": {"dtype": "DT_INT32", "tensorShape": {}}}, "dtype": {"type": "DT_INT32"}}}, {"name": "PartitionedCall/onnx_tf_prefix_Transpose_256/perm", "op": "Const", "attr": {"value": {"tensor": {"dtype": "DT_INT32", "tensorShape": {"dim": [{"size": "4"}]}}}, "dtype": {"type": "DT_INT32"}}}, {"name": "unknown_66", "op": "Const", "attr": {"value": {"tensor": {"dtype": "DT_INT64", "tensorShape": {"dim": [{"size": "3"}]}}}, "dtype": {"type": "DT_INT64"}}}, {"name": "PartitionedCall/Where_10", "op": "Const", "attr": {"value": {"tensor": {"dtype": "DT_INT64", "tensorShape": {"dim": [{}, {"size": "1"}]}}}, "dtype": {"type": "DT_INT64"}}}, {"name": "PartitionedCall/Cast_10", "op": "Const", "attr": {"value": {"tensor": {"dtype": "DT_INT64", "tensorShape": {"dim": [{"size": "1"}]}}}, "dtype": {"type": "DT_INT64"}}}, {"name": "PartitionedCall/GatherV2_10", "op": "Const", "attr": {"value": {"tensor": {"dtype": "DT_INT64", "tensorShape": {"dim": [{}]}}}, "dtype": {"type": "DT_INT64"}}}, {"name": "PartitionedCall/zeros_10", "op": "Const", "attr": {"value": {"tensor": {"dtype": "DT_INT64", "tensorShape": {}}}, "dtype": {"type": "DT_INT64"}}}, {"name": "unknown_67", "op": "Const", "attr": {"dtype": {"type": "DT_FLOAT"}, "value": {"tensor": {"dtype": "DT_FLOAT", "tensorShape": {"dim": [{"size": "768"}, {"size": "768"}]}}}}}, {"name": "PartitionedCall/onnx_tf_prefix_ReduceMean_261/reduction_indices", "op": "Const", "attr": {"value": {"tensor": {"dtype": "DT_INT32", "tensorShape": {}}}, "dtype": {"type": "DT_INT32"}}}, {"name": "unknown_70", "op": "Const", "attr": {"value": {"tensor": {"dtype": "DT_FLOAT", "tensorShape": {"dim": [{"size": "768"}]}}}, "dtype": {"type": "DT_FLOAT"}}}, {"name": "unknown_71", "op": "Const", "attr": {"dtype": {"type": "DT_FLOAT"}, "value": {"tensor": {"dtype": "DT_FLOAT", "tensorShape": {"dim": [{"size": "768"}, {"size": "3072"}]}}}}}, {"name": "ConstantFolding/PartitionedCall/onnx_tf_prefix_Div_275_recip", "op": "Const", "attr": {"value": {"tensor": {"dtype": "DT_FLOAT", "tensorShape": {}}}, "dtype": {"type": "DT_FLOAT"}}}, {"name": "PartitionedCall/onnx_tf_prefix_Constant_277", "op": "Const", "attr": {"value": {"tensor": {"dtype": "DT_FLOAT", "tensorShape": {}}}, "dtype": {"type": "DT_FLOAT"}}}, {"name": "unknown_73", "op": "Const", "attr": {"dtype": {"type": "DT_FLOAT"}, "value": {"tensor": {"dtype": "DT_FLOAT", "tensorShape": {"dim": [{"size": "3072"}, {"size": "768"}]}}}}}, {"name": "PartitionedCall/onnx_tf_prefix_ReduceMean_285/reduction_indices", "op": "Const", "attr": {"dtype": {"type": "DT_INT32"}, "value": {"tensor": {"dtype": "DT_INT32", "tensorShape": {}}}}}, {"name": "unknown_76", "op": "Const", "attr": {"dtype": {"type": "DT_FLOAT"}, "value": {"tensor": {"dtype": "DT_FLOAT", "tensorShape": {"dim": [{"size": "768"}]}}}}}, {"name": "unknown_77", "op": "Const", "attr": {"dtype": {"type": "DT_FLOAT"}, "value": {"tensor": {"dtype": "DT_FLOAT", "tensorShape": {"dim": [{"size": "768"}, {"size": "2304"}]}}}}}, {"name": "unknown_79", "op": "Const", "attr": {"value": {"tensor": {"dtype": "DT_INT64", "tensorShape": {"dim": [{"size": "5"}]}}}, "dtype": {"type": "DT_INT64"}}}, {"name": "PartitionedCall/Where_11", "op": "Const", "attr": {"dtype": {"type": "DT_INT64"}, "value": {"tensor": {"dtype": "DT_INT64", "tensorShape": {"dim": [{}, {"size": "1"}]}}}}}, {"name": "PartitionedCall/Cast_11", "op": "Const", "attr": {"value": {"tensor": {"dtype": "DT_INT64", "tensorShape": {"dim": [{"size": "1"}]}}}, "dtype": {"type": "DT_INT64"}}}, {"name": "PartitionedCall/GatherV2_11", "op": "Const", "attr": {"dtype": {"type": "DT_INT64"}, "value": {"tensor": {"dtype": "DT_INT64", "tensorShape": {"dim": [{}]}}}}}, {"name": "PartitionedCall/zeros_11", "op": "Const", "attr": {"value": {"tensor": {"dtype": "DT_INT64", "tensorShape": {}}}, "dtype": {"type": "DT_INT64"}}}, {"name": "PartitionedCall/onnx_tf_prefix_Transpose_299/perm", "op": "Const", "attr": {"dtype": {"type": "DT_INT32"}, "value": {"tensor": {"dtype": "DT_INT32", "tensorShape": {"dim": [{"size": "5"}]}}}}}, {"name": "PartitionedCall/Const_17", "op": "Const", "attr": {"value": {"tensor": {"dtype": "DT_INT32", "tensorShape": {"dim": [{"size": "3"}]}}}, "dtype": {"type": "DT_INT32"}}}, {"name": "PartitionedCall/onnx_tf_prefix_Split_300/split_dim", "op": "Const", "attr": {"value": {"tensor": {"dtype": "DT_INT32", "tensorShape": {}}}, "dtype": {"type": "DT_INT32"}}}, {"name": "PartitionedCall/onnx_tf_prefix_Transpose_310/perm", "op": "Const", "attr": {"dtype": {"type": "DT_INT32"}, "value": {"tensor": {"dtype": "DT_INT32", "tensorShape": {"dim": [{"size": "4"}]}}}}}, {"name": "unknown_80", "op": "Const", "attr": {"value": {"tensor": {"dtype": "DT_INT64", "tensorShape": {"dim": [{"size": "3"}]}}}, "dtype": {"type": "DT_INT64"}}}, {"name": "PartitionedCall/Where_12", "op": "Const", "attr": {"dtype": {"type": "DT_INT64"}, "value": {"tensor": {"dtype": "DT_INT64", "tensorShape": {"dim": [{}, {"size": "1"}]}}}}}, {"name": "PartitionedCall/Cast_12", "op": "Const", "attr": {"value": {"tensor": {"dtype": "DT_INT64", "tensorShape": {"dim": [{"size": "1"}]}}}, "dtype": {"type": "DT_INT64"}}}, {"name": "PartitionedCall/GatherV2_12", "op": "Const", "attr": {"dtype": {"type": "DT_INT64"}, "value": {"tensor": {"dtype": "DT_INT64", "tensorShape": {"dim": [{}]}}}}}, {"name": "PartitionedCall/zeros_12", "op": "Const", "attr": {"value": {"tensor": {"dtype": "DT_INT64", "tensorShape": {}}}, "dtype": {"type": "DT_INT64"}}}, {"name": "unknown_81", "op": "Const", "attr": {"value": {"tensor": {"dtype": "DT_FLOAT", "tensorShape": {"dim": [{"size": "768"}, {"size": "768"}]}}}, "dtype": {"type": "DT_FLOAT"}}}, {"name": "PartitionedCall/onnx_tf_prefix_ReduceMean_315/reduction_indices", "op": "Const", "attr": {"dtype": {"type": "DT_INT32"}, "value": {"tensor": {"dtype": "DT_INT32", "tensorShape": {}}}}}, {"name": "unknown_84", "op": "Const", "attr": {"value": {"tensor": {"dtype": "DT_FLOAT", "tensorShape": {"dim": [{"size": "768"}]}}}, "dtype": {"type": "DT_FLOAT"}}}, {"name": "unknown_85", "op": "Const", "attr": {"dtype": {"type": "DT_FLOAT"}, "value": {"tensor": {"dtype": "DT_FLOAT", "tensorShape": {"dim": [{"size": "768"}, {"size": "3072"}]}}}}}, {"name": "ConstantFolding/PartitionedCall/onnx_tf_prefix_Div_329_recip", "op": "Const", "attr": {"value": {"tensor": {"dtype": "DT_FLOAT", "tensorShape": {}}}, "dtype": {"type": "DT_FLOAT"}}}, {"name": "PartitionedCall/onnx_tf_prefix_Constant_331", "op": "Const", "attr": {"value": {"tensor": {"dtype": "DT_FLOAT", "tensorShape": {}}}, "dtype": {"type": "DT_FLOAT"}}}, {"name": "unknown_87", "op": "Const", "attr": {"dtype": {"type": "DT_FLOAT"}, "value": {"tensor": {"dtype": "DT_FLOAT", "tensorShape": {"dim": [{"size": "3072"}, {"size": "768"}]}}}}}, {"name": "PartitionedCall/onnx_tf_prefix_ReduceMean_339/reduction_indices", "op": "Const", "attr": {"dtype": {"type": "DT_INT32"}, "value": {"tensor": {"dtype": "DT_INT32", "tensorShape": {}}}}}, {"name": "unknown_90", "op": "Const", "attr": {"dtype": {"type": "DT_FLOAT"}, "value": {"tensor": {"dtype": "DT_FLOAT", "tensorShape": {"dim": [{"size": "768"}]}}}}}, {"name": "unknown_91", "op": "Const", "attr": {"value": {"tensor": {"dtype": "DT_FLOAT", "tensorShape": {"dim": [{"size": "768"}, {"size": "2304"}]}}}, "dtype": {"type": "DT_FLOAT"}}}, {"name": "unknown_93", "op": "Const", "attr": {"dtype": {"type": "DT_INT64"}, "value": {"tensor": {"dtype": "DT_INT64", "tensorShape": {"dim": [{"size": "5"}]}}}}}, {"name": "PartitionedCall/Where_13", "op": "Const", "attr": {"dtype": {"type": "DT_INT64"}, "value": {"tensor": {"dtype": "DT_INT64", "tensorShape": {"dim": [{}, {"size": "1"}]}}}}}, {"name": "PartitionedCall/Cast_13", "op": "Const", "attr": {"dtype": {"type": "DT_INT64"}, "value": {"tensor": {"dtype": "DT_INT64", "tensorShape": {"dim": [{"size": "1"}]}}}}}, {"name": "PartitionedCall/GatherV2_13", "op": "Const", "attr": {"dtype": {"type": "DT_INT64"}, "value": {"tensor": {"dtype": "DT_INT64", "tensorShape": {"dim": [{}]}}}}}, {"name": "PartitionedCall/zeros_13", "op": "Const", "attr": {"dtype": {"type": "DT_INT64"}, "value": {"tensor": {"dtype": "DT_INT64", "tensorShape": {}}}}}, {"name": "PartitionedCall/onnx_tf_prefix_Transpose_353/perm", "op": "Const", "attr": {"value": {"tensor": {"dtype": "DT_INT32", "tensorShape": {"dim": [{"size": "5"}]}}}, "dtype": {"type": "DT_INT32"}}}, {"name": "PartitionedCall/Const_20", "op": "Const", "attr": {"dtype": {"type": "DT_INT32"}, "value": {"tensor": {"dtype": "DT_INT32", "tensorShape": {"dim": [{"size": "3"}]}}}}}, {"name": "PartitionedCall/onnx_tf_prefix_Split_354/split_dim", "op": "Const", "attr": {"dtype": {"type": "DT_INT32"}, "value": {"tensor": {"dtype": "DT_INT32", "tensorShape": {}}}}}, {"name": "PartitionedCall/onnx_tf_prefix_Transpose_364/perm", "op": "Const", "attr": {"value": {"tensor": {"dtype": "DT_INT32", "tensorShape": {"dim": [{"size": "4"}]}}}, "dtype": {"type": "DT_INT32"}}}, {"name": "unknown_94", "op": "Const", "attr": {"value": {"tensor": {"dtype": "DT_INT64", "tensorShape": {"dim": [{"size": "3"}]}}}, "dtype": {"type": "DT_INT64"}}}, {"name": "PartitionedCall/Where_14", "op": "Const", "attr": {"dtype": {"type": "DT_INT64"}, "value": {"tensor": {"dtype": "DT_INT64", "tensorShape": {"dim": [{}, {"size": "1"}]}}}}}, {"name": "PartitionedCall/Cast_14", "op": "Const", "attr": {"dtype": {"type": "DT_INT64"}, "value": {"tensor": {"dtype": "DT_INT64", "tensorShape": {"dim": [{"size": "1"}]}}}}}, {"name": "PartitionedCall/GatherV2_14", "op": "Const", "attr": {"value": {"tensor": {"dtype": "DT_INT64", "tensorShape": {"dim": [{}]}}}, "dtype": {"type": "DT_INT64"}}}, {"name": "PartitionedCall/zeros_14", "op": "Const", "attr": {"value": {"tensor": {"dtype": "DT_INT64", "tensorShape": {}}}, "dtype": {"type": "DT_INT64"}}}, {"name": "unknown_95", "op": "Const", "attr": {"value": {"tensor": {"dtype": "DT_FLOAT", "tensorShape": {"dim": [{"size": "768"}, {"size": "768"}]}}}, "dtype": {"type": "DT_FLOAT"}}}, {"name": "PartitionedCall/onnx_tf_prefix_ReduceMean_369/reduction_indices", "op": "Const", "attr": {"value": {"tensor": {"dtype": "DT_INT32", "tensorShape": {}}}, "dtype": {"type": "DT_INT32"}}}, {"name": "unknown_98", "op": "Const", "attr": {"dtype": {"type": "DT_FLOAT"}, "value": {"tensor": {"dtype": "DT_FLOAT", "tensorShape": {"dim": [{"size": "768"}]}}}}}, {"name": "unknown_99", "op": "Const", "attr": {"value": {"tensor": {"dtype": "DT_FLOAT", "tensorShape": {"dim": [{"size": "768"}, {"size": "3072"}]}}}, "dtype": {"type": "DT_FLOAT"}}}, {"name": "ConstantFolding/PartitionedCall/onnx_tf_prefix_Div_383_recip", "op": "Const", "attr": {"dtype": {"type": "DT_FLOAT"}, "value": {"tensor": {"dtype": "DT_FLOAT", "tensorShape": {}}}}}, {"name": "PartitionedCall/onnx_tf_prefix_Constant_385", "op": "Const", "attr": {"dtype": {"type": "DT_FLOAT"}, "value": {"tensor": {"dtype": "DT_FLOAT", "tensorShape": {}}}}}, {"name": "unknown_101", "op": "Const", "attr": {"dtype": {"type": "DT_FLOAT"}, "value": {"tensor": {"dtype": "DT_FLOAT", "tensorShape": {"dim": [{"size": "3072"}, {"size": "768"}]}}}}}, {"name": "PartitionedCall/onnx_tf_prefix_ReduceMean_393/reduction_indices", "op": "Const", "attr": {"dtype": {"type": "DT_INT32"}, "value": {"tensor": {"dtype": "DT_INT32", "tensorShape": {}}}}}, {"name": "unknown_104", "op": "Const", "attr": {"value": {"tensor": {"dtype": "DT_FLOAT", "tensorShape": {"dim": [{"size": "768"}]}}}, "dtype": {"type": "DT_FLOAT"}}}, {"name": "unknown_105", "op": "Const", "attr": {"value": {"tensor": {"dtype": "DT_FLOAT", "tensorShape": {"dim": [{"size": "768"}, {"size": "2304"}]}}}, "dtype": {"type": "DT_FLOAT"}}}, {"name": "unknown_107", "op": "Const", "attr": {"dtype": {"type": "DT_INT64"}, "value": {"tensor": {"dtype": "DT_INT64", "tensorShape": {"dim": [{"size": "5"}]}}}}}, {"name": "PartitionedCall/Where_15", "op": "Const", "attr": {"value": {"tensor": {"dtype": "DT_INT64", "tensorShape": {"dim": [{}, {"size": "1"}]}}}, "dtype": {"type": "DT_INT64"}}}, {"name": "PartitionedCall/Cast_15", "op": "Const", "attr": {"value": {"tensor": {"dtype": "DT_INT64", "tensorShape": {"dim": [{"size": "1"}]}}}, "dtype": {"type": "DT_INT64"}}}, {"name": "PartitionedCall/GatherV2_15", "op": "Const", "attr": {"value": {"tensor": {"dtype": "DT_INT64", "tensorShape": {"dim": [{}]}}}, "dtype": {"type": "DT_INT64"}}}, {"name": "PartitionedCall/zeros_15", "op": "Const", "attr": {"dtype": {"type": "DT_INT64"}, "value": {"tensor": {"dtype": "DT_INT64", "tensorShape": {}}}}}, {"name": "PartitionedCall/onnx_tf_prefix_Transpose_407/perm", "op": "Const", "attr": {"value": {"tensor": {"dtype": "DT_INT32", "tensorShape": {"dim": [{"size": "5"}]}}}, "dtype": {"type": "DT_INT32"}}}, {"name": "PartitionedCall/Const_23", "op": "Const", "attr": {"dtype": {"type": "DT_INT32"}, "value": {"tensor": {"dtype": "DT_INT32", "tensorShape": {"dim": [{"size": "3"}]}}}}}, {"name": "PartitionedCall/onnx_tf_prefix_Split_408/split_dim", "op": "Const", "attr": {"value": {"tensor": {"dtype": "DT_INT32", "tensorShape": {}}}, "dtype": {"type": "DT_INT32"}}}, {"name": "PartitionedCall/onnx_tf_prefix_Transpose_418/perm", "op": "Const", "attr": {"dtype": {"type": "DT_INT32"}, "value": {"tensor": {"dtype": "DT_INT32", "tensorShape": {"dim": [{"size": "4"}]}}}}}, {"name": "unknown_108", "op": "Const", "attr": {"value": {"tensor": {"dtype": "DT_INT64", "tensorShape": {"dim": [{"size": "3"}]}}}, "dtype": {"type": "DT_INT64"}}}, {"name": "PartitionedCall/Where_16", "op": "Const", "attr": {"value": {"tensor": {"dtype": "DT_INT64", "tensorShape": {"dim": [{}, {"size": "1"}]}}}, "dtype": {"type": "DT_INT64"}}}, {"name": "PartitionedCall/Cast_16", "op": "Const", "attr": {"dtype": {"type": "DT_INT64"}, "value": {"tensor": {"dtype": "DT_INT64", "tensorShape": {"dim": [{"size": "1"}]}}}}}, {"name": "PartitionedCall/GatherV2_16", "op": "Const", "attr": {"value": {"tensor": {"dtype": "DT_INT64", "tensorShape": {"dim": [{}]}}}, "dtype": {"type": "DT_INT64"}}}, {"name": "PartitionedCall/zeros_16", "op": "Const", "attr": {"dtype": {"type": "DT_INT64"}, "value": {"tensor": {"dtype": "DT_INT64", "tensorShape": {}}}}}, {"name": "unknown_109", "op": "Const", "attr": {"dtype": {"type": "DT_FLOAT"}, "value": {"tensor": {"dtype": "DT_FLOAT", "tensorShape": {"dim": [{"size": "768"}, {"size": "768"}]}}}}}, {"name": "PartitionedCall/onnx_tf_prefix_ReduceMean_423/reduction_indices", "op": "Const", "attr": {"dtype": {"type": "DT_INT32"}, "value": {"tensor": {"dtype": "DT_INT32", "tensorShape": {}}}}}, {"name": "unknown_112", "op": "Const", "attr": {"value": {"tensor": {"dtype": "DT_FLOAT", "tensorShape": {"dim": [{"size": "768"}]}}}, "dtype": {"type": "DT_FLOAT"}}}, {"name": "unknown_113", "op": "Const", "attr": {"value": {"tensor": {"dtype": "DT_FLOAT", "tensorShape": {"dim": [{"size": "768"}, {"size": "3072"}]}}}, "dtype": {"type": "DT_FLOAT"}}}, {"name": "ConstantFolding/PartitionedCall/onnx_tf_prefix_Div_437_recip", "op": "Const", "attr": {"dtype": {"type": "DT_FLOAT"}, "value": {"tensor": {"dtype": "DT_FLOAT", "tensorShape": {}}}}}, {"name": "PartitionedCall/onnx_tf_prefix_Constant_439", "op": "Const", "attr": {"dtype": {"type": "DT_FLOAT"}, "value": {"tensor": {"dtype": "DT_FLOAT", "tensorShape": {}}}}}, {"name": "unknown_115", "op": "Const", "attr": {"value": {"tensor": {"dtype": "DT_FLOAT", "tensorShape": {"dim": [{"size": "3072"}, {"size": "768"}]}}}, "dtype": {"type": "DT_FLOAT"}}}, {"name": "PartitionedCall/onnx_tf_prefix_ReduceMean_447/reduction_indices", "op": "Const", "attr": {"value": {"tensor": {"dtype": "DT_INT32", "tensorShape": {}}}, "dtype": {"type": "DT_INT32"}}}, {"name": "unknown_118", "op": "Const", "attr": {"value": {"tensor": {"dtype": "DT_FLOAT", "tensorShape": {"dim": [{"size": "768"}]}}}, "dtype": {"type": "DT_FLOAT"}}}, {"name": "unknown_119", "op": "Const", "attr": {"value": {"tensor": {"dtype": "DT_FLOAT", "tensorShape": {"dim": [{"size": "768"}, {"size": "2304"}]}}}, "dtype": {"type": "DT_FLOAT"}}}, {"name": "unknown_121", "op": "Const", "attr": {"dtype": {"type": "DT_INT64"}, "value": {"tensor": {"dtype": "DT_INT64", "tensorShape": {"dim": [{"size": "5"}]}}}}}, {"name": "PartitionedCall/Where_17", "op": "Const", "attr": {"value": {"tensor": {"dtype": "DT_INT64", "tensorShape": {"dim": [{}, {"size": "1"}]}}}, "dtype": {"type": "DT_INT64"}}}, {"name": "PartitionedCall/Cast_17", "op": "Const", "attr": {"value": {"tensor": {"dtype": "DT_INT64", "tensorShape": {"dim": [{"size": "1"}]}}}, "dtype": {"type": "DT_INT64"}}}, {"name": "PartitionedCall/GatherV2_17", "op": "Const", "attr": {"value": {"tensor": {"dtype": "DT_INT64", "tensorShape": {"dim": [{}]}}}, "dtype": {"type": "DT_INT64"}}}, {"name": "PartitionedCall/zeros_17", "op": "Const", "attr": {"dtype": {"type": "DT_INT64"}, "value": {"tensor": {"dtype": "DT_INT64", "tensorShape": {}}}}}, {"name": "PartitionedCall/onnx_tf_prefix_Transpose_461/perm", "op": "Const", "attr": {"dtype": {"type": "DT_INT32"}, "value": {"tensor": {"dtype": "DT_INT32", "tensorShape": {"dim": [{"size": "5"}]}}}}}, {"name": "PartitionedCall/Const_26", "op": "Const", "attr": {"dtype": {"type": "DT_INT32"}, "value": {"tensor": {"dtype": "DT_INT32", "tensorShape": {"dim": [{"size": "3"}]}}}}}, {"name": "PartitionedCall/onnx_tf_prefix_Split_462/split_dim", "op": "Const", "attr": {"value": {"tensor": {"dtype": "DT_INT32", "tensorShape": {}}}, "dtype": {"type": "DT_INT32"}}}, {"name": "PartitionedCall/onnx_tf_prefix_Transpose_472/perm", "op": "Const", "attr": {"dtype": {"type": "DT_INT32"}, "value": {"tensor": {"dtype": "DT_INT32", "tensorShape": {"dim": [{"size": "4"}]}}}}}, {"name": "unknown_122", "op": "Const", "attr": {"dtype": {"type": "DT_INT64"}, "value": {"tensor": {"dtype": "DT_INT64", "tensorShape": {"dim": [{"size": "3"}]}}}}}, {"name": "PartitionedCall/Where_18", "op": "Const", "attr": {"dtype": {"type": "DT_INT64"}, "value": {"tensor": {"dtype": "DT_INT64", "tensorShape": {"dim": [{}, {"size": "1"}]}}}}}, {"name": "PartitionedCall/Cast_18", "op": "Const", "attr": {"dtype": {"type": "DT_INT64"}, "value": {"tensor": {"dtype": "DT_INT64", "tensorShape": {"dim": [{"size": "1"}]}}}}}, {"name": "PartitionedCall/GatherV2_18", "op": "Const", "attr": {"value": {"tensor": {"dtype": "DT_INT64", "tensorShape": {"dim": [{}]}}}, "dtype": {"type": "DT_INT64"}}}, {"name": "PartitionedCall/zeros_18", "op": "Const", "attr": {"value": {"tensor": {"dtype": "DT_INT64", "tensorShape": {}}}, "dtype": {"type": "DT_INT64"}}}, {"name": "unknown_123", "op": "Const", "attr": {"value": {"tensor": {"dtype": "DT_FLOAT", "tensorShape": {"dim": [{"size": "768"}, {"size": "768"}]}}}, "dtype": {"type": "DT_FLOAT"}}}, {"name": "PartitionedCall/onnx_tf_prefix_ReduceMean_477/reduction_indices", "op": "Const", "attr": {"dtype": {"type": "DT_INT32"}, "value": {"tensor": {"dtype": "DT_INT32", "tensorShape": {}}}}}, {"name": "unknown_126", "op": "Const", "attr": {"dtype": {"type": "DT_FLOAT"}, "value": {"tensor": {"dtype": "DT_FLOAT", "tensorShape": {"dim": [{"size": "768"}]}}}}}, {"name": "unknown_127", "op": "Const", "attr": {"value": {"tensor": {"dtype": "DT_FLOAT", "tensorShape": {"dim": [{"size": "768"}, {"size": "3072"}]}}}, "dtype": {"type": "DT_FLOAT"}}}, {"name": "ConstantFolding/PartitionedCall/onnx_tf_prefix_Div_491_recip", "op": "Const", "attr": {"dtype": {"type": "DT_FLOAT"}, "value": {"tensor": {"dtype": "DT_FLOAT", "tensorShape": {}}}}}, {"name": "PartitionedCall/onnx_tf_prefix_Constant_493", "op": "Const", "attr": {"dtype": {"type": "DT_FLOAT"}, "value": {"tensor": {"dtype": "DT_FLOAT", "tensorShape": {}}}}}, {"name": "unknown_129", "op": "Const", "attr": {"value": {"tensor": {"dtype": "DT_FLOAT", "tensorShape": {"dim": [{"size": "3072"}, {"size": "768"}]}}}, "dtype": {"type": "DT_FLOAT"}}}, {"name": "PartitionedCall/onnx_tf_prefix_ReduceMean_501/reduction_indices", "op": "Const", "attr": {"dtype": {"type": "DT_INT32"}, "value": {"tensor": {"dtype": "DT_INT32", "tensorShape": {}}}}}, {"name": "unknown_132", "op": "Const", "attr": {"dtype": {"type": "DT_FLOAT"}, "value": {"tensor": {"dtype": "DT_FLOAT", "tensorShape": {"dim": [{"size": "768"}]}}}}}, {"name": "unknown_133", "op": "Const", "attr": {"dtype": {"type": "DT_FLOAT"}, "value": {"tensor": {"dtype": "DT_FLOAT", "tensorShape": {"dim": [{"size": "768"}, {"size": "2304"}]}}}}}, {"name": "unknown_135", "op": "Const", "attr": {"dtype": {"type": "DT_INT64"}, "value": {"tensor": {"dtype": "DT_INT64", "tensorShape": {"dim": [{"size": "5"}]}}}}}, {"name": "PartitionedCall/Where_19", "op": "Const", "attr": {"value": {"tensor": {"dtype": "DT_INT64", "tensorShape": {"dim": [{}, {"size": "1"}]}}}, "dtype": {"type": "DT_INT64"}}}, {"name": "PartitionedCall/Cast_19", "op": "Const", "attr": {"value": {"tensor": {"dtype": "DT_INT64", "tensorShape": {"dim": [{"size": "1"}]}}}, "dtype": {"type": "DT_INT64"}}}, {"name": "PartitionedCall/GatherV2_19", "op": "Const", "attr": {"dtype": {"type": "DT_INT64"}, "value": {"tensor": {"dtype": "DT_INT64", "tensorShape": {"dim": [{}]}}}}}, {"name": "PartitionedCall/zeros_19", "op": "Const", "attr": {"dtype": {"type": "DT_INT64"}, "value": {"tensor": {"dtype": "DT_INT64", "tensorShape": {}}}}}, {"name": "PartitionedCall/onnx_tf_prefix_Transpose_515/perm", "op": "Const", "attr": {"value": {"tensor": {"dtype": "DT_INT32", "tensorShape": {"dim": [{"size": "5"}]}}}, "dtype": {"type": "DT_INT32"}}}, {"name": "PartitionedCall/Const_29", "op": "Const", "attr": {"dtype": {"type": "DT_INT32"}, "value": {"tensor": {"dtype": "DT_INT32", "tensorShape": {"dim": [{"size": "3"}]}}}}}, {"name": "PartitionedCall/onnx_tf_prefix_Split_516/split_dim", "op": "Const", "attr": {"dtype": {"type": "DT_INT32"}, "value": {"tensor": {"dtype": "DT_INT32", "tensorShape": {}}}}}, {"name": "PartitionedCall/onnx_tf_prefix_Transpose_526/perm", "op": "Const", "attr": {"dtype": {"type": "DT_INT32"}, "value": {"tensor": {"dtype": "DT_INT32", "tensorShape": {"dim": [{"size": "4"}]}}}}}, {"name": "unknown_136", "op": "Const", "attr": {"value": {"tensor": {"dtype": "DT_INT64", "tensorShape": {"dim": [{"size": "3"}]}}}, "dtype": {"type": "DT_INT64"}}}, {"name": "PartitionedCall/Where_20", "op": "Const", "attr": {"dtype": {"type": "DT_INT64"}, "value": {"tensor": {"dtype": "DT_INT64", "tensorShape": {"dim": [{}, {"size": "1"}]}}}}}, {"name": "PartitionedCall/Cast_20", "op": "Const", "attr": {"value": {"tensor": {"dtype": "DT_INT64", "tensorShape": {"dim": [{"size": "1"}]}}}, "dtype": {"type": "DT_INT64"}}}, {"name": "PartitionedCall/GatherV2_20", "op": "Const", "attr": {"value": {"tensor": {"dtype": "DT_INT64", "tensorShape": {"dim": [{}]}}}, "dtype": {"type": "DT_INT64"}}}, {"name": "PartitionedCall/zeros_20", "op": "Const", "attr": {"dtype": {"type": "DT_INT64"}, "value": {"tensor": {"dtype": "DT_INT64", "tensorShape": {}}}}}, {"name": "unknown_137", "op": "Const", "attr": {"value": {"tensor": {"dtype": "DT_FLOAT", "tensorShape": {"dim": [{"size": "768"}, {"size": "768"}]}}}, "dtype": {"type": "DT_FLOAT"}}}, {"name": "PartitionedCall/onnx_tf_prefix_ReduceMean_531/reduction_indices", "op": "Const", "attr": {"dtype": {"type": "DT_INT32"}, "value": {"tensor": {"dtype": "DT_INT32", "tensorShape": {}}}}}, {"name": "unknown_140", "op": "Const", "attr": {"value": {"tensor": {"dtype": "DT_FLOAT", "tensorShape": {"dim": [{"size": "768"}]}}}, "dtype": {"type": "DT_FLOAT"}}}, {"name": "unknown_141", "op": "Const", "attr": {"dtype": {"type": "DT_FLOAT"}, "value": {"tensor": {"dtype": "DT_FLOAT", "tensorShape": {"dim": [{"size": "768"}, {"size": "3072"}]}}}}}, {"name": "ConstantFolding/PartitionedCall/onnx_tf_prefix_Div_545_recip", "op": "Const", "attr": {"value": {"tensor": {"dtype": "DT_FLOAT", "tensorShape": {}}}, "dtype": {"type": "DT_FLOAT"}}}, {"name": "PartitionedCall/onnx_tf_prefix_Constant_547", "op": "Const", "attr": {"dtype": {"type": "DT_FLOAT"}, "value": {"tensor": {"dtype": "DT_FLOAT", "tensorShape": {}}}}}, {"name": "unknown_143", "op": "Const", "attr": {"dtype": {"type": "DT_FLOAT"}, "value": {"tensor": {"dtype": "DT_FLOAT", "tensorShape": {"dim": [{"size": "3072"}, {"size": "768"}]}}}}}, {"name": "PartitionedCall/onnx_tf_prefix_ReduceMean_555/reduction_indices", "op": "Const", "attr": {"value": {"tensor": {"dtype": "DT_INT32", "tensorShape": {}}}, "dtype": {"type": "DT_INT32"}}}, {"name": "unknown_146", "op": "Const", "attr": {"value": {"tensor": {"dtype": "DT_FLOAT", "tensorShape": {"dim": [{"size": "768"}]}}}, "dtype": {"type": "DT_FLOAT"}}}, {"name": "unknown_147", "op": "Const", "attr": {"dtype": {"type": "DT_FLOAT"}, "value": {"tensor": {"dtype": "DT_FLOAT", "tensorShape": {"dim": [{"size": "768"}, {"size": "2304"}]}}}}}, {"name": "unknown_149", "op": "Const", "attr": {"value": {"tensor": {"dtype": "DT_INT64", "tensorShape": {"dim": [{"size": "5"}]}}}, "dtype": {"type": "DT_INT64"}}}, {"name": "PartitionedCall/Where_21", "op": "Const", "attr": {"dtype": {"type": "DT_INT64"}, "value": {"tensor": {"dtype": "DT_INT64", "tensorShape": {"dim": [{}, {"size": "1"}]}}}}}, {"name": "PartitionedCall/Cast_21", "op": "Const", "attr": {"dtype": {"type": "DT_INT64"}, "value": {"tensor": {"dtype": "DT_INT64", "tensorShape": {"dim": [{"size": "1"}]}}}}}, {"name": "PartitionedCall/GatherV2_21", "op": "Const", "attr": {"value": {"tensor": {"dtype": "DT_INT64", "tensorShape": {"dim": [{}]}}}, "dtype": {"type": "DT_INT64"}}}, {"name": "PartitionedCall/zeros_21", "op": "Const", "attr": {"value": {"tensor": {"dtype": "DT_INT64", "tensorShape": {}}}, "dtype": {"type": "DT_INT64"}}}, {"name": "PartitionedCall/onnx_tf_prefix_Transpose_569/perm", "op": "Const", "attr": {"value": {"tensor": {"dtype": "DT_INT32", "tensorShape": {"dim": [{"size": "5"}]}}}, "dtype": {"type": "DT_INT32"}}}, {"name": "PartitionedCall/Const_32", "op": "Const", "attr": {"dtype": {"type": "DT_INT32"}, "value": {"tensor": {"dtype": "DT_INT32", "tensorShape": {"dim": [{"size": "3"}]}}}}}, {"name": "PartitionedCall/onnx_tf_prefix_Split_570/split_dim", "op": "Const", "attr": {"value": {"tensor": {"dtype": "DT_INT32", "tensorShape": {}}}, "dtype": {"type": "DT_INT32"}}}, {"name": "PartitionedCall/onnx_tf_prefix_Transpose_580/perm", "op": "Const", "attr": {"dtype": {"type": "DT_INT32"}, "value": {"tensor": {"dtype": "DT_INT32", "tensorShape": {"dim": [{"size": "4"}]}}}}}, {"name": "unknown_150", "op": "Const", "attr": {"dtype": {"type": "DT_INT64"}, "value": {"tensor": {"dtype": "DT_INT64", "tensorShape": {"dim": [{"size": "3"}]}}}}}, {"name": "PartitionedCall/Where_22", "op": "Const", "attr": {"value": {"tensor": {"dtype": "DT_INT64", "tensorShape": {"dim": [{}, {"size": "1"}]}}}, "dtype": {"type": "DT_INT64"}}}, {"name": "PartitionedCall/Cast_22", "op": "Const", "attr": {"value": {"tensor": {"dtype": "DT_INT64", "tensorShape": {"dim": [{"size": "1"}]}}}, "dtype": {"type": "DT_INT64"}}}, {"name": "PartitionedCall/GatherV2_22", "op": "Const", "attr": {"dtype": {"type": "DT_INT64"}, "value": {"tensor": {"dtype": "DT_INT64", "tensorShape": {"dim": [{}]}}}}}, {"name": "PartitionedCall/zeros_22", "op": "Const", "attr": {"value": {"tensor": {"dtype": "DT_INT64", "tensorShape": {}}}, "dtype": {"type": "DT_INT64"}}}, {"name": "unknown_151", "op": "Const", "attr": {"value": {"tensor": {"dtype": "DT_FLOAT", "tensorShape": {"dim": [{"size": "768"}, {"size": "768"}]}}}, "dtype": {"type": "DT_FLOAT"}}}, {"name": "PartitionedCall/onnx_tf_prefix_ReduceMean_585/reduction_indices", "op": "Const", "attr": {"value": {"tensor": {"dtype": "DT_INT32", "tensorShape": {}}}, "dtype": {"type": "DT_INT32"}}}, {"name": "unknown_154", "op": "Const", "attr": {"value": {"tensor": {"dtype": "DT_FLOAT", "tensorShape": {"dim": [{"size": "768"}]}}}, "dtype": {"type": "DT_FLOAT"}}}, {"name": "unknown_155", "op": "Const", "attr": {"dtype": {"type": "DT_FLOAT"}, "value": {"tensor": {"dtype": "DT_FLOAT", "tensorShape": {"dim": [{"size": "768"}, {"size": "3072"}]}}}}}, {"name": "ConstantFolding/PartitionedCall/onnx_tf_prefix_Div_599_recip", "op": "Const", "attr": {"value": {"tensor": {"dtype": "DT_FLOAT", "tensorShape": {}}}, "dtype": {"type": "DT_FLOAT"}}}, {"name": "PartitionedCall/onnx_tf_prefix_Constant_601", "op": "Const", "attr": {"value": {"tensor": {"dtype": "DT_FLOAT", "tensorShape": {}}}, "dtype": {"type": "DT_FLOAT"}}}, {"name": "unknown_157", "op": "Const", "attr": {"value": {"tensor": {"dtype": "DT_FLOAT", "tensorShape": {"dim": [{"size": "3072"}, {"size": "768"}]}}}, "dtype": {"type": "DT_FLOAT"}}}, {"name": "PartitionedCall/onnx_tf_prefix_ReduceMean_609/reduction_indices", "op": "Const", "attr": {"dtype": {"type": "DT_INT32"}, "value": {"tensor": {"dtype": "DT_INT32", "tensorShape": {}}}}}, {"name": "unknown_160", "op": "Const", "attr": {"value": {"tensor": {"dtype": "DT_FLOAT", "tensorShape": {"dim": [{"size": "768"}]}}}, "dtype": {"type": "DT_FLOAT"}}}, {"name": "unknown_161", "op": "Const", "attr": {"value": {"tensor": {"dtype": "DT_FLOAT", "tensorShape": {"dim": [{"size": "768"}, {"size": "2304"}]}}}, "dtype": {"type": "DT_FLOAT"}}}, {"name": "unknown_163", "op": "Const", "attr": {"value": {"tensor": {"dtype": "DT_INT64", "tensorShape": {"dim": [{"size": "5"}]}}}, "dtype": {"type": "DT_INT64"}}}, {"name": "PartitionedCall/Where_23", "op": "Const", "attr": {"value": {"tensor": {"dtype": "DT_INT64", "tensorShape": {"dim": [{}, {"size": "1"}]}}}, "dtype": {"type": "DT_INT64"}}}, {"name": "PartitionedCall/Cast_23", "op": "Const", "attr": {"value": {"tensor": {"dtype": "DT_INT64", "tensorShape": {"dim": [{"size": "1"}]}}}, "dtype": {"type": "DT_INT64"}}}, {"name": "PartitionedCall/GatherV2_23", "op": "Const", "attr": {"dtype": {"type": "DT_INT64"}, "value": {"tensor": {"dtype": "DT_INT64", "tensorShape": {"dim": [{}]}}}}}, {"name": "PartitionedCall/zeros_23", "op": "Const", "attr": {"value": {"tensor": {"dtype": "DT_INT64", "tensorShape": {}}}, "dtype": {"type": "DT_INT64"}}}, {"name": "PartitionedCall/onnx_tf_prefix_Transpose_623/perm", "op": "Const", "attr": {"dtype": {"type": "DT_INT32"}, "value": {"tensor": {"dtype": "DT_INT32", "tensorShape": {"dim": [{"size": "5"}]}}}}}, {"name": "PartitionedCall/Const_35", "op": "Const", "attr": {"dtype": {"type": "DT_INT32"}, "value": {"tensor": {"dtype": "DT_INT32", "tensorShape": {"dim": [{"size": "3"}]}}}}}, {"name": "PartitionedCall/onnx_tf_prefix_Split_624/split_dim", "op": "Const", "attr": {"value": {"tensor": {"dtype": "DT_INT32", "tensorShape": {}}}, "dtype": {"type": "DT_INT32"}}}, {"name": "PartitionedCall/onnx_tf_prefix_Transpose_634/perm", "op": "Const", "attr": {"dtype": {"type": "DT_INT32"}, "value": {"tensor": {"dtype": "DT_INT32", "tensorShape": {"dim": [{"size": "4"}]}}}}}, {"name": "unknown_164", "op": "Const", "attr": {"dtype": {"type": "DT_INT64"}, "value": {"tensor": {"dtype": "DT_INT64", "tensorShape": {"dim": [{"size": "3"}]}}}}}, {"name": "PartitionedCall/Where_24", "op": "Const", "attr": {"dtype": {"type": "DT_INT64"}, "value": {"tensor": {"dtype": "DT_INT64", "tensorShape": {"dim": [{}, {"size": "1"}]}}}}}, {"name": "PartitionedCall/Cast_24", "op": "Const", "attr": {"dtype": {"type": "DT_INT64"}, "value": {"tensor": {"dtype": "DT_INT64", "tensorShape": {"dim": [{"size": "1"}]}}}}}, {"name": "PartitionedCall/GatherV2_24", "op": "Const", "attr": {"dtype": {"type": "DT_INT64"}, "value": {"tensor": {"dtype": "DT_INT64", "tensorShape": {"dim": [{}]}}}}}, {"name": "PartitionedCall/zeros_24", "op": "Const", "attr": {"dtype": {"type": "DT_INT64"}, "value": {"tensor": {"dtype": "DT_INT64", "tensorShape": {}}}}}, {"name": "unknown_165", "op": "Const", "attr": {"value": {"tensor": {"dtype": "DT_FLOAT", "tensorShape": {"dim": [{"size": "768"}, {"size": "768"}]}}}, "dtype": {"type": "DT_FLOAT"}}}, {"name": "PartitionedCall/onnx_tf_prefix_ReduceMean_639/reduction_indices", "op": "Const", "attr": {"dtype": {"type": "DT_INT32"}, "value": {"tensor": {"dtype": "DT_INT32", "tensorShape": {}}}}}, {"name": "unknown_168", "op": "Const", "attr": {"dtype": {"type": "DT_FLOAT"}, "value": {"tensor": {"dtype": "DT_FLOAT", "tensorShape": {"dim": [{"size": "768"}]}}}}}, {"name": "unknown_169", "op": "Const", "attr": {"dtype": {"type": "DT_FLOAT"}, "value": {"tensor": {"dtype": "DT_FLOAT", "tensorShape": {"dim": [{"size": "768"}, {"size": "3072"}]}}}}}, {"name": "ConstantFolding/PartitionedCall/onnx_tf_prefix_Div_653_recip", "op": "Const", "attr": {"value": {"tensor": {"dtype": "DT_FLOAT", "tensorShape": {}}}, "dtype": {"type": "DT_FLOAT"}}}, {"name": "PartitionedCall/onnx_tf_prefix_Constant_655", "op": "Const", "attr": {"dtype": {"type": "DT_FLOAT"}, "value": {"tensor": {"dtype": "DT_FLOAT", "tensorShape": {}}}}}, {"name": "unknown_171", "op": "Const", "attr": {"value": {"tensor": {"dtype": "DT_FLOAT", "tensorShape": {"dim": [{"size": "3072"}, {"size": "768"}]}}}, "dtype": {"type": "DT_FLOAT"}}}, {"name": "PartitionedCall/onnx_tf_prefix_ReduceMean_663/reduction_indices", "op": "Const", "attr": {"dtype": {"type": "DT_INT32"}, "value": {"tensor": {"dtype": "DT_INT32", "tensorShape": {}}}}}, {"name": "unknown_174", "op": "Const", "attr": {"value": {"tensor": {"dtype": "DT_FLOAT", "tensorShape": {"dim": [{"size": "768"}]}}}, "dtype": {"type": "DT_FLOAT"}}}, {"name": "PartitionedCall/onnx_tf_prefix_Constant_674", "op": "Const", "attr": {"dtype": {"type": "DT_INT64"}, "value": {"tensor": {"dtype": "DT_INT64", "tensorShape": {}}}}}, {"name": "PartitionedCall/onnx_tf_prefix_Gather_675/axis", "op": "Const", "attr": {"value": {"tensor": {"dtype": "DT_INT32", "tensorShape": {}}}, "dtype": {"type": "DT_INT32"}}}, {"name": "PartitionedCall/transpose_3", "op": "Const", "attr": {"dtype": {"type": "DT_FLOAT"}, "value": {"tensor": {"dtype": "DT_FLOAT", "tensorShape": {"dim": [{"size": "768"}, {"size": "1000"}]}}}}}, {"name": "PartitionedCall/mul_2", "op": "Const", "attr": {"dtype": {"type": "DT_FLOAT"}, "value": {"tensor": {"dtype": "DT_FLOAT", "tensorShape": {"dim": [{"size": "1000"}]}}}}}, {"name": "input_1", "op": "Placeholder", "attr": {"dtype": {"type": "DT_FLOAT"}, "shape": {"shape": {"dim": [{"size": "1"}, {"size": "3"}, {"size": "224"}, {"size": "224"}]}}}}, {"name": "PartitionedCall/SparseToDense", "op": "SparseToDense", "input": ["PartitionedCall/Where", "PartitionedCall/Cast", "PartitionedCall/GatherV2", "PartitionedCall/zeros"], "attr": {"T": {"type": "DT_INT64"}, "Tindices": {"type": "DT_INT64"}, "validate_indices": {"b": true}}}, {"name": "PartitionedCall/SparseToDense_1", "op": "SparseToDense", "input": ["PartitionedCall/Where_1", "PartitionedCall/Cast_1", "PartitionedCall/GatherV2_1", "PartitionedCall/zeros_1"], "attr": {"Tindices": {"type": "DT_INT64"}, "T": {"type": "DT_INT64"}, "validate_indices": {"b": true}}}, {"name": "PartitionedCall/SparseToDense_2", "op": "SparseToDense", "input": ["PartitionedCall/Where_2", "PartitionedCall/Cast_2", "PartitionedCall/GatherV2_2", "PartitionedCall/zeros_2"], "attr": {"T": {"type": "DT_INT64"}, "validate_indices": {"b": true}, "Tindices": {"type": "DT_INT64"}}}, {"name": "PartitionedCall/SparseToDense_3", "op": "SparseToDense", "input": ["PartitionedCall/Where_3", "PartitionedCall/Cast_3", "PartitionedCall/GatherV2_3", "PartitionedCall/zeros_3"], "attr": {"Tindices": {"type": "DT_INT64"}, "T": {"type": "DT_INT64"}, "validate_indices": {"b": true}}}, {"name": "PartitionedCall/SparseToDense_4", "op": "SparseToDense", "input": ["PartitionedCall/Where_4", "PartitionedCall/Cast_4", "PartitionedCall/GatherV2_4", "PartitionedCall/zeros_4"], "attr": {"T": {"type": "DT_INT64"}, "Tindices": {"type": "DT_INT64"}, "validate_indices": {"b": true}}}, {"name": "PartitionedCall/SparseToDense_5", "op": "SparseToDense", "input": ["PartitionedCall/Where_5", "PartitionedCall/Cast_5", "PartitionedCall/GatherV2_5", "PartitionedCall/zeros_5"], "attr": {"Tindices": {"type": "DT_INT64"}, "validate_indices": {"b": true}, "T": {"type": "DT_INT64"}}}, {"name": "PartitionedCall/SparseToDense_6", "op": "SparseToDense", "input": ["PartitionedCall/Where_6", "PartitionedCall/Cast_6", "PartitionedCall/GatherV2_6", "PartitionedCall/zeros_6"], "attr": {"validate_indices": {"b": true}, "T": {"type": "DT_INT64"}, "Tindices": {"type": "DT_INT64"}}}, {"name": "PartitionedCall/SparseToDense_7", "op": "SparseToDense", "input": ["PartitionedCall/Where_7", "PartitionedCall/Cast_7", "PartitionedCall/GatherV2_7", "PartitionedCall/zeros_7"], "attr": {"Tindices": {"type": "DT_INT64"}, "validate_indices": {"b": true}, "T": {"type": "DT_INT64"}}}, {"name": "PartitionedCall/SparseToDense_8", "op": "SparseToDense", "input": ["PartitionedCall/Where_8", "PartitionedCall/Cast_8", "PartitionedCall/GatherV2_8", "PartitionedCall/zeros_8"], "attr": {"T": {"type": "DT_INT64"}, "Tindices": {"type": "DT_INT64"}, "validate_indices": {"b": true}}}, {"name": "PartitionedCall/SparseToDense_9", "op": "SparseToDense", "input": ["PartitionedCall/Where_9", "PartitionedCall/Cast_9", "PartitionedCall/GatherV2_9", "PartitionedCall/zeros_9"], "attr": {"Tindices": {"type": "DT_INT64"}, "validate_indices": {"b": true}, "T": {"type": "DT_INT64"}}}, {"name": "PartitionedCall/SparseToDense_10", "op": "SparseToDense", "input": ["PartitionedCall/Where_10", "PartitionedCall/Cast_10", "PartitionedCall/GatherV2_10", "PartitionedCall/zeros_10"], "attr": {"validate_indices": {"b": true}, "T": {"type": "DT_INT64"}, "Tindices": {"type": "DT_INT64"}}}, {"name": "PartitionedCall/SparseToDense_11", "op": "SparseToDense", "input": ["PartitionedCall/Where_11", "PartitionedCall/Cast_11", "PartitionedCall/GatherV2_11", "PartitionedCall/zeros_11"], "attr": {"Tindices": {"type": "DT_INT64"}, "T": {"type": "DT_INT64"}, "validate_indices": {"b": true}}}, {"name": "PartitionedCall/SparseToDense_12", "op": "SparseToDense", "input": ["PartitionedCall/Where_12", "PartitionedCall/Cast_12", "PartitionedCall/GatherV2_12", "PartitionedCall/zeros_12"], "attr": {"validate_indices": {"b": true}, "Tindices": {"type": "DT_INT64"}, "T": {"type": "DT_INT64"}}}, {"name": "PartitionedCall/SparseToDense_13", "op": "SparseToDense", "input": ["PartitionedCall/Where_13", "PartitionedCall/Cast_13", "PartitionedCall/GatherV2_13", "PartitionedCall/zeros_13"], "attr": {"Tindices": {"type": "DT_INT64"}, "validate_indices": {"b": true}, "T": {"type": "DT_INT64"}}}, {"name": "PartitionedCall/SparseToDense_14", "op": "SparseToDense", "input": ["PartitionedCall/Where_14", "PartitionedCall/Cast_14", "PartitionedCall/GatherV2_14", "PartitionedCall/zeros_14"], "attr": {"T": {"type": "DT_INT64"}, "validate_indices": {"b": true}, "Tindices": {"type": "DT_INT64"}}}, {"name": "PartitionedCall/SparseToDense_15", "op": "SparseToDense", "input": ["PartitionedCall/Where_15", "PartitionedCall/Cast_15", "PartitionedCall/GatherV2_15", "PartitionedCall/zeros_15"], "attr": {"T": {"type": "DT_INT64"}, "validate_indices": {"b": true}, "Tindices": {"type": "DT_INT64"}}}, {"name": "PartitionedCall/SparseToDense_16", "op": "SparseToDense", "input": ["PartitionedCall/Where_16", "PartitionedCall/Cast_16", "PartitionedCall/GatherV2_16", "PartitionedCall/zeros_16"], "attr": {"validate_indices": {"b": true}, "Tindices": {"type": "DT_INT64"}, "T": {"type": "DT_INT64"}}}, {"name": "PartitionedCall/SparseToDense_17", "op": "SparseToDense", "input": ["PartitionedCall/Where_17", "PartitionedCall/Cast_17", "PartitionedCall/GatherV2_17", "PartitionedCall/zeros_17"], "attr": {"Tindices": {"type": "DT_INT64"}, "validate_indices": {"b": true}, "T": {"type": "DT_INT64"}}}, {"name": "PartitionedCall/SparseToDense_18", "op": "SparseToDense", "input": ["PartitionedCall/Where_18", "PartitionedCall/Cast_18", "PartitionedCall/GatherV2_18", "PartitionedCall/zeros_18"], "attr": {"validate_indices": {"b": true}, "T": {"type": "DT_INT64"}, "Tindices": {"type": "DT_INT64"}}}, {"name": "PartitionedCall/SparseToDense_19", "op": "SparseToDense", "input": ["PartitionedCall/Where_19", "PartitionedCall/Cast_19", "PartitionedCall/GatherV2_19", "PartitionedCall/zeros_19"], "attr": {"T": {"type": "DT_INT64"}, "Tindices": {"type": "DT_INT64"}, "validate_indices": {"b": true}}}, {"name": "PartitionedCall/SparseToDense_20", "op": "SparseToDense", "input": ["PartitionedCall/Where_20", "PartitionedCall/Cast_20", "PartitionedCall/GatherV2_20", "PartitionedCall/zeros_20"], "attr": {"Tindices": {"type": "DT_INT64"}, "T": {"type": "DT_INT64"}, "validate_indices": {"b": true}}}, {"name": "PartitionedCall/SparseToDense_21", "op": "SparseToDense", "input": ["PartitionedCall/Where_21", "PartitionedCall/Cast_21", "PartitionedCall/GatherV2_21", "PartitionedCall/zeros_21"], "attr": {"validate_indices": {"b": true}, "T": {"type": "DT_INT64"}, "Tindices": {"type": "DT_INT64"}}}, {"name": "PartitionedCall/SparseToDense_22", "op": "SparseToDense", "input": ["PartitionedCall/Where_22", "PartitionedCall/Cast_22", "PartitionedCall/GatherV2_22", "PartitionedCall/zeros_22"], "attr": {"Tindices": {"type": "DT_INT64"}, "T": {"type": "DT_INT64"}, "validate_indices": {"b": true}}}, {"name": "PartitionedCall/SparseToDense_23", "op": "SparseToDense", "input": ["PartitionedCall/Where_23", "PartitionedCall/Cast_23", "PartitionedCall/GatherV2_23", "PartitionedCall/zeros_23"], "attr": {"T": {"type": "DT_INT64"}, "validate_indices": {"b": true}, "Tindices": {"type": "DT_INT64"}}}, {"name": "PartitionedCall/SparseToDense_24", "op": "SparseToDense", "input": ["PartitionedCall/Where_24", "PartitionedCall/Cast_24", "PartitionedCall/GatherV2_24", "PartitionedCall/zeros_24"], "attr": {"T": {"type": "DT_INT64"}, "validate_indices": {"b": true}, "Tindices": {"type": "DT_INT64"}}}, {"name": "PartitionedCall/transpose_1", "op": "Transpose", "input": ["input_1", "PartitionedCall/transpose_1/perm"], "attr": {"T": {"type": "DT_FLOAT"}, "Tperm": {"type": "DT_INT32"}}}, {"name": "PartitionedCall/add_1", "op": "AddV2", "input": ["PartitionedCall/onnx_tf_prefix_Concat_4", "PartitionedCall/SparseToDense"], "attr": {"T": {"type": "DT_INT64"}}}, {"name": "PartitionedCall/add_2", "op": "AddV2", "input": ["unknown_9", "PartitionedCall/SparseToDense_1"], "attr": {"T": {"type": "DT_INT64"}}}, {"name": "PartitionedCall/add_3", "op": "AddV2", "input": ["unknown_10", "PartitionedCall/SparseToDense_2"], "attr": {"T": {"type": "DT_INT64"}}}, {"name": "PartitionedCall/add_4", "op": "AddV2", "input": ["unknown_23", "PartitionedCall/SparseToDense_3"], "attr": {"T": {"type": "DT_INT64"}}}, {"name": "PartitionedCall/add_5", "op": "AddV2", "input": ["unknown_24", "PartitionedCall/SparseToDense_4"], "attr": {"T": {"type": "DT_INT64"}}}, {"name": "PartitionedCall/add_6", "op": "AddV2", "input": ["unknown_37", "PartitionedCall/SparseToDense_5"], "attr": {"T": {"type": "DT_INT64"}}}, {"name": "PartitionedCall/add_7", "op": "AddV2", "input": ["unknown_38", "PartitionedCall/SparseToDense_6"], "attr": {"T": {"type": "DT_INT64"}}}, {"name": "PartitionedCall/add_8", "op": "AddV2", "input": ["unknown_51", "PartitionedCall/SparseToDense_7"], "attr": {"T": {"type": "DT_INT64"}}}, {"name": "PartitionedCall/add_9", "op": "AddV2", "input": ["unknown_52", "PartitionedCall/SparseToDense_8"], "attr": {"T": {"type": "DT_INT64"}}}, {"name": "PartitionedCall/add_10", "op": "AddV2", "input": ["unknown_65", "PartitionedCall/SparseToDense_9"], "attr": {"T": {"type": "DT_INT64"}}}, {"name": "PartitionedCall/add_11", "op": "AddV2", "input": ["unknown_66", "PartitionedCall/SparseToDense_10"], "attr": {"T": {"type": "DT_INT64"}}}, {"name": "PartitionedCall/add_12", "op": "AddV2", "input": ["unknown_79", "PartitionedCall/SparseToDense_11"], "attr": {"T": {"type": "DT_INT64"}}}, {"name": "PartitionedCall/add_13", "op": "AddV2", "input": ["unknown_80", "PartitionedCall/SparseToDense_12"], "attr": {"T": {"type": "DT_INT64"}}}, {"name": "PartitionedCall/add_14", "op": "AddV2", "input": ["unknown_93", "PartitionedCall/SparseToDense_13"], "attr": {"T": {"type": "DT_INT64"}}}, {"name": "PartitionedCall/add_15", "op": "AddV2", "input": ["unknown_94", "PartitionedCall/SparseToDense_14"], "attr": {"T": {"type": "DT_INT64"}}}, {"name": "PartitionedCall/add_16", "op": "AddV2", "input": ["unknown_107", "PartitionedCall/SparseToDense_15"], "attr": {"T": {"type": "DT_INT64"}}}, {"name": "PartitionedCall/add_17", "op": "AddV2", "input": ["unknown_108", "PartitionedCall/SparseToDense_16"], "attr": {"T": {"type": "DT_INT64"}}}, {"name": "PartitionedCall/add_18", "op": "AddV2", "input": ["unknown_121", "PartitionedCall/SparseToDense_17"], "attr": {"T": {"type": "DT_INT64"}}}, {"name": "PartitionedCall/add_19", "op": "AddV2", "input": ["unknown_122", "PartitionedCall/SparseToDense_18"], "attr": {"T": {"type": "DT_INT64"}}}, {"name": "PartitionedCall/add_20", "op": "AddV2", "input": ["unknown_135", "PartitionedCall/SparseToDense_19"], "attr": {"T": {"type": "DT_INT64"}}}, {"name": "PartitionedCall/add_21", "op": "AddV2", "input": ["unknown_136", "PartitionedCall/SparseToDense_20"], "attr": {"T": {"type": "DT_INT64"}}}, {"name": "PartitionedCall/add_22", "op": "AddV2", "input": ["unknown_149", "PartitionedCall/SparseToDense_21"], "attr": {"T": {"type": "DT_INT64"}}}, {"name": "PartitionedCall/add_23", "op": "AddV2", "input": ["unknown_150", "PartitionedCall/SparseToDense_22"], "attr": {"T": {"type": "DT_INT64"}}}, {"name": "PartitionedCall/add_24", "op": "AddV2", "input": ["unknown_163", "PartitionedCall/SparseToDense_23"], "attr": {"T": {"type": "DT_INT64"}}}, {"name": "PartitionedCall/add_25", "op": "AddV2", "input": ["unknown_164", "PartitionedCall/SparseToDense_24"], "attr": {"T": {"type": "DT_INT64"}}}, {"name": "PartitionedCall/convolution", "op": "Conv2D", "input": ["PartitionedCall/transpose_1", "PartitionedCall/split"], "device": "/device:CPU:0", "attr": {"padding": {"s": "VkFMSUQ="}, "dilations": {"list": {"i": ["1", "1", "1", "1"]}}, "strides": {"list": {"i": ["1", "16", "16", "1"]}}, "T": {"type": "DT_FLOAT"}, "data_format": {"s": "TkhXQw=="}, "explicit_paddings": {"list": {}}, "use_cudnn_on_gpu": {"b": true}}}, {"name": "PartitionedCall/Add", "op": "AddV2", "input": ["PartitionedCall/convolution", "unknown_0"], "attr": {"T": {"type": "DT_FLOAT"}}}, {"name": "PartitionedCall/transpose_2", "op": "Transpose", "input": ["PartitionedCall/Add", "PartitionedCall/transpose_2/perm"], "attr": {"T": {"type": "DT_FLOAT"}, "Tperm": {"type": "DT_INT32"}}}, {"name": "PartitionedCall/onnx_tf_prefix_Reshape_5", "op": "Reshape", "input": ["PartitionedCall/transpose_2", "PartitionedCall/add_1"], "attr": {"Tshape": {"type": "DT_INT64"}, "T": {"type": "DT_FLOAT"}}}, {"name": "PartitionedCall/onnx_tf_prefix_Transpose_6", "op": "Transpose", "input": ["PartitionedCall/onnx_tf_prefix_Reshape_5", "PartitionedCall/onnx_tf_prefix_Transpose_6/perm"], "attr": {"T": {"type": "DT_FLOAT"}, "Tperm": {"type": "DT_INT32"}}}, {"name": "PartitionedCall/onnx_tf_prefix_Concat_13", "op": "ConcatV2", "input": ["PartitionedCall/mul", "PartitionedCall/onnx_tf_prefix_Transpose_6", "PartitionedCall/onnx_tf_prefix_Concat_13/axis"], "attr": {"Tidx": {"type": "DT_INT32"}, "N": {"i": "2"}, "T": {"type": "DT_FLOAT"}}}, {"name": "PartitionedCall/onnx_tf_prefix_Add_14", "op": "AddV2", "input": ["PartitionedCall/onnx_tf_prefix_Concat_13", "unknown_4"], "attr": {"T": {"type": "DT_FLOAT"}}}, {"name": "PartitionedCall/onnx_tf_prefix_ReduceMean_15", "op": "Mean", "input": ["PartitionedCall/onnx_tf_prefix_Add_14", "PartitionedCall/onnx_tf_prefix_ReduceMean_15/reduction_indices"], "attr": {"keep_dims": {"b": true}, "T": {"type": "DT_FLOAT"}, "Tidx": {"type": "DT_INT32"}}}, {"name": "PartitionedCall/onnx_tf_prefix_Sub_16", "op": "Sub", "input": ["PartitionedCall/onnx_tf_prefix_Add_14", "PartitionedCall/onnx_tf_prefix_ReduceMean_15"], "attr": {"T": {"type": "DT_FLOAT"}}}, {"name": "PartitionedCall/onnx_tf_prefix_Pow_18", "op": "Square", "input": ["PartitionedCall/onnx_tf_prefix_Sub_16"], "attr": {"T": {"type": "DT_FLOAT"}}}, {"name": "PartitionedCall/onnx_tf_prefix_ReduceMean_19", "op": "Mean", "input": ["PartitionedCall/onnx_tf_prefix_Pow_18", "PartitionedCall/onnx_tf_prefix_ReduceMean_19/reduction_indices"], "attr": {"Tidx": {"type": "DT_INT32"}, "T": {"type": "DT_FLOAT"}, "keep_dims": {"b": true}}}, {"name": "PartitionedCall/onnx_tf_prefix_Add_21", "op": "AddV2", "input": ["PartitionedCall/onnx_tf_prefix_ReduceMean_19", "PartitionedCall/onnx_tf_prefix_Constant_20"], "attr": {"T": {"type": "DT_FLOAT"}}}, {"name": "PartitionedCall/onnx_tf_prefix_Sqrt_22", "op": "Rsqrt", "input": ["PartitionedCall/onnx_tf_prefix_Add_21"], "attr": {"T": {"type": "DT_FLOAT"}}}, {"name": "PartitionedCall/onnx_tf_prefix_Div_23", "op": "Mul", "input": ["PartitionedCall/onnx_tf_prefix_Sqrt_22", "unknown_5"], "attr": {"T": {"type": "DT_FLOAT"}, "_grappler_ArithmeticOptimizer_MinimizeBroadcasts": {"b": true}}}, {"name": "PartitionedCall/onnx_tf_prefix_Mul_24", "op": "Mul", "input": ["PartitionedCall/onnx_tf_prefix_Div_23", "PartitionedCall/onnx_tf_prefix_Sub_16"], "attr": {"T": {"type": "DT_FLOAT"}, "_grappler_ArithmeticOptimizer_MinimizeBroadcasts": {"b": true}}}, {"name": "PartitionedCall/onnx_tf_prefix_Add_25", "op": "AddV2", "input": ["PartitionedCall/onnx_tf_prefix_Mul_24", "unknown_6"], "attr": {"T": {"type": "DT_FLOAT"}}}, {"name": "PartitionedCall/onnx_tf_prefix_MatMul_26", "op": "BatchMatMulV2", "input": ["PartitionedCall/onnx_tf_prefix_Add_25", "unknown_7"], "attr": {"adj_x": {"b": false}, "T": {"type": "DT_FLOAT"}, "adj_y": {"b": false}}}, {"name": "PartitionedCall/onnx_tf_prefix_Add_27", "op": "AddV2", "input": ["unknown_8", "PartitionedCall/onnx_tf_prefix_MatMul_26"], "attr": {"T": {"type": "DT_FLOAT"}}}, {"name": "PartitionedCall/onnx_tf_prefix_Reshape_28", "op": "Reshape", "input": ["PartitionedCall/onnx_tf_prefix_Add_27", "PartitionedCall/add_2"], "attr": {"T": {"type": "DT_FLOAT"}, "Tshape": {"type": "DT_INT64"}}}, {"name": "PartitionedCall/onnx_tf_prefix_Transpose_29", "op": "Transpose", "input": ["PartitionedCall/onnx_tf_prefix_Reshape_28", "PartitionedCall/onnx_tf_prefix_Transpose_29/perm"], "attr": {"T": {"type": "DT_FLOAT"}, "Tperm": {"type": "DT_INT32"}}}, {"name": "PartitionedCall/onnx_tf_prefix_Split_30", "op": "SplitV", "input": ["PartitionedCall/onnx_tf_prefix_Transpose_29", "PartitionedCall/Const_2", "PartitionedCall/onnx_tf_prefix_Split_30/split_dim"], "attr": {"T": {"type": "DT_FLOAT"}, "Tlen": {"type": "DT_INT32"}, "num_split": {"i": "3"}}}, {"name": "PartitionedCall/onnx_tf_prefix_Squeeze_31", "op": "Squeeze", "input": ["PartitionedCall/onnx_tf_prefix_Split_30"], "attr": {"T": {"type": "DT_FLOAT"}, "squeeze_dims": {"list": {"i": ["0"]}}}}, {"name": "PartitionedCall/onnx_tf_prefix_Squeeze_32", "op": "Squeeze", "input": ["PartitionedCall/onnx_tf_prefix_Split_30:1"], "attr": {"squeeze_dims": {"list": {"i": ["0"]}}, "T": {"type": "DT_FLOAT"}}}, {"name": "PartitionedCall/onnx_tf_prefix_Squeeze_33", "op": "Squeeze", "input": ["PartitionedCall/onnx_tf_prefix_Split_30:2"], "attr": {"squeeze_dims": {"list": {"i": ["0"]}}, "T": {"type": "DT_FLOAT"}}}, {"name": "PartitionedCall/ArithmeticOptimizer/FoldTransposeIntoMatMul_onnx_tf_prefix_MatMul_35", "op": "BatchMatMulV2", "input": ["PartitionedCall/onnx_tf_prefix_Squeeze_31", "PartitionedCall/onnx_tf_prefix_Squeeze_32"], "attr": {"adj_y": {"b": true}, "adj_x": {"b": false}, "T": {"type": "DT_FLOAT"}}}, {"name": "PartitionedCall/onnx_tf_prefix_Mul_37", "op": "Mul", "input": ["PartitionedCall/ArithmeticOptimizer/FoldTransposeIntoMatMul_onnx_tf_prefix_MatMul_35", "PartitionedCall/onnx_tf_prefix_Constant_36"], "attr": {"T": {"type": "DT_FLOAT"}}}, {"name": "PartitionedCall/onnx_tf_prefix_Softmax_38", "op": "Softmax", "input": ["PartitionedCall/onnx_tf_prefix_Mul_37"], "attr": {"T": {"type": "DT_FLOAT"}}}, {"name": "PartitionedCall/onnx_tf_prefix_MatMul_39", "op": "BatchMatMulV2", "input": ["PartitionedCall/onnx_tf_prefix_Softmax_38", "PartitionedCall/onnx_tf_prefix_Squeeze_33"], "attr": {"adj_x": {"b": false}, "T": {"type": "DT_FLOAT"}, "adj_y": {"b": false}}}, {"name": "PartitionedCall/onnx_tf_prefix_Transpose_40", "op": "Transpose", "input": ["PartitionedCall/onnx_tf_prefix_MatMul_39", "PartitionedCall/onnx_tf_prefix_Transpose_40/perm"], "attr": {"T": {"type": "DT_FLOAT"}, "Tperm": {"type": "DT_INT32"}}}, {"name": "PartitionedCall/onnx_tf_prefix_Reshape_41", "op": "Reshape", "input": ["PartitionedCall/onnx_tf_prefix_Transpose_40", "PartitionedCall/add_3"], "attr": {"Tshape": {"type": "DT_INT64"}, "T": {"type": "DT_FLOAT"}}}, {"name": "PartitionedCall/onnx_tf_prefix_MatMul_42", "op": "BatchMatMulV2", "input": ["PartitionedCall/onnx_tf_prefix_Reshape_41", "unknown_11"], "attr": {"T": {"type": "DT_FLOAT"}, "adj_x": {"b": false}, "adj_y": {"b": false}}}, {"name": "PartitionedCall/onnx_tf_prefix_Add_43", "op": "AddV2", "input": ["unknown_12", "PartitionedCall/onnx_tf_prefix_MatMul_42"], "attr": {"T": {"type": "DT_FLOAT"}}}, {"name": "PartitionedCall/onnx_tf_prefix_Add_44", "op": "AddV2", "input": ["PartitionedCall/onnx_tf_prefix_Add_14", "PartitionedCall/onnx_tf_prefix_Add_43"], "attr": {"T": {"type": "DT_FLOAT"}}}, {"name": "PartitionedCall/onnx_tf_prefix_ReduceMean_45", "op": "Mean", "input": ["PartitionedCall/onnx_tf_prefix_Add_44", "PartitionedCall/onnx_tf_prefix_ReduceMean_45/reduction_indices"], "attr": {"Tidx": {"type": "DT_INT32"}, "T": {"type": "DT_FLOAT"}, "keep_dims": {"b": true}}}, {"name": "PartitionedCall/onnx_tf_prefix_Sub_46", "op": "Sub", "input": ["PartitionedCall/onnx_tf_prefix_Add_44", "PartitionedCall/onnx_tf_prefix_ReduceMean_45"], "attr": {"T": {"type": "DT_FLOAT"}}}, {"name": "PartitionedCall/onnx_tf_prefix_Pow_48", "op": "Square", "input": ["PartitionedCall/onnx_tf_prefix_Sub_46"], "attr": {"T": {"type": "DT_FLOAT"}}}, {"name": "PartitionedCall/onnx_tf_prefix_ReduceMean_49", "op": "Mean", "input": ["PartitionedCall/onnx_tf_prefix_Pow_48", "PartitionedCall/onnx_tf_prefix_ReduceMean_49/reduction_indices"], "attr": {"keep_dims": {"b": true}, "Tidx": {"type": "DT_INT32"}, "T": {"type": "DT_FLOAT"}}}, {"name": "PartitionedCall/onnx_tf_prefix_Add_51", "op": "AddV2", "input": ["PartitionedCall/onnx_tf_prefix_ReduceMean_49", "PartitionedCall/onnx_tf_prefix_Constant_50"], "attr": {"T": {"type": "DT_FLOAT"}}}, {"name": "PartitionedCall/onnx_tf_prefix_Sqrt_52", "op": "Rsqrt", "input": ["PartitionedCall/onnx_tf_prefix_Add_51"], "attr": {"T": {"type": "DT_FLOAT"}}}, {"name": "PartitionedCall/onnx_tf_prefix_Div_53", "op": "Mul", "input": ["unknown_13", "PartitionedCall/onnx_tf_prefix_Sqrt_52"], "attr": {"_grappler_ArithmeticOptimizer_MinimizeBroadcasts": {"b": true}, "T": {"type": "DT_FLOAT"}}}, {"name": "PartitionedCall/onnx_tf_prefix_Mul_54", "op": "Mul", "input": ["PartitionedCall/onnx_tf_prefix_Div_53", "PartitionedCall/onnx_tf_prefix_Sub_46"], "attr": {"T": {"type": "DT_FLOAT"}, "_grappler_ArithmeticOptimizer_MinimizeBroadcasts": {"b": true}}}, {"name": "PartitionedCall/onnx_tf_prefix_Add_55", "op": "AddV2", "input": ["PartitionedCall/onnx_tf_prefix_Mul_54", "unknown_14"], "attr": {"T": {"type": "DT_FLOAT"}}}, {"name": "PartitionedCall/onnx_tf_prefix_MatMul_56", "op": "BatchMatMulV2", "input": ["PartitionedCall/onnx_tf_prefix_Add_55", "unknown_15"], "attr": {"T": {"type": "DT_FLOAT"}, "adj_x": {"b": false}, "adj_y": {"b": false}}}, {"name": "PartitionedCall/onnx_tf_prefix_Add_57", "op": "AddV2", "input": ["unknown_16", "PartitionedCall/onnx_tf_prefix_MatMul_56"], "attr": {"T": {"type": "DT_FLOAT"}}}, {"name": "PartitionedCall/onnx_tf_prefix_Mul_63", "op": "Mul", "input": ["PartitionedCall/onnx_tf_prefix_Constant_64", "PartitionedCall/onnx_tf_prefix_Add_57"], "attr": {"_grappler_ArithmeticOptimizer_MinimizeBroadcasts": {"b": true}, "T": {"type": "DT_FLOAT"}}}, {"name": "PartitionedCall/onnx_tf_prefix_Div_59", "op": "Mul", "input": ["PartitionedCall/onnx_tf_prefix_Add_57", "ConstantFolding/PartitionedCall/onnx_tf_prefix_Div_59_recip"], "attr": {"T": {"type": "DT_FLOAT"}}}, {"name": "PartitionedCall/onnx_tf_prefix_Erf_60", "op": "Erf", "input": ["PartitionedCall/onnx_tf_prefix_Div_59"], "attr": {"T": {"type": "DT_FLOAT"}}}, {"name": "PartitionedCall/onnx_tf_prefix_Add_62", "op": "AddV2", "input": ["PartitionedCall/onnx_tf_prefix_Erf_60", "PartitionedCall/onnx_tf_prefix_Constant_61"], "attr": {"T": {"type": "DT_FLOAT"}}}, {"name": "PartitionedCall/onnx_tf_prefix_Mul_65", "op": "Mul", "input": ["PartitionedCall/onnx_tf_prefix_Mul_63", "PartitionedCall/onnx_tf_prefix_Add_62"], "attr": {"T": {"type": "DT_FLOAT"}, "_grappler_ArithmeticOptimizer_MinimizeBroadcasts": {"b": true}}}, {"name": "PartitionedCall/onnx_tf_prefix_MatMul_66", "op": "BatchMatMulV2", "input": ["PartitionedCall/onnx_tf_prefix_Mul_65", "unknown_17"], "attr": {"T": {"type": "DT_FLOAT"}, "adj_x": {"b": false}, "adj_y": {"b": false}}}, {"name": "PartitionedCall/ArithmeticOptimizer/AddOpsRewrite_Leaf_1_onnx_tf_prefix_Add_68", "op": "AddN", "input": ["PartitionedCall/onnx_tf_prefix_Add_44", "PartitionedCall/onnx_tf_prefix_MatMul_66"], "attr": {"N": {"i": "2"}, "_grappler_ArithmeticOptimizer_AddOpsRewriteStage": {"b": true}, "T": {"type": "DT_FLOAT"}}}, {"name": "PartitionedCall/ArithmeticOptimizer/AddOpsRewrite_onnx_tf_prefix_Add_68", "op": "AddV2", "input": ["unknown_18", "PartitionedCall/ArithmeticOptimizer/AddOpsRewrite_Leaf_1_onnx_tf_prefix_Add_68"], "attr": {"_grappler_ArithmeticOptimizer_AddOpsRewriteStage": {"b": true}, "T": {"type": "DT_FLOAT"}}}, {"name": "PartitionedCall/onnx_tf_prefix_ReduceMean_69", "op": "Mean", "input": ["PartitionedCall/ArithmeticOptimizer/AddOpsRewrite_onnx_tf_prefix_Add_68", "PartitionedCall/onnx_tf_prefix_ReduceMean_69/reduction_indices"], "attr": {"Tidx": {"type": "DT_INT32"}, "keep_dims": {"b": true}, "T": {"type": "DT_FLOAT"}}}, {"name": "PartitionedCall/onnx_tf_prefix_Sub_70", "op": "Sub", "input": ["PartitionedCall/ArithmeticOptimizer/AddOpsRewrite_onnx_tf_prefix_Add_68", "PartitionedCall/onnx_tf_prefix_ReduceMean_69"], "attr": {"T": {"type": "DT_FLOAT"}}}, {"name": "PartitionedCall/onnx_tf_prefix_Pow_72", "op": "Square", "input": ["PartitionedCall/onnx_tf_prefix_Sub_70"], "attr": {"T": {"type": "DT_FLOAT"}}}, {"name": "PartitionedCall/onnx_tf_prefix_ReduceMean_73", "op": "Mean", "input": ["PartitionedCall/onnx_tf_prefix_Pow_72", "PartitionedCall/onnx_tf_prefix_ReduceMean_73/reduction_indices"], "attr": {"keep_dims": {"b": true}, "Tidx": {"type": "DT_INT32"}, "T": {"type": "DT_FLOAT"}}}, {"name": "PartitionedCall/onnx_tf_prefix_Add_75", "op": "AddV2", "input": ["PartitionedCall/onnx_tf_prefix_ReduceMean_73", "PartitionedCall/onnx_tf_prefix_Constant_74"], "attr": {"T": {"type": "DT_FLOAT"}}}, {"name": "PartitionedCall/onnx_tf_prefix_Sqrt_76", "op": "Rsqrt", "input": ["PartitionedCall/onnx_tf_prefix_Add_75"], "attr": {"T": {"type": "DT_FLOAT"}}}, {"name": "PartitionedCall/onnx_tf_prefix_Div_77", "op": "Mul", "input": ["unknown_19", "PartitionedCall/onnx_tf_prefix_Sqrt_76"], "attr": {"_grappler_ArithmeticOptimizer_MinimizeBroadcasts": {"b": true}, "T": {"type": "DT_FLOAT"}}}, {"name": "PartitionedCall/onnx_tf_prefix_Mul_78", "op": "Mul", "input": ["PartitionedCall/onnx_tf_prefix_Div_77", "PartitionedCall/onnx_tf_prefix_Sub_70"], "attr": {"T": {"type": "DT_FLOAT"}, "_grappler_ArithmeticOptimizer_MinimizeBroadcasts": {"b": true}}}, {"name": "PartitionedCall/onnx_tf_prefix_Add_79", "op": "AddV2", "input": ["PartitionedCall/onnx_tf_prefix_Mul_78", "unknown_20"], "attr": {"T": {"type": "DT_FLOAT"}}}, {"name": "PartitionedCall/onnx_tf_prefix_MatMul_80", "op": "BatchMatMulV2", "input": ["PartitionedCall/onnx_tf_prefix_Add_79", "unknown_21"], "attr": {"adj_y": {"b": false}, "adj_x": {"b": false}, "T": {"type": "DT_FLOAT"}}}, {"name": "PartitionedCall/onnx_tf_prefix_Add_81", "op": "AddV2", "input": ["unknown_22", "PartitionedCall/onnx_tf_prefix_MatMul_80"], "attr": {"T": {"type": "DT_FLOAT"}}}, {"name": "PartitionedCall/onnx_tf_prefix_Reshape_82", "op": "Reshape", "input": ["PartitionedCall/onnx_tf_prefix_Add_81", "PartitionedCall/add_4"], "attr": {"Tshape": {"type": "DT_INT64"}, "T": {"type": "DT_FLOAT"}}}, {"name": "PartitionedCall/onnx_tf_prefix_Transpose_83", "op": "Transpose", "input": ["PartitionedCall/onnx_tf_prefix_Reshape_82", "PartitionedCall/onnx_tf_prefix_Transpose_83/perm"], "attr": {"T": {"type": "DT_FLOAT"}, "Tperm": {"type": "DT_INT32"}}}, {"name": "PartitionedCall/onnx_tf_prefix_Split_84", "op": "SplitV", "input": ["PartitionedCall/onnx_tf_prefix_Transpose_83", "PartitionedCall/Const_5", "PartitionedCall/onnx_tf_prefix_Split_84/split_dim"], "attr": {"T": {"type": "DT_FLOAT"}, "num_split": {"i": "3"}, "Tlen": {"type": "DT_INT32"}}}, {"name": "PartitionedCall/onnx_tf_prefix_Squeeze_85", "op": "Squeeze", "input": ["PartitionedCall/onnx_tf_prefix_Split_84"], "attr": {"T": {"type": "DT_FLOAT"}, "squeeze_dims": {"list": {"i": ["0"]}}}}, {"name": "PartitionedCall/onnx_tf_prefix_Squeeze_86", "op": "Squeeze", "input": ["PartitionedCall/onnx_tf_prefix_Split_84:1"], "attr": {"squeeze_dims": {"list": {"i": ["0"]}}, "T": {"type": "DT_FLOAT"}}}, {"name": "PartitionedCall/onnx_tf_prefix_Squeeze_87", "op": "Squeeze", "input": ["PartitionedCall/onnx_tf_prefix_Split_84:2"], "attr": {"T": {"type": "DT_FLOAT"}, "squeeze_dims": {"list": {"i": ["0"]}}}}, {"name": "PartitionedCall/ArithmeticOptimizer/FoldTransposeIntoMatMul_onnx_tf_prefix_MatMul_89", "op": "BatchMatMulV2", "input": ["PartitionedCall/onnx_tf_prefix_Squeeze_85", "PartitionedCall/onnx_tf_prefix_Squeeze_86"], "attr": {"adj_y": {"b": true}, "adj_x": {"b": false}, "T": {"type": "DT_FLOAT"}}}, {"name": "PartitionedCall/onnx_tf_prefix_Mul_91", "op": "Mul", "input": ["PartitionedCall/ArithmeticOptimizer/FoldTransposeIntoMatMul_onnx_tf_prefix_MatMul_89", "PartitionedCall/onnx_tf_prefix_Constant_90"], "attr": {"T": {"type": "DT_FLOAT"}}}, {"name": "PartitionedCall/onnx_tf_prefix_Softmax_92", "op": "Softmax", "input": ["PartitionedCall/onnx_tf_prefix_Mul_91"], "attr": {"T": {"type": "DT_FLOAT"}}}, {"name": "PartitionedCall/onnx_tf_prefix_MatMul_93", "op": "BatchMatMulV2", "input": ["PartitionedCall/onnx_tf_prefix_Softmax_92", "PartitionedCall/onnx_tf_prefix_Squeeze_87"], "attr": {"adj_x": {"b": false}, "T": {"type": "DT_FLOAT"}, "adj_y": {"b": false}}}, {"name": "PartitionedCall/onnx_tf_prefix_Transpose_94", "op": "Transpose", "input": ["PartitionedCall/onnx_tf_prefix_MatMul_93", "PartitionedCall/onnx_tf_prefix_Transpose_94/perm"], "attr": {"Tperm": {"type": "DT_INT32"}, "T": {"type": "DT_FLOAT"}}}, {"name": "PartitionedCall/onnx_tf_prefix_Reshape_95", "op": "Reshape", "input": ["PartitionedCall/onnx_tf_prefix_Transpose_94", "PartitionedCall/add_5"], "attr": {"T": {"type": "DT_FLOAT"}, "Tshape": {"type": "DT_INT64"}}}, {"name": "PartitionedCall/onnx_tf_prefix_MatMul_96", "op": "BatchMatMulV2", "input": ["PartitionedCall/onnx_tf_prefix_Reshape_95", "unknown_25"], "attr": {"adj_x": {"b": false}, "T": {"type": "DT_FLOAT"}, "adj_y": {"b": false}}}, {"name": "PartitionedCall/onnx_tf_prefix_Add_97", "op": "AddV2", "input": ["unknown_26", "PartitionedCall/onnx_tf_prefix_MatMul_96"], "attr": {"T": {"type": "DT_FLOAT"}}}, {"name": "PartitionedCall/onnx_tf_prefix_Add_98", "op": "AddV2", "input": ["PartitionedCall/ArithmeticOptimizer/AddOpsRewrite_onnx_tf_prefix_Add_68", "PartitionedCall/onnx_tf_prefix_Add_97"], "attr": {"T": {"type": "DT_FLOAT"}}}, {"name": "PartitionedCall/onnx_tf_prefix_ReduceMean_99", "op": "Mean", "input": ["PartitionedCall/onnx_tf_prefix_Add_98", "PartitionedCall/onnx_tf_prefix_ReduceMean_99/reduction_indices"], "attr": {"T": {"type": "DT_FLOAT"}, "Tidx": {"type": "DT_INT32"}, "keep_dims": {"b": true}}}, {"name": "PartitionedCall/onnx_tf_prefix_Sub_100", "op": "Sub", "input": ["PartitionedCall/onnx_tf_prefix_Add_98", "PartitionedCall/onnx_tf_prefix_ReduceMean_99"], "attr": {"T": {"type": "DT_FLOAT"}}}, {"name": "PartitionedCall/onnx_tf_prefix_Pow_102", "op": "Square", "input": ["PartitionedCall/onnx_tf_prefix_Sub_100"], "attr": {"T": {"type": "DT_FLOAT"}}}, {"name": "PartitionedCall/onnx_tf_prefix_ReduceMean_103", "op": "Mean", "input": ["PartitionedCall/onnx_tf_prefix_Pow_102", "PartitionedCall/onnx_tf_prefix_ReduceMean_103/reduction_indices"], "attr": {"T": {"type": "DT_FLOAT"}, "keep_dims": {"b": true}, "Tidx": {"type": "DT_INT32"}}}, {"name": "PartitionedCall/onnx_tf_prefix_Add_105", "op": "AddV2", "input": ["PartitionedCall/onnx_tf_prefix_ReduceMean_103", "PartitionedCall/onnx_tf_prefix_Constant_104"], "attr": {"T": {"type": "DT_FLOAT"}}}, {"name": "PartitionedCall/onnx_tf_prefix_Sqrt_106", "op": "Rsqrt", "input": ["PartitionedCall/onnx_tf_prefix_Add_105"], "attr": {"T": {"type": "DT_FLOAT"}}}, {"name": "PartitionedCall/onnx_tf_prefix_Div_107", "op": "Mul", "input": ["unknown_27", "PartitionedCall/onnx_tf_prefix_Sqrt_106"], "attr": {"T": {"type": "DT_FLOAT"}, "_grappler_ArithmeticOptimizer_MinimizeBroadcasts": {"b": true}}}, {"name": "PartitionedCall/onnx_tf_prefix_Mul_108", "op": "Mul", "input": ["PartitionedCall/onnx_tf_prefix_Div_107", "PartitionedCall/onnx_tf_prefix_Sub_100"], "attr": {"_grappler_ArithmeticOptimizer_MinimizeBroadcasts": {"b": true}, "T": {"type": "DT_FLOAT"}}}, {"name": "PartitionedCall/onnx_tf_prefix_Add_109", "op": "AddV2", "input": ["PartitionedCall/onnx_tf_prefix_Mul_108", "unknown_28"], "attr": {"T": {"type": "DT_FLOAT"}}}, {"name": "PartitionedCall/onnx_tf_prefix_MatMul_110", "op": "BatchMatMulV2", "input": ["PartitionedCall/onnx_tf_prefix_Add_109", "unknown_29"], "attr": {"T": {"type": "DT_FLOAT"}, "adj_y": {"b": false}, "adj_x": {"b": false}}}, {"name": "PartitionedCall/onnx_tf_prefix_Add_111", "op": "AddV2", "input": ["unknown_30", "PartitionedCall/onnx_tf_prefix_MatMul_110"], "attr": {"T": {"type": "DT_FLOAT"}}}, {"name": "PartitionedCall/onnx_tf_prefix_Mul_117", "op": "Mul", "input": ["PartitionedCall/onnx_tf_prefix_Constant_118", "PartitionedCall/onnx_tf_prefix_Add_111"], "attr": {"T": {"type": "DT_FLOAT"}, "_grappler_ArithmeticOptimizer_MinimizeBroadcasts": {"b": true}}}, {"name": "PartitionedCall/onnx_tf_prefix_Div_113", "op": "Mul", "input": ["PartitionedCall/onnx_tf_prefix_Add_111", "ConstantFolding/PartitionedCall/onnx_tf_prefix_Div_113_recip"], "attr": {"T": {"type": "DT_FLOAT"}}}, {"name": "PartitionedCall/onnx_tf_prefix_Erf_114", "op": "Erf", "input": ["PartitionedCall/onnx_tf_prefix_Div_113"], "attr": {"T": {"type": "DT_FLOAT"}}}, {"name": "PartitionedCall/onnx_tf_prefix_Add_116", "op": "AddV2", "input": ["PartitionedCall/onnx_tf_prefix_Erf_114", "PartitionedCall/onnx_tf_prefix_Constant_115"], "attr": {"T": {"type": "DT_FLOAT"}}}, {"name": "PartitionedCall/onnx_tf_prefix_Mul_119", "op": "Mul", "input": ["PartitionedCall/onnx_tf_prefix_Mul_117", "PartitionedCall/onnx_tf_prefix_Add_116"], "attr": {"T": {"type": "DT_FLOAT"}, "_grappler_ArithmeticOptimizer_MinimizeBroadcasts": {"b": true}}}, {"name": "PartitionedCall/onnx_tf_prefix_MatMul_120", "op": "BatchMatMulV2", "input": ["PartitionedCall/onnx_tf_prefix_Mul_119", "unknown_31"], "attr": {"adj_y": {"b": false}, "adj_x": {"b": false}, "T": {"type": "DT_FLOAT"}}}, {"name": "PartitionedCall/ArithmeticOptimizer/AddOpsRewrite_Leaf_1_onnx_tf_prefix_Add_122", "op": "AddN", "input": ["PartitionedCall/onnx_tf_prefix_Add_98", "PartitionedCall/onnx_tf_prefix_MatMul_120"], "attr": {"T": {"type": "DT_FLOAT"}, "_grappler_ArithmeticOptimizer_AddOpsRewriteStage": {"b": true}, "N": {"i": "2"}}}, {"name": "PartitionedCall/ArithmeticOptimizer/AddOpsRewrite_onnx_tf_prefix_Add_122", "op": "AddV2", "input": ["unknown_32", "PartitionedCall/ArithmeticOptimizer/AddOpsRewrite_Leaf_1_onnx_tf_prefix_Add_122"], "attr": {"_grappler_ArithmeticOptimizer_AddOpsRewriteStage": {"b": true}, "T": {"type": "DT_FLOAT"}}}, {"name": "PartitionedCall/onnx_tf_prefix_ReduceMean_123", "op": "Mean", "input": ["PartitionedCall/ArithmeticOptimizer/AddOpsRewrite_onnx_tf_prefix_Add_122", "PartitionedCall/onnx_tf_prefix_ReduceMean_123/reduction_indices"], "attr": {"keep_dims": {"b": true}, "Tidx": {"type": "DT_INT32"}, "T": {"type": "DT_FLOAT"}}}, {"name": "PartitionedCall/onnx_tf_prefix_Sub_124", "op": "Sub", "input": ["PartitionedCall/ArithmeticOptimizer/AddOpsRewrite_onnx_tf_prefix_Add_122", "PartitionedCall/onnx_tf_prefix_ReduceMean_123"], "attr": {"T": {"type": "DT_FLOAT"}}}, {"name": "PartitionedCall/onnx_tf_prefix_Pow_126", "op": "Square", "input": ["PartitionedCall/onnx_tf_prefix_Sub_124"], "attr": {"T": {"type": "DT_FLOAT"}}}, {"name": "PartitionedCall/onnx_tf_prefix_ReduceMean_127", "op": "Mean", "input": ["PartitionedCall/onnx_tf_prefix_Pow_126", "PartitionedCall/onnx_tf_prefix_ReduceMean_127/reduction_indices"], "attr": {"T": {"type": "DT_FLOAT"}, "Tidx": {"type": "DT_INT32"}, "keep_dims": {"b": true}}}, {"name": "PartitionedCall/onnx_tf_prefix_Add_129", "op": "AddV2", "input": ["PartitionedCall/onnx_tf_prefix_ReduceMean_127", "PartitionedCall/onnx_tf_prefix_Constant_128"], "attr": {"T": {"type": "DT_FLOAT"}}}, {"name": "PartitionedCall/onnx_tf_prefix_Sqrt_130", "op": "Rsqrt", "input": ["PartitionedCall/onnx_tf_prefix_Add_129"], "attr": {"T": {"type": "DT_FLOAT"}}}, {"name": "PartitionedCall/onnx_tf_prefix_Div_131", "op": "Mul", "input": ["unknown_33", "PartitionedCall/onnx_tf_prefix_Sqrt_130"], "attr": {"_grappler_ArithmeticOptimizer_MinimizeBroadcasts": {"b": true}, "T": {"type": "DT_FLOAT"}}}, {"name": "PartitionedCall/onnx_tf_prefix_Mul_132", "op": "Mul", "input": ["PartitionedCall/onnx_tf_prefix_Div_131", "PartitionedCall/onnx_tf_prefix_Sub_124"], "attr": {"T": {"type": "DT_FLOAT"}, "_grappler_ArithmeticOptimizer_MinimizeBroadcasts": {"b": true}}}, {"name": "PartitionedCall/onnx_tf_prefix_Add_133", "op": "AddV2", "input": ["PartitionedCall/onnx_tf_prefix_Mul_132", "unknown_34"], "attr": {"T": {"type": "DT_FLOAT"}}}, {"name": "PartitionedCall/onnx_tf_prefix_MatMul_134", "op": "BatchMatMulV2", "input": ["PartitionedCall/onnx_tf_prefix_Add_133", "unknown_35"], "attr": {"adj_y": {"b": false}, "adj_x": {"b": false}, "T": {"type": "DT_FLOAT"}}}, {"name": "PartitionedCall/onnx_tf_prefix_Add_135", "op": "AddV2", "input": ["unknown_36", "PartitionedCall/onnx_tf_prefix_MatMul_134"], "attr": {"T": {"type": "DT_FLOAT"}}}, {"name": "PartitionedCall/onnx_tf_prefix_Reshape_136", "op": "Reshape", "input": ["PartitionedCall/onnx_tf_prefix_Add_135", "PartitionedCall/add_6"], "attr": {"T": {"type": "DT_FLOAT"}, "Tshape": {"type": "DT_INT64"}}}, {"name": "PartitionedCall/onnx_tf_prefix_Transpose_137", "op": "Transpose", "input": ["PartitionedCall/onnx_tf_prefix_Reshape_136", "PartitionedCall/onnx_tf_prefix_Transpose_137/perm"], "attr": {"T": {"type": "DT_FLOAT"}, "Tperm": {"type": "DT_INT32"}}}, {"name": "PartitionedCall/onnx_tf_prefix_Split_138", "op": "SplitV", "input": ["PartitionedCall/onnx_tf_prefix_Transpose_137", "PartitionedCall/Const_8", "PartitionedCall/onnx_tf_prefix_Split_138/split_dim"], "attr": {"num_split": {"i": "3"}, "T": {"type": "DT_FLOAT"}, "Tlen": {"type": "DT_INT32"}}}, {"name": "PartitionedCall/onnx_tf_prefix_Squeeze_139", "op": "Squeeze", "input": ["PartitionedCall/onnx_tf_prefix_Split_138"], "attr": {"T": {"type": "DT_FLOAT"}, "squeeze_dims": {"list": {"i": ["0"]}}}}, {"name": "PartitionedCall/onnx_tf_prefix_Squeeze_140", "op": "Squeeze", "input": ["PartitionedCall/onnx_tf_prefix_Split_138:1"], "attr": {"T": {"type": "DT_FLOAT"}, "squeeze_dims": {"list": {"i": ["0"]}}}}, {"name": "PartitionedCall/onnx_tf_prefix_Squeeze_141", "op": "Squeeze", "input": ["PartitionedCall/onnx_tf_prefix_Split_138:2"], "attr": {"squeeze_dims": {"list": {"i": ["0"]}}, "T": {"type": "DT_FLOAT"}}}, {"name": "PartitionedCall/ArithmeticOptimizer/FoldTransposeIntoMatMul_onnx_tf_prefix_MatMul_143", "op": "BatchMatMulV2", "input": ["PartitionedCall/onnx_tf_prefix_Squeeze_139", "PartitionedCall/onnx_tf_prefix_Squeeze_140"], "attr": {"adj_y": {"b": true}, "T": {"type": "DT_FLOAT"}, "adj_x": {"b": false}}}, {"name": "PartitionedCall/onnx_tf_prefix_Mul_145", "op": "Mul", "input": ["PartitionedCall/ArithmeticOptimizer/FoldTransposeIntoMatMul_onnx_tf_prefix_MatMul_143", "PartitionedCall/onnx_tf_prefix_Constant_144"], "attr": {"T": {"type": "DT_FLOAT"}}}, {"name": "PartitionedCall/onnx_tf_prefix_Softmax_146", "op": "Softmax", "input": ["PartitionedCall/onnx_tf_prefix_Mul_145"], "attr": {"T": {"type": "DT_FLOAT"}}}, {"name": "PartitionedCall/onnx_tf_prefix_MatMul_147", "op": "BatchMatMulV2", "input": ["PartitionedCall/onnx_tf_prefix_Softmax_146", "PartitionedCall/onnx_tf_prefix_Squeeze_141"], "attr": {"T": {"type": "DT_FLOAT"}, "adj_y": {"b": false}, "adj_x": {"b": false}}}, {"name": "PartitionedCall/onnx_tf_prefix_Transpose_148", "op": "Transpose", "input": ["PartitionedCall/onnx_tf_prefix_MatMul_147", "PartitionedCall/onnx_tf_prefix_Transpose_148/perm"], "attr": {"T": {"type": "DT_FLOAT"}, "Tperm": {"type": "DT_INT32"}}}, {"name": "PartitionedCall/onnx_tf_prefix_Reshape_149", "op": "Reshape", "input": ["PartitionedCall/onnx_tf_prefix_Transpose_148", "PartitionedCall/add_7"], "attr": {"T": {"type": "DT_FLOAT"}, "Tshape": {"type": "DT_INT64"}}}, {"name": "PartitionedCall/onnx_tf_prefix_MatMul_150", "op": "BatchMatMulV2", "input": ["PartitionedCall/onnx_tf_prefix_Reshape_149", "unknown_39"], "attr": {"adj_y": {"b": false}, "T": {"type": "DT_FLOAT"}, "adj_x": {"b": false}}}, {"name": "PartitionedCall/onnx_tf_prefix_Add_151", "op": "AddV2", "input": ["unknown_40", "PartitionedCall/onnx_tf_prefix_MatMul_150"], "attr": {"T": {"type": "DT_FLOAT"}}}, {"name": "PartitionedCall/onnx_tf_prefix_Add_152", "op": "AddV2", "input": ["PartitionedCall/ArithmeticOptimizer/AddOpsRewrite_onnx_tf_prefix_Add_122", "PartitionedCall/onnx_tf_prefix_Add_151"], "attr": {"T": {"type": "DT_FLOAT"}}}, {"name": "PartitionedCall/onnx_tf_prefix_ReduceMean_153", "op": "Mean", "input": ["PartitionedCall/onnx_tf_prefix_Add_152", "PartitionedCall/onnx_tf_prefix_ReduceMean_153/reduction_indices"], "attr": {"T": {"type": "DT_FLOAT"}, "Tidx": {"type": "DT_INT32"}, "keep_dims": {"b": true}}}, {"name": "PartitionedCall/onnx_tf_prefix_Sub_154", "op": "Sub", "input": ["PartitionedCall/onnx_tf_prefix_Add_152", "PartitionedCall/onnx_tf_prefix_ReduceMean_153"], "attr": {"T": {"type": "DT_FLOAT"}}}, {"name": "PartitionedCall/onnx_tf_prefix_Pow_156", "op": "Square", "input": ["PartitionedCall/onnx_tf_prefix_Sub_154"], "attr": {"T": {"type": "DT_FLOAT"}}}, {"name": "PartitionedCall/onnx_tf_prefix_ReduceMean_157", "op": "Mean", "input": ["PartitionedCall/onnx_tf_prefix_Pow_156", "PartitionedCall/onnx_tf_prefix_ReduceMean_157/reduction_indices"], "attr": {"Tidx": {"type": "DT_INT32"}, "keep_dims": {"b": true}, "T": {"type": "DT_FLOAT"}}}, {"name": "PartitionedCall/onnx_tf_prefix_Add_159", "op": "AddV2", "input": ["PartitionedCall/onnx_tf_prefix_ReduceMean_157", "PartitionedCall/onnx_tf_prefix_Constant_158"], "attr": {"T": {"type": "DT_FLOAT"}}}, {"name": "PartitionedCall/onnx_tf_prefix_Sqrt_160", "op": "Rsqrt", "input": ["PartitionedCall/onnx_tf_prefix_Add_159"], "attr": {"T": {"type": "DT_FLOAT"}}}, {"name": "PartitionedCall/onnx_tf_prefix_Div_161", "op": "Mul", "input": ["unknown_41", "PartitionedCall/onnx_tf_prefix_Sqrt_160"], "attr": {"T": {"type": "DT_FLOAT"}, "_grappler_ArithmeticOptimizer_MinimizeBroadcasts": {"b": true}}}, {"name": "PartitionedCall/onnx_tf_prefix_Mul_162", "op": "Mul", "input": ["PartitionedCall/onnx_tf_prefix_Div_161", "PartitionedCall/onnx_tf_prefix_Sub_154"], "attr": {"_grappler_ArithmeticOptimizer_MinimizeBroadcasts": {"b": true}, "T": {"type": "DT_FLOAT"}}}, {"name": "PartitionedCall/onnx_tf_prefix_Add_163", "op": "AddV2", "input": ["PartitionedCall/onnx_tf_prefix_Mul_162", "unknown_42"], "attr": {"T": {"type": "DT_FLOAT"}}}, {"name": "PartitionedCall/onnx_tf_prefix_MatMul_164", "op": "BatchMatMulV2", "input": ["PartitionedCall/onnx_tf_prefix_Add_163", "unknown_43"], "attr": {"adj_x": {"b": false}, "T": {"type": "DT_FLOAT"}, "adj_y": {"b": false}}}, {"name": "PartitionedCall/onnx_tf_prefix_Add_165", "op": "AddV2", "input": ["unknown_44", "PartitionedCall/onnx_tf_prefix_MatMul_164"], "attr": {"T": {"type": "DT_FLOAT"}}}, {"name": "PartitionedCall/onnx_tf_prefix_Mul_171", "op": "Mul", "input": ["PartitionedCall/onnx_tf_prefix_Constant_172", "PartitionedCall/onnx_tf_prefix_Add_165"], "attr": {"T": {"type": "DT_FLOAT"}, "_grappler_ArithmeticOptimizer_MinimizeBroadcasts": {"b": true}}}, {"name": "PartitionedCall/onnx_tf_prefix_Div_167", "op": "Mul", "input": ["PartitionedCall/onnx_tf_prefix_Add_165", "ConstantFolding/PartitionedCall/onnx_tf_prefix_Div_167_recip"], "attr": {"T": {"type": "DT_FLOAT"}}}, {"name": "PartitionedCall/onnx_tf_prefix_Erf_168", "op": "Erf", "input": ["PartitionedCall/onnx_tf_prefix_Div_167"], "attr": {"T": {"type": "DT_FLOAT"}}}, {"name": "PartitionedCall/onnx_tf_prefix_Add_170", "op": "AddV2", "input": ["PartitionedCall/onnx_tf_prefix_Erf_168", "PartitionedCall/onnx_tf_prefix_Constant_169"], "attr": {"T": {"type": "DT_FLOAT"}}}, {"name": "PartitionedCall/onnx_tf_prefix_Mul_173", "op": "Mul", "input": ["PartitionedCall/onnx_tf_prefix_Mul_171", "PartitionedCall/onnx_tf_prefix_Add_170"], "attr": {"T": {"type": "DT_FLOAT"}, "_grappler_ArithmeticOptimizer_MinimizeBroadcasts": {"b": true}}}, {"name": "PartitionedCall/onnx_tf_prefix_MatMul_174", "op": "BatchMatMulV2", "input": ["PartitionedCall/onnx_tf_prefix_Mul_173", "unknown_45"], "attr": {"adj_x": {"b": false}, "adj_y": {"b": false}, "T": {"type": "DT_FLOAT"}}}, {"name": "PartitionedCall/ArithmeticOptimizer/AddOpsRewrite_Leaf_1_onnx_tf_prefix_Add_176", "op": "AddN", "input": ["PartitionedCall/onnx_tf_prefix_Add_152", "PartitionedCall/onnx_tf_prefix_MatMul_174"], "attr": {"T": {"type": "DT_FLOAT"}, "N": {"i": "2"}, "_grappler_ArithmeticOptimizer_AddOpsRewriteStage": {"b": true}}}, {"name": "PartitionedCall/ArithmeticOptimizer/AddOpsRewrite_onnx_tf_prefix_Add_176", "op": "AddV2", "input": ["unknown_46", "PartitionedCall/ArithmeticOptimizer/AddOpsRewrite_Leaf_1_onnx_tf_prefix_Add_176"], "attr": {"_grappler_ArithmeticOptimizer_AddOpsRewriteStage": {"b": true}, "T": {"type": "DT_FLOAT"}}}, {"name": "PartitionedCall/onnx_tf_prefix_ReduceMean_177", "op": "Mean", "input": ["PartitionedCall/ArithmeticOptimizer/AddOpsRewrite_onnx_tf_prefix_Add_176", "PartitionedCall/onnx_tf_prefix_ReduceMean_177/reduction_indices"], "attr": {"keep_dims": {"b": true}, "Tidx": {"type": "DT_INT32"}, "T": {"type": "DT_FLOAT"}}}, {"name": "PartitionedCall/onnx_tf_prefix_Sub_178", "op": "Sub", "input": ["PartitionedCall/ArithmeticOptimizer/AddOpsRewrite_onnx_tf_prefix_Add_176", "PartitionedCall/onnx_tf_prefix_ReduceMean_177"], "attr": {"T": {"type": "DT_FLOAT"}}}, {"name": "PartitionedCall/onnx_tf_prefix_Pow_180", "op": "Square", "input": ["PartitionedCall/onnx_tf_prefix_Sub_178"], "attr": {"T": {"type": "DT_FLOAT"}}}, {"name": "PartitionedCall/onnx_tf_prefix_ReduceMean_181", "op": "Mean", "input": ["PartitionedCall/onnx_tf_prefix_Pow_180", "PartitionedCall/onnx_tf_prefix_ReduceMean_181/reduction_indices"], "attr": {"T": {"type": "DT_FLOAT"}, "keep_dims": {"b": true}, "Tidx": {"type": "DT_INT32"}}}, {"name": "PartitionedCall/onnx_tf_prefix_Add_183", "op": "AddV2", "input": ["PartitionedCall/onnx_tf_prefix_ReduceMean_181", "PartitionedCall/onnx_tf_prefix_Constant_182"], "attr": {"T": {"type": "DT_FLOAT"}}}, {"name": "PartitionedCall/onnx_tf_prefix_Sqrt_184", "op": "Rsqrt", "input": ["PartitionedCall/onnx_tf_prefix_Add_183"], "attr": {"T": {"type": "DT_FLOAT"}}}, {"name": "PartitionedCall/onnx_tf_prefix_Div_185", "op": "Mul", "input": ["unknown_47", "PartitionedCall/onnx_tf_prefix_Sqrt_184"], "attr": {"T": {"type": "DT_FLOAT"}, "_grappler_ArithmeticOptimizer_MinimizeBroadcasts": {"b": true}}}, {"name": "PartitionedCall/onnx_tf_prefix_Mul_186", "op": "Mul", "input": ["PartitionedCall/onnx_tf_prefix_Div_185", "PartitionedCall/onnx_tf_prefix_Sub_178"], "attr": {"_grappler_ArithmeticOptimizer_MinimizeBroadcasts": {"b": true}, "T": {"type": "DT_FLOAT"}}}, {"name": "PartitionedCall/onnx_tf_prefix_Add_187", "op": "AddV2", "input": ["PartitionedCall/onnx_tf_prefix_Mul_186", "unknown_48"], "attr": {"T": {"type": "DT_FLOAT"}}}, {"name": "PartitionedCall/onnx_tf_prefix_MatMul_188", "op": "BatchMatMulV2", "input": ["PartitionedCall/onnx_tf_prefix_Add_187", "unknown_49"], "attr": {"adj_x": {"b": false}, "adj_y": {"b": false}, "T": {"type": "DT_FLOAT"}}}, {"name": "PartitionedCall/onnx_tf_prefix_Add_189", "op": "AddV2", "input": ["unknown_50", "PartitionedCall/onnx_tf_prefix_MatMul_188"], "attr": {"T": {"type": "DT_FLOAT"}}}, {"name": "PartitionedCall/onnx_tf_prefix_Reshape_190", "op": "Reshape", "input": ["PartitionedCall/onnx_tf_prefix_Add_189", "PartitionedCall/add_8"], "attr": {"Tshape": {"type": "DT_INT64"}, "T": {"type": "DT_FLOAT"}}}, {"name": "PartitionedCall/onnx_tf_prefix_Transpose_191", "op": "Transpose", "input": ["PartitionedCall/onnx_tf_prefix_Reshape_190", "PartitionedCall/onnx_tf_prefix_Transpose_191/perm"], "attr": {"T": {"type": "DT_FLOAT"}, "Tperm": {"type": "DT_INT32"}}}, {"name": "PartitionedCall/onnx_tf_prefix_Split_192", "op": "SplitV", "input": ["PartitionedCall/onnx_tf_prefix_Transpose_191", "PartitionedCall/Const_11", "PartitionedCall/onnx_tf_prefix_Split_192/split_dim"], "attr": {"Tlen": {"type": "DT_INT32"}, "num_split": {"i": "3"}, "T": {"type": "DT_FLOAT"}}}, {"name": "PartitionedCall/onnx_tf_prefix_Squeeze_193", "op": "Squeeze", "input": ["PartitionedCall/onnx_tf_prefix_Split_192"], "attr": {"squeeze_dims": {"list": {"i": ["0"]}}, "T": {"type": "DT_FLOAT"}}}, {"name": "PartitionedCall/onnx_tf_prefix_Squeeze_194", "op": "Squeeze", "input": ["PartitionedCall/onnx_tf_prefix_Split_192:1"], "attr": {"squeeze_dims": {"list": {"i": ["0"]}}, "T": {"type": "DT_FLOAT"}}}, {"name": "PartitionedCall/onnx_tf_prefix_Squeeze_195", "op": "Squeeze", "input": ["PartitionedCall/onnx_tf_prefix_Split_192:2"], "attr": {"squeeze_dims": {"list": {"i": ["0"]}}, "T": {"type": "DT_FLOAT"}}}, {"name": "PartitionedCall/ArithmeticOptimizer/FoldTransposeIntoMatMul_onnx_tf_prefix_MatMul_197", "op": "BatchMatMulV2", "input": ["PartitionedCall/onnx_tf_prefix_Squeeze_193", "PartitionedCall/onnx_tf_prefix_Squeeze_194"], "attr": {"adj_x": {"b": false}, "T": {"type": "DT_FLOAT"}, "adj_y": {"b": true}}}, {"name": "PartitionedCall/onnx_tf_prefix_Mul_199", "op": "Mul", "input": ["PartitionedCall/ArithmeticOptimizer/FoldTransposeIntoMatMul_onnx_tf_prefix_MatMul_197", "PartitionedCall/onnx_tf_prefix_Constant_198"], "attr": {"T": {"type": "DT_FLOAT"}}}, {"name": "PartitionedCall/onnx_tf_prefix_Softmax_200", "op": "Softmax", "input": ["PartitionedCall/onnx_tf_prefix_Mul_199"], "attr": {"T": {"type": "DT_FLOAT"}}}, {"name": "PartitionedCall/onnx_tf_prefix_MatMul_201", "op": "BatchMatMulV2", "input": ["PartitionedCall/onnx_tf_prefix_Softmax_200", "PartitionedCall/onnx_tf_prefix_Squeeze_195"], "attr": {"adj_x": {"b": false}, "T": {"type": "DT_FLOAT"}, "adj_y": {"b": false}}}, {"name": "PartitionedCall/onnx_tf_prefix_Transpose_202", "op": "Transpose", "input": ["PartitionedCall/onnx_tf_prefix_MatMul_201", "PartitionedCall/onnx_tf_prefix_Transpose_202/perm"], "attr": {"T": {"type": "DT_FLOAT"}, "Tperm": {"type": "DT_INT32"}}}, {"name": "PartitionedCall/onnx_tf_prefix_Reshape_203", "op": "Reshape", "input": ["PartitionedCall/onnx_tf_prefix_Transpose_202", "PartitionedCall/add_9"], "attr": {"Tshape": {"type": "DT_INT64"}, "T": {"type": "DT_FLOAT"}}}, {"name": "PartitionedCall/onnx_tf_prefix_MatMul_204", "op": "BatchMatMulV2", "input": ["PartitionedCall/onnx_tf_prefix_Reshape_203", "unknown_53"], "attr": {"adj_x": {"b": false}, "adj_y": {"b": false}, "T": {"type": "DT_FLOAT"}}}, {"name": "PartitionedCall/onnx_tf_prefix_Add_205", "op": "AddV2", "input": ["unknown_54", "PartitionedCall/onnx_tf_prefix_MatMul_204"], "attr": {"T": {"type": "DT_FLOAT"}}}, {"name": "PartitionedCall/onnx_tf_prefix_Add_206", "op": "AddV2", "input": ["PartitionedCall/ArithmeticOptimizer/AddOpsRewrite_onnx_tf_prefix_Add_176", "PartitionedCall/onnx_tf_prefix_Add_205"], "attr": {"T": {"type": "DT_FLOAT"}}}, {"name": "PartitionedCall/onnx_tf_prefix_ReduceMean_207", "op": "Mean", "input": ["PartitionedCall/onnx_tf_prefix_Add_206", "PartitionedCall/onnx_tf_prefix_ReduceMean_207/reduction_indices"], "attr": {"keep_dims": {"b": true}, "Tidx": {"type": "DT_INT32"}, "T": {"type": "DT_FLOAT"}}}, {"name": "PartitionedCall/onnx_tf_prefix_Sub_208", "op": "Sub", "input": ["PartitionedCall/onnx_tf_prefix_Add_206", "PartitionedCall/onnx_tf_prefix_ReduceMean_207"], "attr": {"T": {"type": "DT_FLOAT"}}}, {"name": "PartitionedCall/onnx_tf_prefix_Pow_210", "op": "Square", "input": ["PartitionedCall/onnx_tf_prefix_Sub_208"], "attr": {"T": {"type": "DT_FLOAT"}}}, {"name": "PartitionedCall/onnx_tf_prefix_ReduceMean_211", "op": "Mean", "input": ["PartitionedCall/onnx_tf_prefix_Pow_210", "PartitionedCall/onnx_tf_prefix_ReduceMean_211/reduction_indices"], "attr": {"T": {"type": "DT_FLOAT"}, "keep_dims": {"b": true}, "Tidx": {"type": "DT_INT32"}}}, {"name": "PartitionedCall/onnx_tf_prefix_Add_213", "op": "AddV2", "input": ["PartitionedCall/onnx_tf_prefix_ReduceMean_211", "PartitionedCall/onnx_tf_prefix_Constant_212"], "attr": {"T": {"type": "DT_FLOAT"}}}, {"name": "PartitionedCall/onnx_tf_prefix_Sqrt_214", "op": "Rsqrt", "input": ["PartitionedCall/onnx_tf_prefix_Add_213"], "attr": {"T": {"type": "DT_FLOAT"}}}, {"name": "PartitionedCall/onnx_tf_prefix_Div_215", "op": "Mul", "input": ["unknown_55", "PartitionedCall/onnx_tf_prefix_Sqrt_214"], "attr": {"_grappler_ArithmeticOptimizer_MinimizeBroadcasts": {"b": true}, "T": {"type": "DT_FLOAT"}}}, {"name": "PartitionedCall/onnx_tf_prefix_Mul_216", "op": "Mul", "input": ["PartitionedCall/onnx_tf_prefix_Div_215", "PartitionedCall/onnx_tf_prefix_Sub_208"], "attr": {"T": {"type": "DT_FLOAT"}, "_grappler_ArithmeticOptimizer_MinimizeBroadcasts": {"b": true}}}, {"name": "PartitionedCall/onnx_tf_prefix_Add_217", "op": "AddV2", "input": ["PartitionedCall/onnx_tf_prefix_Mul_216", "unknown_56"], "attr": {"T": {"type": "DT_FLOAT"}}}, {"name": "PartitionedCall/onnx_tf_prefix_MatMul_218", "op": "BatchMatMulV2", "input": ["PartitionedCall/onnx_tf_prefix_Add_217", "unknown_57"], "attr": {"T": {"type": "DT_FLOAT"}, "adj_y": {"b": false}, "adj_x": {"b": false}}}, {"name": "PartitionedCall/onnx_tf_prefix_Add_219", "op": "AddV2", "input": ["unknown_58", "PartitionedCall/onnx_tf_prefix_MatMul_218"], "attr": {"T": {"type": "DT_FLOAT"}}}, {"name": "PartitionedCall/onnx_tf_prefix_Mul_225", "op": "Mul", "input": ["PartitionedCall/onnx_tf_prefix_Constant_226", "PartitionedCall/onnx_tf_prefix_Add_219"], "attr": {"_grappler_ArithmeticOptimizer_MinimizeBroadcasts": {"b": true}, "T": {"type": "DT_FLOAT"}}}, {"name": "PartitionedCall/onnx_tf_prefix_Div_221", "op": "Mul", "input": ["PartitionedCall/onnx_tf_prefix_Add_219", "ConstantFolding/PartitionedCall/onnx_tf_prefix_Div_221_recip"], "attr": {"T": {"type": "DT_FLOAT"}}}, {"name": "PartitionedCall/onnx_tf_prefix_Erf_222", "op": "Erf", "input": ["PartitionedCall/onnx_tf_prefix_Div_221"], "attr": {"T": {"type": "DT_FLOAT"}}}, {"name": "PartitionedCall/onnx_tf_prefix_Add_224", "op": "AddV2", "input": ["PartitionedCall/onnx_tf_prefix_Erf_222", "PartitionedCall/onnx_tf_prefix_Constant_223"], "attr": {"T": {"type": "DT_FLOAT"}}}, {"name": "PartitionedCall/onnx_tf_prefix_Mul_227", "op": "Mul", "input": ["PartitionedCall/onnx_tf_prefix_Mul_225", "PartitionedCall/onnx_tf_prefix_Add_224"], "attr": {"_grappler_ArithmeticOptimizer_MinimizeBroadcasts": {"b": true}, "T": {"type": "DT_FLOAT"}}}, {"name": "PartitionedCall/onnx_tf_prefix_MatMul_228", "op": "BatchMatMulV2", "input": ["PartitionedCall/onnx_tf_prefix_Mul_227", "unknown_59"], "attr": {"adj_y": {"b": false}, "adj_x": {"b": false}, "T": {"type": "DT_FLOAT"}}}, {"name": "PartitionedCall/ArithmeticOptimizer/AddOpsRewrite_Leaf_1_onnx_tf_prefix_Add_230", "op": "AddN", "input": ["PartitionedCall/onnx_tf_prefix_Add_206", "PartitionedCall/onnx_tf_prefix_MatMul_228"], "attr": {"T": {"type": "DT_FLOAT"}, "N": {"i": "2"}, "_grappler_ArithmeticOptimizer_AddOpsRewriteStage": {"b": true}}}, {"name": "PartitionedCall/ArithmeticOptimizer/AddOpsRewrite_onnx_tf_prefix_Add_230", "op": "AddV2", "input": ["unknown_60", "PartitionedCall/ArithmeticOptimizer/AddOpsRewrite_Leaf_1_onnx_tf_prefix_Add_230"], "attr": {"_grappler_ArithmeticOptimizer_AddOpsRewriteStage": {"b": true}, "T": {"type": "DT_FLOAT"}}}, {"name": "PartitionedCall/onnx_tf_prefix_ReduceMean_231", "op": "Mean", "input": ["PartitionedCall/ArithmeticOptimizer/AddOpsRewrite_onnx_tf_prefix_Add_230", "PartitionedCall/onnx_tf_prefix_ReduceMean_231/reduction_indices"], "attr": {"Tidx": {"type": "DT_INT32"}, "keep_dims": {"b": true}, "T": {"type": "DT_FLOAT"}}}, {"name": "PartitionedCall/onnx_tf_prefix_Sub_232", "op": "Sub", "input": ["PartitionedCall/ArithmeticOptimizer/AddOpsRewrite_onnx_tf_prefix_Add_230", "PartitionedCall/onnx_tf_prefix_ReduceMean_231"], "attr": {"T": {"type": "DT_FLOAT"}}}, {"name": "PartitionedCall/onnx_tf_prefix_Pow_234", "op": "Square", "input": ["PartitionedCall/onnx_tf_prefix_Sub_232"], "attr": {"T": {"type": "DT_FLOAT"}}}, {"name": "PartitionedCall/onnx_tf_prefix_ReduceMean_235", "op": "Mean", "input": ["PartitionedCall/onnx_tf_prefix_Pow_234", "PartitionedCall/onnx_tf_prefix_ReduceMean_235/reduction_indices"], "attr": {"Tidx": {"type": "DT_INT32"}, "T": {"type": "DT_FLOAT"}, "keep_dims": {"b": true}}}, {"name": "PartitionedCall/onnx_tf_prefix_Add_237", "op": "AddV2", "input": ["PartitionedCall/onnx_tf_prefix_ReduceMean_235", "PartitionedCall/onnx_tf_prefix_Constant_236"], "attr": {"T": {"type": "DT_FLOAT"}}}, {"name": "PartitionedCall/onnx_tf_prefix_Sqrt_238", "op": "Rsqrt", "input": ["PartitionedCall/onnx_tf_prefix_Add_237"], "attr": {"T": {"type": "DT_FLOAT"}}}, {"name": "PartitionedCall/onnx_tf_prefix_Div_239", "op": "Mul", "input": ["unknown_61", "PartitionedCall/onnx_tf_prefix_Sqrt_238"], "attr": {"T": {"type": "DT_FLOAT"}, "_grappler_ArithmeticOptimizer_MinimizeBroadcasts": {"b": true}}}, {"name": "PartitionedCall/onnx_tf_prefix_Mul_240", "op": "Mul", "input": ["PartitionedCall/onnx_tf_prefix_Div_239", "PartitionedCall/onnx_tf_prefix_Sub_232"], "attr": {"T": {"type": "DT_FLOAT"}, "_grappler_ArithmeticOptimizer_MinimizeBroadcasts": {"b": true}}}, {"name": "PartitionedCall/onnx_tf_prefix_Add_241", "op": "AddV2", "input": ["PartitionedCall/onnx_tf_prefix_Mul_240", "unknown_62"], "attr": {"T": {"type": "DT_FLOAT"}}}, {"name": "PartitionedCall/onnx_tf_prefix_MatMul_242", "op": "BatchMatMulV2", "input": ["PartitionedCall/onnx_tf_prefix_Add_241", "unknown_63"], "attr": {"adj_x": {"b": false}, "adj_y": {"b": false}, "T": {"type": "DT_FLOAT"}}}, {"name": "PartitionedCall/onnx_tf_prefix_Add_243", "op": "AddV2", "input": ["unknown_64", "PartitionedCall/onnx_tf_prefix_MatMul_242"], "attr": {"T": {"type": "DT_FLOAT"}}}, {"name": "PartitionedCall/onnx_tf_prefix_Reshape_244", "op": "Reshape", "input": ["PartitionedCall/onnx_tf_prefix_Add_243", "PartitionedCall/add_10"], "attr": {"T": {"type": "DT_FLOAT"}, "Tshape": {"type": "DT_INT64"}}}, {"name": "PartitionedCall/onnx_tf_prefix_Transpose_245", "op": "Transpose", "input": ["PartitionedCall/onnx_tf_prefix_Reshape_244", "PartitionedCall/onnx_tf_prefix_Transpose_245/perm"], "attr": {"T": {"type": "DT_FLOAT"}, "Tperm": {"type": "DT_INT32"}}}, {"name": "PartitionedCall/onnx_tf_prefix_Split_246", "op": "SplitV", "input": ["PartitionedCall/onnx_tf_prefix_Transpose_245", "PartitionedCall/Const_14", "PartitionedCall/onnx_tf_prefix_Split_246/split_dim"], "attr": {"Tlen": {"type": "DT_INT32"}, "T": {"type": "DT_FLOAT"}, "num_split": {"i": "3"}}}, {"name": "PartitionedCall/onnx_tf_prefix_Squeeze_247", "op": "Squeeze", "input": ["PartitionedCall/onnx_tf_prefix_Split_246"], "attr": {"squeeze_dims": {"list": {"i": ["0"]}}, "T": {"type": "DT_FLOAT"}}}, {"name": "PartitionedCall/onnx_tf_prefix_Squeeze_248", "op": "Squeeze", "input": ["PartitionedCall/onnx_tf_prefix_Split_246:1"], "attr": {"T": {"type": "DT_FLOAT"}, "squeeze_dims": {"list": {"i": ["0"]}}}}, {"name": "PartitionedCall/onnx_tf_prefix_Squeeze_249", "op": "Squeeze", "input": ["PartitionedCall/onnx_tf_prefix_Split_246:2"], "attr": {"T": {"type": "DT_FLOAT"}, "squeeze_dims": {"list": {"i": ["0"]}}}}, {"name": "PartitionedCall/ArithmeticOptimizer/FoldTransposeIntoMatMul_onnx_tf_prefix_MatMul_251", "op": "BatchMatMulV2", "input": ["PartitionedCall/onnx_tf_prefix_Squeeze_247", "PartitionedCall/onnx_tf_prefix_Squeeze_248"], "attr": {"adj_x": {"b": false}, "adj_y": {"b": true}, "T": {"type": "DT_FLOAT"}}}, {"name": "PartitionedCall/onnx_tf_prefix_Mul_253", "op": "Mul", "input": ["PartitionedCall/ArithmeticOptimizer/FoldTransposeIntoMatMul_onnx_tf_prefix_MatMul_251", "PartitionedCall/onnx_tf_prefix_Constant_252"], "attr": {"T": {"type": "DT_FLOAT"}}}, {"name": "PartitionedCall/onnx_tf_prefix_Softmax_254", "op": "Softmax", "input": ["PartitionedCall/onnx_tf_prefix_Mul_253"], "attr": {"T": {"type": "DT_FLOAT"}}}, {"name": "PartitionedCall/onnx_tf_prefix_MatMul_255", "op": "BatchMatMulV2", "input": ["PartitionedCall/onnx_tf_prefix_Softmax_254", "PartitionedCall/onnx_tf_prefix_Squeeze_249"], "attr": {"adj_x": {"b": false}, "adj_y": {"b": false}, "T": {"type": "DT_FLOAT"}}}, {"name": "PartitionedCall/onnx_tf_prefix_Transpose_256", "op": "Transpose", "input": ["PartitionedCall/onnx_tf_prefix_MatMul_255", "PartitionedCall/onnx_tf_prefix_Transpose_256/perm"], "attr": {"T": {"type": "DT_FLOAT"}, "Tperm": {"type": "DT_INT32"}}}, {"name": "PartitionedCall/onnx_tf_prefix_Reshape_257", "op": "Reshape", "input": ["PartitionedCall/onnx_tf_prefix_Transpose_256", "PartitionedCall/add_11"], "attr": {"Tshape": {"type": "DT_INT64"}, "T": {"type": "DT_FLOAT"}}}, {"name": "PartitionedCall/onnx_tf_prefix_MatMul_258", "op": "BatchMatMulV2", "input": ["PartitionedCall/onnx_tf_prefix_Reshape_257", "unknown_67"], "attr": {"adj_y": {"b": false}, "adj_x": {"b": false}, "T": {"type": "DT_FLOAT"}}}, {"name": "PartitionedCall/onnx_tf_prefix_Add_259", "op": "AddV2", "input": ["unknown_68", "PartitionedCall/onnx_tf_prefix_MatMul_258"], "attr": {"T": {"type": "DT_FLOAT"}}}, {"name": "PartitionedCall/onnx_tf_prefix_Add_260", "op": "AddV2", "input": ["PartitionedCall/ArithmeticOptimizer/AddOpsRewrite_onnx_tf_prefix_Add_230", "PartitionedCall/onnx_tf_prefix_Add_259"], "attr": {"T": {"type": "DT_FLOAT"}}}, {"name": "PartitionedCall/onnx_tf_prefix_ReduceMean_261", "op": "Mean", "input": ["PartitionedCall/onnx_tf_prefix_Add_260", "PartitionedCall/onnx_tf_prefix_ReduceMean_261/reduction_indices"], "attr": {"T": {"type": "DT_FLOAT"}, "Tidx": {"type": "DT_INT32"}, "keep_dims": {"b": true}}}, {"name": "PartitionedCall/onnx_tf_prefix_Sub_262", "op": "Sub", "input": ["PartitionedCall/onnx_tf_prefix_Add_260", "PartitionedCall/onnx_tf_prefix_ReduceMean_261"], "attr": {"T": {"type": "DT_FLOAT"}}}, {"name": "PartitionedCall/onnx_tf_prefix_Pow_264", "op": "Square", "input": ["PartitionedCall/onnx_tf_prefix_Sub_262"], "attr": {"T": {"type": "DT_FLOAT"}}}, {"name": "PartitionedCall/onnx_tf_prefix_ReduceMean_265", "op": "Mean", "input": ["PartitionedCall/onnx_tf_prefix_Pow_264", "PartitionedCall/onnx_tf_prefix_ReduceMean_265/reduction_indices"], "attr": {"Tidx": {"type": "DT_INT32"}, "keep_dims": {"b": true}, "T": {"type": "DT_FLOAT"}}}, {"name": "PartitionedCall/onnx_tf_prefix_Add_267", "op": "AddV2", "input": ["PartitionedCall/onnx_tf_prefix_ReduceMean_265", "PartitionedCall/onnx_tf_prefix_Constant_266"], "attr": {"T": {"type": "DT_FLOAT"}}}, {"name": "PartitionedCall/onnx_tf_prefix_Sqrt_268", "op": "Rsqrt", "input": ["PartitionedCall/onnx_tf_prefix_Add_267"], "attr": {"T": {"type": "DT_FLOAT"}}}, {"name": "PartitionedCall/onnx_tf_prefix_Div_269", "op": "Mul", "input": ["unknown_69", "PartitionedCall/onnx_tf_prefix_Sqrt_268"], "attr": {"T": {"type": "DT_FLOAT"}, "_grappler_ArithmeticOptimizer_MinimizeBroadcasts": {"b": true}}}, {"name": "PartitionedCall/onnx_tf_prefix_Mul_270", "op": "Mul", "input": ["PartitionedCall/onnx_tf_prefix_Div_269", "PartitionedCall/onnx_tf_prefix_Sub_262"], "attr": {"T": {"type": "DT_FLOAT"}, "_grappler_ArithmeticOptimizer_MinimizeBroadcasts": {"b": true}}}, {"name": "PartitionedCall/onnx_tf_prefix_Add_271", "op": "AddV2", "input": ["PartitionedCall/onnx_tf_prefix_Mul_270", "unknown_70"], "attr": {"T": {"type": "DT_FLOAT"}}}, {"name": "PartitionedCall/onnx_tf_prefix_MatMul_272", "op": "BatchMatMulV2", "input": ["PartitionedCall/onnx_tf_prefix_Add_271", "unknown_71"], "attr": {"T": {"type": "DT_FLOAT"}, "adj_x": {"b": false}, "adj_y": {"b": false}}}, {"name": "PartitionedCall/onnx_tf_prefix_Add_273", "op": "AddV2", "input": ["unknown_72", "PartitionedCall/onnx_tf_prefix_MatMul_272"], "attr": {"T": {"type": "DT_FLOAT"}}}, {"name": "PartitionedCall/onnx_tf_prefix_Mul_279", "op": "Mul", "input": ["PartitionedCall/onnx_tf_prefix_Constant_280", "PartitionedCall/onnx_tf_prefix_Add_273"], "attr": {"T": {"type": "DT_FLOAT"}, "_grappler_ArithmeticOptimizer_MinimizeBroadcasts": {"b": true}}}, {"name": "PartitionedCall/onnx_tf_prefix_Div_275", "op": "Mul", "input": ["PartitionedCall/onnx_tf_prefix_Add_273", "ConstantFolding/PartitionedCall/onnx_tf_prefix_Div_275_recip"], "attr": {"T": {"type": "DT_FLOAT"}}}, {"name": "PartitionedCall/onnx_tf_prefix_Erf_276", "op": "Erf", "input": ["PartitionedCall/onnx_tf_prefix_Div_275"], "attr": {"T": {"type": "DT_FLOAT"}}}, {"name": "PartitionedCall/onnx_tf_prefix_Add_278", "op": "AddV2", "input": ["PartitionedCall/onnx_tf_prefix_Erf_276", "PartitionedCall/onnx_tf_prefix_Constant_277"], "attr": {"T": {"type": "DT_FLOAT"}}}, {"name": "PartitionedCall/onnx_tf_prefix_Mul_281", "op": "Mul", "input": ["PartitionedCall/onnx_tf_prefix_Mul_279", "PartitionedCall/onnx_tf_prefix_Add_278"], "attr": {"_grappler_ArithmeticOptimizer_MinimizeBroadcasts": {"b": true}, "T": {"type": "DT_FLOAT"}}}, {"name": "PartitionedCall/onnx_tf_prefix_MatMul_282", "op": "BatchMatMulV2", "input": ["PartitionedCall/onnx_tf_prefix_Mul_281", "unknown_73"], "attr": {"adj_y": {"b": false}, "adj_x": {"b": false}, "T": {"type": "DT_FLOAT"}}}, {"name": "PartitionedCall/ArithmeticOptimizer/AddOpsRewrite_Leaf_1_onnx_tf_prefix_Add_284", "op": "AddN", "input": ["PartitionedCall/onnx_tf_prefix_Add_260", "PartitionedCall/onnx_tf_prefix_MatMul_282"], "attr": {"N": {"i": "2"}, "_grappler_ArithmeticOptimizer_AddOpsRewriteStage": {"b": true}, "T": {"type": "DT_FLOAT"}}}, {"name": "PartitionedCall/ArithmeticOptimizer/AddOpsRewrite_onnx_tf_prefix_Add_284", "op": "AddV2", "input": ["unknown_74", "PartitionedCall/ArithmeticOptimizer/AddOpsRewrite_Leaf_1_onnx_tf_prefix_Add_284"], "attr": {"T": {"type": "DT_FLOAT"}, "_grappler_ArithmeticOptimizer_AddOpsRewriteStage": {"b": true}}}, {"name": "PartitionedCall/onnx_tf_prefix_ReduceMean_285", "op": "Mean", "input": ["PartitionedCall/ArithmeticOptimizer/AddOpsRewrite_onnx_tf_prefix_Add_284", "PartitionedCall/onnx_tf_prefix_ReduceMean_285/reduction_indices"], "attr": {"keep_dims": {"b": true}, "Tidx": {"type": "DT_INT32"}, "T": {"type": "DT_FLOAT"}}}, {"name": "PartitionedCall/onnx_tf_prefix_Sub_286", "op": "Sub", "input": ["PartitionedCall/ArithmeticOptimizer/AddOpsRewrite_onnx_tf_prefix_Add_284", "PartitionedCall/onnx_tf_prefix_ReduceMean_285"], "attr": {"T": {"type": "DT_FLOAT"}}}, {"name": "PartitionedCall/onnx_tf_prefix_Pow_288", "op": "Square", "input": ["PartitionedCall/onnx_tf_prefix_Sub_286"], "attr": {"T": {"type": "DT_FLOAT"}}}, {"name": "PartitionedCall/onnx_tf_prefix_ReduceMean_289", "op": "Mean", "input": ["PartitionedCall/onnx_tf_prefix_Pow_288", "PartitionedCall/onnx_tf_prefix_ReduceMean_289/reduction_indices"], "attr": {"Tidx": {"type": "DT_INT32"}, "keep_dims": {"b": true}, "T": {"type": "DT_FLOAT"}}}, {"name": "PartitionedCall/onnx_tf_prefix_Add_291", "op": "AddV2", "input": ["PartitionedCall/onnx_tf_prefix_ReduceMean_289", "PartitionedCall/onnx_tf_prefix_Constant_290"], "attr": {"T": {"type": "DT_FLOAT"}}}, {"name": "PartitionedCall/onnx_tf_prefix_Sqrt_292", "op": "Rsqrt", "input": ["PartitionedCall/onnx_tf_prefix_Add_291"], "attr": {"T": {"type": "DT_FLOAT"}}}, {"name": "PartitionedCall/onnx_tf_prefix_Div_293", "op": "Mul", "input": ["unknown_75", "PartitionedCall/onnx_tf_prefix_Sqrt_292"], "attr": {"T": {"type": "DT_FLOAT"}, "_grappler_ArithmeticOptimizer_MinimizeBroadcasts": {"b": true}}}, {"name": "PartitionedCall/onnx_tf_prefix_Mul_294", "op": "Mul", "input": ["PartitionedCall/onnx_tf_prefix_Div_293", "PartitionedCall/onnx_tf_prefix_Sub_286"], "attr": {"T": {"type": "DT_FLOAT"}, "_grappler_ArithmeticOptimizer_MinimizeBroadcasts": {"b": true}}}, {"name": "PartitionedCall/onnx_tf_prefix_Add_295", "op": "AddV2", "input": ["PartitionedCall/onnx_tf_prefix_Mul_294", "unknown_76"], "attr": {"T": {"type": "DT_FLOAT"}}}, {"name": "PartitionedCall/onnx_tf_prefix_MatMul_296", "op": "BatchMatMulV2", "input": ["PartitionedCall/onnx_tf_prefix_Add_295", "unknown_77"], "attr": {"adj_y": {"b": false}, "adj_x": {"b": false}, "T": {"type": "DT_FLOAT"}}}, {"name": "PartitionedCall/onnx_tf_prefix_Add_297", "op": "AddV2", "input": ["unknown_78", "PartitionedCall/onnx_tf_prefix_MatMul_296"], "attr": {"T": {"type": "DT_FLOAT"}}}, {"name": "PartitionedCall/onnx_tf_prefix_Reshape_298", "op": "Reshape", "input": ["PartitionedCall/onnx_tf_prefix_Add_297", "PartitionedCall/add_12"], "attr": {"T": {"type": "DT_FLOAT"}, "Tshape": {"type": "DT_INT64"}}}, {"name": "PartitionedCall/onnx_tf_prefix_Transpose_299", "op": "Transpose", "input": ["PartitionedCall/onnx_tf_prefix_Reshape_298", "PartitionedCall/onnx_tf_prefix_Transpose_299/perm"], "attr": {"Tperm": {"type": "DT_INT32"}, "T": {"type": "DT_FLOAT"}}}, {"name": "PartitionedCall/onnx_tf_prefix_Split_300", "op": "SplitV", "input": ["PartitionedCall/onnx_tf_prefix_Transpose_299", "PartitionedCall/Const_17", "PartitionedCall/onnx_tf_prefix_Split_300/split_dim"], "attr": {"T": {"type": "DT_FLOAT"}, "Tlen": {"type": "DT_INT32"}, "num_split": {"i": "3"}}}, {"name": "PartitionedCall/onnx_tf_prefix_Squeeze_301", "op": "Squeeze", "input": ["PartitionedCall/onnx_tf_prefix_Split_300"], "attr": {"T": {"type": "DT_FLOAT"}, "squeeze_dims": {"list": {"i": ["0"]}}}}, {"name": "PartitionedCall/onnx_tf_prefix_Squeeze_302", "op": "Squeeze", "input": ["PartitionedCall/onnx_tf_prefix_Split_300:1"], "attr": {"squeeze_dims": {"list": {"i": ["0"]}}, "T": {"type": "DT_FLOAT"}}}, {"name": "PartitionedCall/onnx_tf_prefix_Squeeze_303", "op": "Squeeze", "input": ["PartitionedCall/onnx_tf_prefix_Split_300:2"], "attr": {"T": {"type": "DT_FLOAT"}, "squeeze_dims": {"list": {"i": ["0"]}}}}, {"name": "PartitionedCall/ArithmeticOptimizer/FoldTransposeIntoMatMul_onnx_tf_prefix_MatMul_305", "op": "BatchMatMulV2", "input": ["PartitionedCall/onnx_tf_prefix_Squeeze_301", "PartitionedCall/onnx_tf_prefix_Squeeze_302"], "attr": {"adj_y": {"b": true}, "adj_x": {"b": false}, "T": {"type": "DT_FLOAT"}}}, {"name": "PartitionedCall/onnx_tf_prefix_Mul_307", "op": "Mul", "input": ["PartitionedCall/ArithmeticOptimizer/FoldTranspo…
rite_onnx_tf_prefix_Add_608", "PartitionedCall/onnx_tf_prefix_ReduceMean_609"], "attr": {"T": {"type": "DT_FLOAT"}}}, {"name": "PartitionedCall/onnx_tf_prefix_Pow_612", "op": "Square", "input": ["PartitionedCall/onnx_tf_prefix_Sub_610"], "attr": {"T": {"type": "DT_FLOAT"}}}, {"name": "PartitionedCall/onnx_tf_prefix_ReduceMean_613", "op": "Mean", "input": ["PartitionedCall/onnx_tf_prefix_Pow_612", "PartitionedCall/onnx_tf_prefix_ReduceMean_613/reduction_indices"], "attr": {"Tidx": {"type": "DT_INT32"}, "T": {"type": "DT_FLOAT"}, "keep_dims": {"b": true}}}, {"name": "PartitionedCall/onnx_tf_prefix_Add_615", "op": "AddV2", "input": ["PartitionedCall/onnx_tf_prefix_ReduceMean_613", "PartitionedCall/onnx_tf_prefix_Constant_614"], "attr": {"T": {"type": "DT_FLOAT"}}}, {"name": "PartitionedCall/onnx_tf_prefix_Sqrt_616", "op": "Rsqrt", "input": ["PartitionedCall/onnx_tf_prefix_Add_615"], "attr": {"T": {"type": "DT_FLOAT"}}}, {"name": "PartitionedCall/onnx_tf_prefix_Div_617", "op": "Mul", "input": ["unknown_159", "PartitionedCall/onnx_tf_prefix_Sqrt_616"], "attr": {"_grappler_ArithmeticOptimizer_MinimizeBroadcasts": {"b": true}, "T": {"type": "DT_FLOAT"}}}, {"name": "PartitionedCall/onnx_tf_prefix_Mul_618", "op": "Mul", "input": ["PartitionedCall/onnx_tf_prefix_Div_617", "PartitionedCall/onnx_tf_prefix_Sub_610"], "attr": {"_grappler_ArithmeticOptimizer_MinimizeBroadcasts": {"b": true}, "T": {"type": "DT_FLOAT"}}}, {"name": "PartitionedCall/onnx_tf_prefix_Add_619", "op": "AddV2", "input": ["PartitionedCall/onnx_tf_prefix_Mul_618", "unknown_160"], "attr": {"T": {"type": "DT_FLOAT"}}}, {"name": "PartitionedCall/onnx_tf_prefix_MatMul_620", "op": "BatchMatMulV2", "input": ["PartitionedCall/onnx_tf_prefix_Add_619", "unknown_161"], "attr": {"adj_x": {"b": false}, "T": {"type": "DT_FLOAT"}, "adj_y": {"b": false}}}, {"name": "PartitionedCall/onnx_tf_prefix_Add_621", "op": "AddV2", "input": ["unknown_162", "PartitionedCall/onnx_tf_prefix_MatMul_620"], "attr": {"T": {"type": "DT_FLOAT"}}}, {"name": "PartitionedCall/onnx_tf_prefix_Reshape_622", "op": "Reshape", "input": ["PartitionedCall/onnx_tf_prefix_Add_621", "PartitionedCall/add_24"], "attr": {"Tshape": {"type": "DT_INT64"}, "T": {"type": "DT_FLOAT"}}}, {"name": "PartitionedCall/onnx_tf_prefix_Transpose_623", "op": "Transpose", "input": ["PartitionedCall/onnx_tf_prefix_Reshape_622", "PartitionedCall/onnx_tf_prefix_Transpose_623/perm"], "attr": {"T": {"type": "DT_FLOAT"}, "Tperm": {"type": "DT_INT32"}}}, {"name": "PartitionedCall/onnx_tf_prefix_Split_624", "op": "SplitV", "input": ["PartitionedCall/onnx_tf_prefix_Transpose_623", "PartitionedCall/Const_35", "PartitionedCall/onnx_tf_prefix_Split_624/split_dim"], "attr": {"T": {"type": "DT_FLOAT"}, "Tlen": {"type": "DT_INT32"}, "num_split": {"i": "3"}}}, {"name": "PartitionedCall/onnx_tf_prefix_Squeeze_625", "op": "Squeeze", "input": ["PartitionedCall/onnx_tf_prefix_Split_624"], "attr": {"squeeze_dims": {"list": {"i": ["0"]}}, "T": {"type": "DT_FLOAT"}}}, {"name": "PartitionedCall/onnx_tf_prefix_Squeeze_626", "op": "Squeeze", "input": ["PartitionedCall/onnx_tf_prefix_Split_624:1"], "attr": {"squeeze_dims": {"list": {"i": ["0"]}}, "T": {"type": "DT_FLOAT"}}}, {"name": "PartitionedCall/onnx_tf_prefix_Squeeze_627", "op": "Squeeze", "input": ["PartitionedCall/onnx_tf_prefix_Split_624:2"], "attr": {"T": {"type": "DT_FLOAT"}, "squeeze_dims": {"list": {"i": ["0"]}}}}, {"name": "PartitionedCall/ArithmeticOptimizer/FoldTransposeIntoMatMul_onnx_tf_prefix_MatMul_629", "op": "BatchMatMulV2", "input": ["PartitionedCall/onnx_tf_prefix_Squeeze_625", "PartitionedCall/onnx_tf_prefix_Squeeze_626"], "attr": {"adj_x": {"b": false}, "adj_y": {"b": true}, "T": {"type": "DT_FLOAT"}}}, {"name": "PartitionedCall/onnx_tf_prefix_Mul_631", "op": "Mul", "input": ["PartitionedCall/ArithmeticOptimizer/FoldTransposeIntoMatMul_onnx_tf_prefix_MatMul_629", "PartitionedCall/onnx_tf_prefix_Constant_630"], "attr": {"T": {"type": "DT_FLOAT"}}}, {"name": "PartitionedCall/onnx_tf_prefix_Softmax_632", "op": "Softmax", "input": ["PartitionedCall/onnx_tf_prefix_Mul_631"], "attr": {"T": {"type": "DT_FLOAT"}}}, {"name": "PartitionedCall/onnx_tf_prefix_MatMul_633", "op": "BatchMatMulV2", "input": ["PartitionedCall/onnx_tf_prefix_Softmax_632", "PartitionedCall/onnx_tf_prefix_Squeeze_627"], "attr": {"adj_x": {"b": false}, "adj_y": {"b": false}, "T": {"type": "DT_FLOAT"}}}, {"name": "PartitionedCall/onnx_tf_prefix_Transpose_634", "op": "Transpose", "input": ["PartitionedCall/onnx_tf_prefix_MatMul_633", "PartitionedCall/onnx_tf_prefix_Transpose_634/perm"], "attr": {"T": {"type": "DT_FLOAT"}, "Tperm": {"type": "DT_INT32"}}}, {"name": "PartitionedCall/onnx_tf_prefix_Reshape_635", "op": "Reshape", "input": ["PartitionedCall/onnx_tf_prefix_Transpose_634", "PartitionedCall/add_25"], "attr": {"Tshape": {"type": "DT_INT64"}, "T": {"type": "DT_FLOAT"}}}, {"name": "PartitionedCall/onnx_tf_prefix_MatMul_636", "op": "BatchMatMulV2", "input": ["PartitionedCall/onnx_tf_prefix_Reshape_635", "unknown_165"], "attr": {"adj_x": {"b": false}, "T": {"type": "DT_FLOAT"}, "adj_y": {"b": false}}}, {"name": "PartitionedCall/onnx_tf_prefix_Add_637", "op": "AddV2", "input": ["unknown_166", "PartitionedCall/onnx_tf_prefix_MatMul_636"], "attr": {"T": {"type": "DT_FLOAT"}}}, {"name": "PartitionedCall/onnx_tf_prefix_Add_638", "op": "AddV2", "input": ["PartitionedCall/ArithmeticOptimizer/AddOpsRewrite_onnx_tf_prefix_Add_608", "PartitionedCall/onnx_tf_prefix_Add_637"], "attr": {"T": {"type": "DT_FLOAT"}}}, {"name": "PartitionedCall/onnx_tf_prefix_ReduceMean_639", "op": "Mean", "input": ["PartitionedCall/onnx_tf_prefix_Add_638", "PartitionedCall/onnx_tf_prefix_ReduceMean_639/reduction_indices"], "attr": {"Tidx": {"type": "DT_INT32"}, "T": {"type": "DT_FLOAT"}, "keep_dims": {"b": true}}}, {"name": "PartitionedCall/onnx_tf_prefix_Sub_640", "op": "Sub", "input": ["PartitionedCall/onnx_tf_prefix_Add_638", "PartitionedCall/onnx_tf_prefix_ReduceMean_639"], "attr": {"T": {"type": "DT_FLOAT"}}}, {"name": "PartitionedCall/onnx_tf_prefix_Pow_642", "op": "Square", "input": ["PartitionedCall/onnx_tf_prefix_Sub_640"], "attr": {"T": {"type": "DT_FLOAT"}}}, {"name": "PartitionedCall/onnx_tf_prefix_ReduceMean_643", "op": "Mean", "input": ["PartitionedCall/onnx_tf_prefix_Pow_642", "PartitionedCall/onnx_tf_prefix_ReduceMean_643/reduction_indices"], "attr": {"T": {"type": "DT_FLOAT"}, "keep_dims": {"b": true}, "Tidx": {"type": "DT_INT32"}}}, {"name": "PartitionedCall/onnx_tf_prefix_Add_645", "op": "AddV2", "input": ["PartitionedCall/onnx_tf_prefix_ReduceMean_643", "PartitionedCall/onnx_tf_prefix_Constant_644"], "attr": {"T": {"type": "DT_FLOAT"}}}, {"name": "PartitionedCall/onnx_tf_prefix_Sqrt_646", "op": "Rsqrt", "input": ["PartitionedCall/onnx_tf_prefix_Add_645"], "attr": {"T": {"type": "DT_FLOAT"}}}, {"name": "PartitionedCall/onnx_tf_prefix_Div_647", "op": "Mul", "input": ["unknown_167", "PartitionedCall/onnx_tf_prefix_Sqrt_646"], "attr": {"_grappler_ArithmeticOptimizer_MinimizeBroadcasts": {"b": true}, "T": {"type": "DT_FLOAT"}}}, {"name": "PartitionedCall/onnx_tf_prefix_Mul_648", "op": "Mul", "input": ["PartitionedCall/onnx_tf_prefix_Div_647", "PartitionedCall/onnx_tf_prefix_Sub_640"], "attr": {"_grappler_ArithmeticOptimizer_MinimizeBroadcasts": {"b": true}, "T": {"type": "DT_FLOAT"}}}, {"name": "PartitionedCall/onnx_tf_prefix_Add_649", "op": "AddV2", "input": ["PartitionedCall/onnx_tf_prefix_Mul_648", "unknown_168"], "attr": {"T": {"type": "DT_FLOAT"}}}, {"name": "PartitionedCall/onnx_tf_prefix_MatMul_650", "op": "BatchMatMulV2", "input": ["PartitionedCall/onnx_tf_prefix_Add_649", "unknown_169"], "attr": {"adj_x": {"b": false}, "T": {"type": "DT_FLOAT"}, "adj_y": {"b": false}}}, {"name": "PartitionedCall/onnx_tf_prefix_Add_651", "op": "AddV2", "input": ["unknown_170", "PartitionedCall/onnx_tf_prefix_MatMul_650"], "attr": {"T": {"type": "DT_FLOAT"}}}, {"name": "PartitionedCall/onnx_tf_prefix_Mul_657", "op": "Mul", "input": ["PartitionedCall/onnx_tf_prefix_Constant_658", "PartitionedCall/onnx_tf_prefix_Add_651"], "attr": {"_grappler_ArithmeticOptimizer_MinimizeBroadcasts": {"b": true}, "T": {"type": "DT_FLOAT"}}}, {"name": "PartitionedCall/onnx_tf_prefix_Div_653", "op": "Mul", "input": ["PartitionedCall/onnx_tf_prefix_Add_651", "ConstantFolding/PartitionedCall/onnx_tf_prefix_Div_653_recip"], "attr": {"T": {"type": "DT_FLOAT"}}}, {"name": "PartitionedCall/onnx_tf_prefix_Erf_654", "op": "Erf", "input": ["PartitionedCall/onnx_tf_prefix_Div_653"], "attr": {"T": {"type": "DT_FLOAT"}}}, {"name": "PartitionedCall/onnx_tf_prefix_Add_656", "op": "AddV2", "input": ["PartitionedCall/onnx_tf_prefix_Erf_654", "PartitionedCall/onnx_tf_prefix_Constant_655"], "attr": {"T": {"type": "DT_FLOAT"}}}, {"name": "PartitionedCall/onnx_tf_prefix_Mul_659", "op": "Mul", "input": ["PartitionedCall/onnx_tf_prefix_Mul_657", "PartitionedCall/onnx_tf_prefix_Add_656"], "attr": {"T": {"type": "DT_FLOAT"}, "_grappler_ArithmeticOptimizer_MinimizeBroadcasts": {"b": true}}}, {"name": "PartitionedCall/onnx_tf_prefix_MatMul_660", "op": "BatchMatMulV2", "input": ["PartitionedCall/onnx_tf_prefix_Mul_659", "unknown_171"], "attr": {"T": {"type": "DT_FLOAT"}, "adj_y": {"b": false}, "adj_x": {"b": false}}}, {"name": "PartitionedCall/ArithmeticOptimizer/AddOpsRewrite_Leaf_1_onnx_tf_prefix_Add_662", "op": "AddN", "input": ["PartitionedCall/onnx_tf_prefix_Add_638", "PartitionedCall/onnx_tf_prefix_MatMul_660"], "attr": {"T": {"type": "DT_FLOAT"}, "_grappler_ArithmeticOptimizer_AddOpsRewriteStage": {"b": true}, "N": {"i": "2"}}}, {"name": "PartitionedCall/ArithmeticOptimizer/AddOpsRewrite_onnx_tf_prefix_Add_662", "op": "AddV2", "input": ["unknown_172", "PartitionedCall/ArithmeticOptimizer/AddOpsRewrite_Leaf_1_onnx_tf_prefix_Add_662"], "attr": {"_grappler_ArithmeticOptimizer_AddOpsRewriteStage": {"b": true}, "T": {"type": "DT_FLOAT"}}}, {"name": "PartitionedCall/onnx_tf_prefix_ReduceMean_663", "op": "Mean", "input": ["PartitionedCall/ArithmeticOptimizer/AddOpsRewrite_onnx_tf_prefix_Add_662", "PartitionedCall/onnx_tf_prefix_ReduceMean_663/reduction_indices"], "attr": {"T": {"type": "DT_FLOAT"}, "Tidx": {"type": "DT_INT32"}, "keep_dims": {"b": true}}}, {"name": "PartitionedCall/onnx_tf_prefix_Sub_664", "op": "Sub", "input": ["PartitionedCall/ArithmeticOptimizer/AddOpsRewrite_onnx_tf_prefix_Add_662", "PartitionedCall/onnx_tf_prefix_ReduceMean_663"], "attr": {"T": {"type": "DT_FLOAT"}}}, {"name": "PartitionedCall/onnx_tf_prefix_Pow_666", "op": "Square", "input": ["PartitionedCall/onnx_tf_prefix_Sub_664"], "attr": {"T": {"type": "DT_FLOAT"}}}, {"name": "PartitionedCall/onnx_tf_prefix_ReduceMean_667", "op": "Mean", "input": ["PartitionedCall/onnx_tf_prefix_Pow_666", "PartitionedCall/onnx_tf_prefix_ReduceMean_667/reduction_indices"], "attr": {"keep_dims": {"b": true}, "T": {"type": "DT_FLOAT"}, "Tidx": {"type": "DT_INT32"}}}, {"name": "PartitionedCall/onnx_tf_prefix_Add_669", "op": "AddV2", "input": ["PartitionedCall/onnx_tf_prefix_ReduceMean_667", "PartitionedCall/onnx_tf_prefix_Constant_668"], "attr": {"T": {"type": "DT_FLOAT"}}}, {"name": "PartitionedCall/onnx_tf_prefix_Sqrt_670", "op": "Rsqrt", "input": ["PartitionedCall/onnx_tf_prefix_Add_669"], "attr": {"T": {"type": "DT_FLOAT"}}}, {"name": "PartitionedCall/onnx_tf_prefix_Div_671", "op": "Mul", "input": ["unknown_173", "PartitionedCall/onnx_tf_prefix_Sqrt_670"], "attr": {"T": {"type": "DT_FLOAT"}, "_grappler_ArithmeticOptimizer_MinimizeBroadcasts": {"b": true}}}, {"name": "PartitionedCall/onnx_tf_prefix_Mul_672", "op": "Mul", "input": ["PartitionedCall/onnx_tf_prefix_Div_671", "PartitionedCall/onnx_tf_prefix_Sub_664"], "attr": {"T": {"type": "DT_FLOAT"}, "_grappler_ArithmeticOptimizer_MinimizeBroadcasts": {"b": true}}}, {"name": "PartitionedCall/onnx_tf_prefix_Add_673", "op": "AddV2", "input": ["PartitionedCall/onnx_tf_prefix_Mul_672", "unknown_174"], "attr": {"T": {"type": "DT_FLOAT"}}}, {"name": "PartitionedCall/onnx_tf_prefix_Gather_675", "op": "GatherV2", "input": ["PartitionedCall/onnx_tf_prefix_Add_673", "PartitionedCall/onnx_tf_prefix_Constant_674", "PartitionedCall/onnx_tf_prefix_Gather_675/axis"], "attr": {"Tindices": {"type": "DT_INT64"}, "Taxis": {"type": "DT_INT32"}, "Tparams": {"type": "DT_FLOAT"}, "batch_dims": {"i": "0"}}}, {"name": "PartitionedCall/MatMul", "op": "MatMul", "input": ["PartitionedCall/onnx_tf_prefix_Gather_675", "PartitionedCall/transpose_3"], "device": "/device:CPU:0", "attr": {"transpose_a": {"b": false}, "T": {"type": "DT_FLOAT"}, "transpose_b": {"b": false}}}, {"name": "PartitionedCall/add_26", "op": "AddV2", "input": ["PartitionedCall/MatMul", "PartitionedCall/mul_2"], "attr": {"T": {"type": "DT_FLOAT"}}}, {"name": "Identity", "op": "Identity", "input": ["PartitionedCall/add_26"], "attr": {"T": {"type": "DT_FLOAT"}}}], "library": {}, "versions": {"producer": 987}}, "weightsManifest": [{"paths": ["group1-shard1of83.bin", "group1-shard2of83.bin", "group1-shard3of83.bin", "group1-shard4of83.bin", "group1-shard5of83.bin", "group1-shard6of83.bin", "group1-shard7of83.bin", "group1-shard8of83.bin", "group1-shard9of83.bin", "group1-shard10of83.bin", "group1-shard11of83.bin", "group1-shard12of83.bin", "group1-shard13of83.bin", "group1-shard14of83.bin", "group1-shard15of83.bin", "group1-shard16of83.bin", "group1-shard17of83.bin", "group1-shard18of83.bin", "group1-shard19of83.bin", "group1-shard20of83.bin", "group1-shard21of83.bin", "group1-shard22of83.bin", "group1-shard23of83.bin", "group1-shard24of83.bin", "group1-shard25of83.bin", "group1-shard26of83.bin", "group1-shard27of83.bin", "group1-shard28of83.bin", "group1-shard29of83.bin", "group1-shard30of83.bin", "group1-shard31of83.bin", "group1-shard32of83.bin", "group1-shard33of83.bin", "group1-shard34of83.bin", "group1-shard35of83.bin", "group1-shard36of83.bin", "group1-shard37of83.bin", "group1-shard38of83.bin", "group1-shard39of83.bin", "group1-shard40of83.bin", "group1-shard41of83.bin", "group1-shard42of83.bin", "group1-shard43of83.bin", "group1-shard44of83.bin", "group1-shard45of83.bin", "group1-shard46of83.bin", "group1-shard47of83.bin", "group1-shard48of83.bin", "group1-shard49of83.bin", "group1-shard50of83.bin", "group1-shard51of83.bin", "group1-shard52of83.bin", "group1-shard53of83.bin", "group1-shard54of83.bin", "group1-shard55of83.bin", "group1-shard56of83.bin", "group1-shard57of83.bin", "group1-shard58of83.bin", "group1-shard59of83.bin", "group1-shard60of83.bin", "group1-shard61of83.bin", "group1-shard62of83.bin", "group1-shard63of83.bin", "group1-shard64of83.bin", "group1-shard65of83.bin", "group1-shard66of83.bin", "group1-shard67of83.bin", "group1-shard68of83.bin", "group1-shard69of83.bin", "group1-shard70of83.bin", "group1-shard71of83.bin", "group1-shard72of83.bin", "group1-shard73of83.bin", "group1-shard74of83.bin", "group1-shard75of83.bin", "group1-shard76of83.bin", "group1-shard77of83.bin", "group1-shard78of83.bin", "group1-shard79of83.bin", "group1-shard80of83.bin", "group1-shard81of83.bin", "group1-shard82of83.bin", "group1-shard83of83.bin"], "weights": [{"name": "unknown_173", "shape": [768], "dtype": "float32"}, {"name": "PartitionedCall/onnx_tf_prefix_ReduceMean_667/reduction_indices", "shape": [], "dtype": "int32"}, {"name": "PartitionedCall/onnx_tf_prefix_Constant_668", "shape": [], "dtype": "float32"}, {"name": "unknown_172", "shape": [768], "dtype": "float32"}, {"name": "PartitionedCall/onnx_tf_prefix_Constant_658", "shape": [], "dtype": "float32"}, {"name": "unknown_170", "shape": [3072], "dtype": "float32"}, {"name": "unknown_167", "shape": [768], "dtype": "float32"}, {"name": "PartitionedCall/onnx_tf_prefix_ReduceMean_643/reduction_indices", "shape": [], "dtype": "int32"}, {"name": "PartitionedCall/onnx_tf_prefix_Constant_644", "shape": [], "dtype": "float32"}, {"name": "unknown_166", "shape": [768], "dtype": "float32"}, {"name": "PartitionedCall/onnx_tf_prefix_Constant_630", "shape": [], "dtype": "float32"}, {"name": "unknown_162", "shape": [2304], "dtype": "float32"}, {"name": "unknown_159", "shape": [768], "dtype": "float32"}, {"name": "PartitionedCall/onnx_tf_prefix_ReduceMean_613/reduction_indices", "shape": [], "dtype": "int32"}, {"name": "PartitionedCall/onnx_tf_prefix_Constant_614", "shape": [], "dtype": "float32"}, {"name": "unknown_158", "shape": [768], "dtype": "float32"}, {"name": "PartitionedCall/onnx_tf_prefix_Constant_604", "shape": [], "dtype": "float32"}, {"name": "unknown_156", "shape": [3072], "dtype": "float32"}, {"name": "unknown_153", "shape": [768], "dtype": "float32"}, {"name": "PartitionedCall/onnx_tf_prefix_ReduceMean_589/reduction_indices", "shape": [], "dtype": "int32"}, {"name": "PartitionedCall/onnx_tf_prefix_Constant_590", "shape": [], "dtype": "float32"}, {"name": "unknown_152", "shape": [768], "dtype": "float32"}, {"name": "PartitionedCall/onnx_tf_prefix_Constant_576", "shape": [], "dtype": "float32"}, {"name": "unknown_148", "shape": [2304], "dtype": "float32"}, {"name": "unknown_145", "shape": [768], "dtype": "float32"}, {"name": "PartitionedCall/onnx_tf_prefix_ReduceMean_559/reduction_indices", "shape": [], "dtype": "int32"}, {"name": "PartitionedCall/onnx_tf_prefix_Constant_560", "shape": [], "dtype": "float32"}, {"name": "unknown_144", "shape": [768], "dtype": "float32"}, {"name": "PartitionedCall/onnx_tf_prefix_Constant_550", "shape": [], "dtype": "float32"}, {"name": "unknown_142", "shape": [3072], "dtype": "float32"}, {"name": "unknown_139", "shape": [768], "dtype": "float32"}, {"name": "PartitionedCall/onnx_tf_prefix_ReduceMean_535/reduction_indices", "shape": [], "dtype": "int32"}, {"name": "PartitionedCall/onnx_tf_prefix_Constant_536", "shape": [], "dtype": "float32"}, {"name": "unknown_138", "shape": [768], "dtype": "float32"}, {"name": "PartitionedCall/onnx_tf_prefix_Constant_522", "shape": [], "dtype": "float32"}, {"name": "unknown_134", "shape": [2304], "dtype": "float32"}, {"name": "unknown_131", "shape": [768], "dtype": "float32"}, {"name": "PartitionedCall/onnx_tf_prefix_ReduceMean_505/reduction_indices", "shape": [], "dtype": "int32"}, {"name": "PartitionedCall/onnx_tf_prefix_Constant_506", "shape": [], "dtype": "float32"}, {"name": "unknown_130", "shape": [768], "dtype": "float32"}, {"name": "PartitionedCall/onnx_tf_prefix_Constant_496", "shape": [], "dtype": "float32"}, {"name": "unknown_128", "shape": [3072], "dtype": "float32"}, {"name": "unknown_125", "shape": [768], "dtype": "float32"}, {"name": "PartitionedCall/onnx_tf_prefix_ReduceMean_481/reduction_indices", "shape": [], "dtype": "int32"}, {"name": "PartitionedCall/onnx_tf_prefix_Constant_482", "shape": [], "dtype": "float32"}, {"name": "unknown_124", "shape": [768], "dtype": "float32"}, {"name": "PartitionedCall/onnx_tf_prefix_Constant_468", "shape": [], "dtype": "float32"}, {"name": "unknown_120", "shape": [2304], "dtype": "float32"}, {"name": "unknown_117", "shape": [768], "dtype": "float32"}, {"name": "PartitionedCall/onnx_tf_prefix_ReduceMean_451/reduction_indices", "shape": [], "dtype": "int32"}, {"name": "PartitionedCall/onnx_tf_prefix_Constant_452", "shape": [], "dtype": "float32"}, {"name": "unknown_116", "shape": [768], "dtype": "float32"}, {"name": "PartitionedCall/onnx_tf_prefix_Constant_442", "shape": [], "dtype": "float32"}, {"name": "unknown_114", "shape": [3072], "dtype": "float32"}, {"name": "unknown_111", "shape": [768], "dtype": "float32"}, {"name": "PartitionedCall/onnx_tf_prefix_ReduceMean_427/reduction_indices", "shape": [], "dtype": "int32"}, {"name": "PartitionedCall/onnx_tf_prefix_Constant_428", "shape": [], "dtype": "float32"}, {"name": "unknown_110", "shape": [768], "dtype": "float32"}, {"name": "PartitionedCall/onnx_tf_prefix_Constant_414", "shape": [], "dtype": "float32"}, {"name": "unknown_106", "shape": [2304], "dtype": "float32"}, {"name": "unknown_103", "shape": [768], "dtype": "float32"}, {"name": "PartitionedCall/onnx_tf_prefix_ReduceMean_397/reduction_indices", "shape": [], "dtype": "int32"}, {"name": "PartitionedCall/onnx_tf_prefix_Constant_398", "shape": [], "dtype": "float32"}, {"name": "unknown_102", "shape": [768], "dtype": "float32"}, {"name": "PartitionedCall/onnx_tf_prefix_Constant_388", "shape": [], "dtype": "float32"}, {"name": "unknown_100", "shape": [3072], "dtype": "float32"}, {"name": "unknown_97", "shape": [768], "dtype": "float32"}, {"name": "PartitionedCall/onnx_tf_prefix_ReduceMean_373/reduction_indices", "shape": [], "dtype": "int32"}, {"name": "PartitionedCall/onnx_tf_prefix_Constant_374", "shape": [], "dtype": "float32"}, {"name": "unknown_96", "shape": [768], "dtype": "float32"}, {"name": "PartitionedCall/onnx_tf_prefix_Constant_360", "shape": [], "dtype": "float32"}, {"name": "unknown_92", "shape": [2304], "dtype": "float32"}, {"name": "unknown_89", "shape": [768], "dtype": "float32"}, {"name": "PartitionedCall/onnx_tf_prefix_ReduceMean_343/reduction_indices", "shape": [], "dtype": "int32"}, {"name": "PartitionedCall/onnx_tf_prefix_Constant_344", "shape": [], "dtype": "float32"}, {"name": "unknown_88", "shape": [768], "dtype": "float32"}, {"name": "PartitionedCall/onnx_tf_prefix_Constant_334", "shape": [], "dtype": "float32"}, {"name": "unknown_86", "shape": [3072], "dtype": "float32"}, {"name": "unknown_83", "shape": [768], "dtype": "float32"}, {"name": "PartitionedCall/onnx_tf_prefix_ReduceMean_319/reduction_indices", "shape": [], "dtype": "int32"}, {"name": "PartitionedCall/onnx_tf_prefix_Constant_320", "shape": [], "dtype": "float32"}, {"name": "unknown_82", "shape": [768], "dtype": "float32"}, {"name": "PartitionedCall/onnx_tf_prefix_Constant_306", "shape": [], "dtype": "float32"}, {"name": "unknown_78", "shape": [2304], "dtype": "float32"}, {"name": "unknown_75", "shape": [768], "dtype": "float32"}, {"name": "PartitionedCall/onnx_tf_prefix_ReduceMean_289/reduction_indices", "shape": [], "dtype": "int32"}, {"name": "PartitionedCall/onnx_tf_prefix_Constant_290", "shape": [], "dtype": "float32"}, {"name": "unknown_74", "shape": [768], "dtype": "float32"}, {"name": "PartitionedCall/onnx_tf_prefix_Constant_280", "shape": [], "dtype": "float32"}, {"name": "unknown_72", "shape": [3072], "dtype": "float32"}, {"name": "unknown_69", "shape": [768], "dtype": "float32"}, {"name": "PartitionedCall/onnx_tf_prefix_ReduceMean_265/reduction_indices", "shape": [], "dtype": "int32"}, {"name": "PartitionedCall/onnx_tf_prefix_Constant_266", "shape": [], "dtype": "float32"}, {"name": "unknown_68", "shape": [768], "dtype": "float32"}, {"name": "PartitionedCall/onnx_tf_prefix_Constant_252", "shape": [], "dtype": "float32"}, {"name": "unknown_64", "shape": [2304], "dtype": "float32"}, {"name": "unknown_61", "shape": [768], "dtype": "float32"}, {"name": "PartitionedCall/onnx_tf_prefix_ReduceMean_235/reduction_indices", "shape": [], "dtype": "int32"}, {"name": "PartitionedCall/onnx_tf_prefix_Constant_236", "shape": [], "dtype": "float32"}, {"name": "unknown_60", "shape": [768], "dtype": "float32"}, {"name": "PartitionedCall/onnx_tf_prefix_Constant_226", "shape": [], "dtype": "float32"}, {"name": "unknown_58", "shape": [3072], "dtype": "float32"}, {"name": "unknown_55", "shape": [768], "dtype": "float32"}, {"name": "PartitionedCall/onnx_tf_prefix_ReduceMean_211/reduction_indices", "shape": [], "dtype": "int32"}, {"name": "PartitionedCall/onnx_tf_prefix_Constant_212", "shape": [], "dtype": "float32"}, {"name": "unknown_54", "shape": [768], "dtype": "float32"}, {"name": "PartitionedCall/onnx_tf_prefix_Constant_198", "shape": [], "dtype": "float32"}, {"name": "unknown_50", "shape": [2304], "dtype": "float32"}, {"name": "unknown_47", "shape": [768], "dtype": "float32"}, {"name": "PartitionedCall/onnx_tf_prefix_ReduceMean_181/reduction_indices", "shape": [], "dtype": "int32"}, {"name": "PartitionedCall/onnx_tf_prefix_Constant_182", "shape": [], "dtype": "float32"}, {"name": "unknown_46", "shape": [768], "dtype": "float32"}, {"name": "PartitionedCall/onnx_tf_prefix_Constant_172", "shape": [], "dtype": "float32"}, {"name": "unknown_44", "shape": [3072], "dtype": "float32"}, {"name": "unknown_41", "shape": [768], "dtype": "float32"}, {"name": "PartitionedCall/onnx_tf_prefix_ReduceMean_157/reduction_indices", "shape": [], "dtype": "int32"}, {"name": "PartitionedCall/onnx_tf_prefix_Constant_158", "shape": [], "dtype": "float32"}, {"name": "unknown_40", "shape": [768], "dtype": "float32"}, {"name": "PartitionedCall/onnx_tf_prefix_Constant_144", "shape": [], "dtype": "float32"}, {"name": "unknown_36", "shape": [2304], "dtype": "float32"}, {"name": "unknown_33", "shape": [768], "dtype": "float32"}, {"name": "PartitionedCall/onnx_tf_prefix_ReduceMean_127/reduction_indices", "shape": [], "dtype": "int32"}, {"name": "PartitionedCall/onnx_tf_prefix_Constant_128", "shape": [], "dtype": "float32"}, {"name": "unknown_32", "shape": [768], "dtype": "float32"}, {"name": "PartitionedCall/onnx_tf_prefix_Constant_118", "shape": [], "dtype": "float32"}, {"name": "unknown_30", "shape": [3072], "dtype": "float32"}, {"name": "unknown_27", "shape": [768], "dtype": "float32"}, {"name": "PartitionedCall/onnx_tf_prefix_ReduceMean_103/reduction_indices", "shape": [], "dtype": "int32"}, {"name": "PartitionedCall/onnx_tf_prefix_Constant_104", "shape": [], "dtype": "float32"}, {"name": "unknown_26", "shape": [768], "dtype": "float32"}, {"name": "PartitionedCall/onnx_tf_prefix_Constant_90", "shape": [], "dtype": "float32"}, {"name": "unknown_22", "shape": [2304], "dtype": "float32"}, {"name": "unknown_19", "shape": [768], "dtype": "float32"}, {"name": "PartitionedCall/onnx_tf_prefix_ReduceMean_73/reduction_indices", "shape": [], "dtype": "int32"}, {"name": "PartitionedCall/onnx_tf_prefix_Constant_74", "shape": [], "dtype": "float32"}, {"name": "unknown_18", "shape": [768], "dtype": "float32"}, {"name": "PartitionedCall/onnx_tf_prefix_Constant_64", "shape": [], "dtype": "float32"}, {"name": "unknown_16", "shape": [3072], "dtype": "float32"}, {"name": "unknown_13", "shape": [768], "dtype": "float32"}, {"name": "PartitionedCall/onnx_tf_prefix_ReduceMean_49/reduction_indices", "shape": [], "dtype": "int32"}, {"name": "PartitionedCall/onnx_tf_prefix_Constant_50", "shape": [], "dtype": "float32"}, {"name": "unknown_12", "shape": [768], "dtype": "float32"}, {"name": "PartitionedCall/onnx_tf_prefix_Constant_36", "shape": [], "dtype": "float32"}, {"name": "unknown_8", "shape": [2304], "dtype": "float32"}, {"name": "PartitionedCall/onnx_tf_prefix_ReduceMean_19/reduction_indices", "shape": [], "dtype": "int32"}, {"name": "PartitionedCall/onnx_tf_prefix_Constant_20", "shape": [], "dtype": "float32"}, {"name": "unknown_5", "shape": [768], "dtype": "float32"}, {"name": "PartitionedCall/mul", "shape": [1, 1, 768], "dtype": "float32"}, {"name": "PartitionedCall/transpose_1/perm", "shape": [4], "dtype": "int32"}, {"name": "PartitionedCall/split", "shape": [16, 16, 3, 768], "dtype": "float32"}, {"name": "unknown_0", "shape": [768], "dtype": "float32"}, {"name": "PartitionedCall/transpose_2/perm", "shape": [4], "dtype": "int32"}, {"name": "PartitionedCall/onnx_tf_prefix_Concat_4", "shape": [3], "dtype": "int32"}, {"name": "PartitionedCall/Where", "shape": [0, 1], "dtype": "int32"}, {"name": "PartitionedCall/Cast", "shape": [1], "dtype": "int32"}, {"name": "PartitionedCall/GatherV2", "shape": [0], "dtype": "int32"}, {"name": "PartitionedCall/zeros", "shape": [], "dtype": "int32"}, {"name": "PartitionedCall/onnx_tf_prefix_Transpose_6/perm", "shape": [3], "dtype": "int32"}, {"name": "PartitionedCall/onnx_tf_prefix_Concat_13/axis", "shape": [], "dtype": "int32"}, {"name": "unknown_4", "shape": [1, 197, 768], "dtype": "float32"}, {"name": "PartitionedCall/onnx_tf_prefix_ReduceMean_15/reduction_indices", "shape": [], "dtype": "int32"}, {"name": "unknown_6", "shape": [768], "dtype": "float32"}, {"name": "unknown_7", "shape": [768, 2304], "dtype": "float32"}, {"name": "unknown_9", "shape": [5], "dtype": "int32"}, {"name": "PartitionedCall/Where_1", "shape": [0, 1], "dtype": "int32"}, {"name": "PartitionedCall/Cast_1", "shape": [1], "dtype": "int32"}, {"name": "PartitionedCall/GatherV2_1", "shape": [0], "dtype": "int32"}, {"name": "PartitionedCall/zeros_1", "shape": [], "dtype": "int32"}, {"name": "PartitionedCall/onnx_tf_prefix_Transpose_29/perm", "shape": [5], "dtype": "int32"}, {"name": "PartitionedCall/Const_2", "shape": [3], "dtype": "int32"}, {"name": "PartitionedCall/onnx_tf_prefix_Split_30/split_dim", "shape": [], "dtype": "int32"}, {"name": "PartitionedCall/onnx_tf_prefix_Transpose_40/perm", "shape": [4], "dtype": "int32"}, {"name": "unknown_10", "shape": [3], "dtype": "int32"}, {"name": "PartitionedCall/Where_2", "shape": [0, 1], "dtype": "int32"}, {"name": "PartitionedCall/Cast_2", "shape": [1], "dtype": "int32"}, {"name": "PartitionedCall/GatherV2_2", "shape": [0], "dtype": "int32"}, {"name": "PartitionedCall/zeros_2", "shape": [], "dtype": "int32"}, {"name": "unknown_11", "shape": [768, 768], "dtype": "float32"}, {"name": "PartitionedCall/onnx_tf_prefix_ReduceMean_45/reduction_indices", "shape": [], "dtype": "int32"}, {"name": "unknown_14", "shape": [768], "dtype": "float32"}, {"name": "unknown_15", "shape": [768, 3072], "dtype": "float32"}, {"name": "ConstantFolding/PartitionedCall/onnx_tf_prefix_Div_59_recip", "shape": [], "dtype": "float32"}, {"name": "PartitionedCall/onnx_tf_prefix_Constant_61", "shape": [], "dtype": "float32"}, {"name": "unknown_17", "shape": [3072, 768], "dtype": "float32"}, {"name": "PartitionedCall/onnx_tf_prefix_ReduceMean_69/reduction_indices", "shape": [], "dtype": "int32"}, {"name": "unknown_20", "shape": [768], "dtype": "float32"}, {"name": "unknown_21", "shape": [768, 2304], "dtype": "float32"}, {"name": "unknown_23", "shape": [5], "dtype": "int32"}, {"name": "PartitionedCall/Where_3", "shape": [0, 1], "dtype": "int32"}, {"name": "PartitionedCall/Cast_3", "shape": [1], "dtype": "int32"}, {"name": "PartitionedCall/GatherV2_3", "shape": [0], "dtype": "int32"}, {"name": "PartitionedCall/zeros_3", "shape": [], "dtype": "int32"}, {"name": "PartitionedCall/onnx_tf_prefix_Transpose_83/perm", "shape": [5], "dtype": "int32"}, {"name": "PartitionedCall/Const_5", "shape": [3], "dtype": "int32"}, {"name": "PartitionedCall/onnx_tf_prefix_Split_84/split_dim", "shape": [], "dtype": "int32"}, {"name": "PartitionedCall/onnx_tf_prefix_Transpose_94/perm", "shape": [4], "dtype": "int32"}, {"name": "unknown_24", "shape": [3], "dtype": "int32"}, {"name": "PartitionedCall/Where_4", "shape": [0, 1], "dtype": "int32"}, {"name": "PartitionedCall/Cast_4", "shape": [1], "dtype": "int32"}, {"name": "PartitionedCall/GatherV2_4", "shape": [0], "dtype": "int32"}, {"name": "PartitionedCall/zeros_4", "shape": [], "dtype": "int32"}, {"name": "unknown_25", "shape": [768, 768], "dtype": "float32"}, {"name": "PartitionedCall/onnx_tf_prefix_ReduceMean_99/reduction_indices", "shape": [], "dtype": "int32"}, {"name": "unknown_28", "shape": [768], "dtype": "float32"}, {"name": "unknown_29", "shape": [768, 3072], "dtype": "float32"}, {"name": "ConstantFolding/PartitionedCall/onnx_tf_prefix_Div_113_recip", "shape": [], "dtype": "float32"}, {"name": "PartitionedCall/onnx_tf_prefix_Constant_115", "shape": [], "dtype": "float32"}, {"name": "unknown_31", "shape": [3072, 768], "dtype": "float32"}, {"name": "PartitionedCall/onnx_tf_prefix_ReduceMean_123/reduction_indices", "shape": [], "dtype": "int32"}, {"name": "unknown_34", "shape": [768], "dtype": "float32"}, {"name": "unknown_35", "shape": [768, 2304], "dtype": "float32"}, {"name": "unknown_37", "shape": [5], "dtype": "int32"}, {"name": "PartitionedCall/Where_5", "shape": [0, 1], "dtype": "int32"}, {"name": "PartitionedCall/Cast_5", "shape": [1], "dtype": "int32"}, {"name": "PartitionedCall/GatherV2_5", "shape": [0], "dtype": "int32"}, {"name": "PartitionedCall/zeros_5", "shape": [], "dtype": "int32"}, {"name": "PartitionedCall/onnx_tf_prefix_Transpose_137/perm", "shape": [5], "dtype": "int32"}, {"name": "PartitionedCall/Const_8", "shape": [3], "dtype": "int32"}, {"name": "PartitionedCall/onnx_tf_prefix_Split_138/split_dim", "shape": [], "dtype": "int32"}, {"name": "PartitionedCall/onnx_tf_prefix_Transpose_148/perm", "shape": [4], "dtype": "int32"}, {"name": "unknown_38", "shape": [3], "dtype": "int32"}, {"name": "PartitionedCall/Where_6", "shape": [0, 1], "dtype": "int32"}, {"name": "PartitionedCall/Cast_6", "shape": [1], "dtype": "int32"}, {"name": "PartitionedCall/GatherV2_6", "shape": [0], "dtype": "int32"}, {"name": "PartitionedCall/zeros_6", "shape": [], "dtype": "int32"}, {"name": "unknown_39", "shape": [768, 768], "dtype": "float32"}, {"name": "PartitionedCall/onnx_tf_prefix_ReduceMean_153/reduction_indices", "shape": [], "dtype": "int32"}, {"name": "unknown_42", "shape": [768], "dtype": "float32"}, {"name": "unknown_43", "shape": [768, 3072], "dtype": "float32"}, {"name": "ConstantFolding/PartitionedCall/onnx_tf_prefix_Div_167_recip", "shape": [], "dtype": "float32"}, {"name": "PartitionedCall/onnx_tf_prefix_Constant_169", "shape": [], "dtype": "float32"}, {"name": "unknown_45", "shape": [3072, 768], "dtype": "float32"}, {"name": "PartitionedCall/onnx_tf_prefix_ReduceMean_177/reduction_indices", "shape": [], "dtype": "int32"}, {"name": "unknown_48", "shape": [768], "dtype": "float32"}, {"name": "unknown_49", "shape": [768, 2304], "dtype": "float32"}, {"name": "unknown_51", "shape": [5], "dtype": "int32"}, {"name": "PartitionedCall/Where_7", "shape": [0, 1], "dtype": "int32"}, {"name": "PartitionedCall/Cast_7", "shape": [1], "dtype": "int32"}, {"name": "PartitionedCall/GatherV2_7", "shape": [0], "dtype": "int32"}, {"name": "PartitionedCall/zeros_7", "shape": [], "dtype": "int32"}, {"name": "PartitionedCall/onnx_tf_prefix_Transpose_191/perm", "shape": [5], "dtype": "int32"}, {"name": "PartitionedCall/Const_11", "shape": [3], "dtype": "int32"}, {"name": "PartitionedCall/onnx_tf_prefix_Split_192/split_dim", "shape": [], "dtype": "int32"}, {"name": "PartitionedCall/onnx_tf_prefix_Transpose_202/perm", "shape": [4], "dtype": "int32"}, {"name": "unknown_52", "shape": [3], "dtype": "int32"}, {"name": "PartitionedCall/Where_8", "shape": [0, 1], "dtype": "int32"}, {"name": "PartitionedCall/Cast_8", "shape": [1], "dtype": "int32"}, {"name": "PartitionedCall/GatherV2_8", "shape": [0], "dtype": "int32"}, {"name": "PartitionedCall/zeros_8", "shape": [], "dtype": "int32"}, {"name": "unknown_53", "shape": [768, 768], "dtype": "float32"}, {"name": "PartitionedCall/onnx_tf_prefix_ReduceMean_207/reduction_indices", "shape": [], "dtype": "int32"}, {"name": "unknown_56", "shape": [768], "dtype": "float32"}, {"name": "unknown_57", "shape": [768, 3072], "dtype": "float32"}, {"name": "ConstantFolding/PartitionedCall/onnx_tf_prefix_Div_221_recip", "shape": [], "dtype": "float32"}, {"name": "PartitionedCall/onnx_tf_prefix_Constant_223", "shape": [], "dtype": "float32"}, {"name": "unknown_59", "shape": [3072, 768], "dtype": "float32"}, {"name": "PartitionedCall/onnx_tf_prefix_ReduceMean_231/reduction_indices", "shape": [], "dtype": "int32"}, {"name": "unknown_62", "shape": [768], "dtype": "float32"}, {"name": "unknown_63", "shape": [768, 2304], "dtype": "float32"}, {"name": "unknown_65", "shape": [5], "dtype": "int32"}, {"name": "PartitionedCall/Where_9", "shape": [0, 1], "dtype": "int32"}, {"name": "PartitionedCall/Cast_9", "shape": [1], "dtype": "int32"}, {"name": "PartitionedCall/GatherV2_9", "shape": [0], "dtype": "int32"}, {"name": "PartitionedCall/zeros_9", "shape": [], "dtype": "int32"}, {"name": "PartitionedCall/onnx_tf_prefix_Transpose_245/perm", "shape": [5], "dtype": "int32"}, {"name": "PartitionedCall/Const_14", "shape": [3], "dtype": "int32"}, {"name": "PartitionedCall/onnx_tf_prefix_Split_246/split_dim", "shape": [], "dtype": "int32"}, {"name": "PartitionedCall/onnx_tf_prefix_Transpose_256/perm", "shape": [4], "dtype": "int32"}, {"name": "unknown_66", "shape": [3], "dtype": "int32"}, {"name": "PartitionedCall/Where_10", "shape": [0, 1], "dtype": "int32"}, {"name": "PartitionedCall/Cast_10", "shape": [1], "dtype": "int32"}, {"name": "PartitionedCall/GatherV2_10", "shape": [0], "dtype": "int32"}, {"name": "PartitionedCall/zeros_10", "shape": [], "dtype": "int32"}, {"name": "unknown_67", "shape": [768, 768], "dtype": "float32"}, {"name": "PartitionedCall/onnx_tf_prefix_ReduceMean_261/reduction_indices", "shape": [], "dtype": "int32"}, {"name": "unknown_70", "shape": [768], "dtype": "float32"}, {"name": "unknown_71", "shape": [768, 3072], "dtype": "float32"}, {"name": "ConstantFolding/PartitionedCall/onnx_tf_prefix_Div_275_recip", "shape": [], "dtype": "float32"}, {"name": "PartitionedCall/onnx_tf_prefix_Constant_277", "shape": [], "dtype": "float32"}, {"name": "unknown_73", "shape": [3072, 768], "dtype": "float32"}, {"name": "PartitionedCall/onnx_tf_prefix_ReduceMean_285/reduction_indices", "shape": [], "dtype": "int32"}, {"name": "unknown_76", "shape": [768], "dtype": "float32"}, {"name": "unknown_77", "shape": [768, 2304], "dtype": "float32"}, {"name": "unknown_79", "shape": [5], "dtype": "int32"}, {"name": "PartitionedCall/Where_11", "shape": [0, 1], "dtype": "int32"}, {"name": "PartitionedCall/Cast_11", "shape": [1], "dtype": "int32"}, {"name": "PartitionedCall/GatherV2_11", "shape": [0], "dtype": "int32"}, {"name": "PartitionedCall/zeros_11", "shape": [], "dtype": "int32"}, {"name": "PartitionedCall/onnx_tf_prefix_Transpose_299/perm", "shape": [5], "dtype": "int32"}, {"name": "PartitionedCall/Const_17", "shape": [3], "dtype": "int32"}, {"name": "PartitionedCall/onnx_tf_prefix_Split_300/split_dim", "shape": [], "dtype": "int32"}, {"name": "PartitionedCall/onnx_tf_prefix_Transpose_310/perm", "shape": [4], "dtype": "int32"}, {"name": "unknown_80", "shape": [3], "dtype": "int32"}, {"name": "PartitionedCall/Where_12", "shape": [0, 1], "dtype": "int32"}, {"name": "PartitionedCall/Cast_12", "shape": [1], "dtype": "int32"}, {"name": "PartitionedCall/GatherV2_12", "shape": [0], "dtype": "int32"}, {"name": "PartitionedCall/zeros_12", "shape": [], "dtype": "int32"}, {"name": "unknown_81", "shape": [768, 768], "dtype": "float32"}, {"name": "PartitionedCall/onnx_tf_prefix_ReduceMean_315/reduction_indices", "shape": [], "dtype": "int32"}, {"name": "unknown_84", "shape": [768], "dtype": "float32"}, {"name": "unknown_85", "shape": [768, 3072], "dtype": "float32"}, {"name": "ConstantFolding/PartitionedCall/onnx_tf_prefix_Div_329_recip", "shape": [], "dtype": "float32"}, {"name": "PartitionedCall/onnx_tf_prefix_Constant_331", "shape": [], "dtype": "float32"}, {"name": "unknown_87", "shape": [3072, 768], "dtype": "float32"}, {"name": "PartitionedCall/onnx_tf_prefix_ReduceMean_339/reduction_indices", "shape": [], "dtype": "int32"}, {"name": "unknown_90", "shape": [768], "dtype": "float32"}, {"name": "unknown_91", "shape": [768, 2304], "dtype": "float32"}, {"name": "unknown_93", "shape": [5], "dtype": "int32"}, {"name": "PartitionedCall/Where_13", "shape": [0, 1], "dtype": "int32"}, {"name": "PartitionedCall/Cast_13", "shape": [1], "dtype": "int32"}, {"name": "PartitionedCall/GatherV2_13", "shape": [0], "dtype": "int32"}, {"name": "PartitionedCall/zeros_13", "shape": [], "dtype": "int32"}, {"name": "PartitionedCall/onnx_tf_prefix_Transpose_353/perm", "shape": [5], "dtype": "int32"}, {"name": "PartitionedCall/Const_20", "shape": [3], "dtype": "int32"}, {"name": "PartitionedCall/onnx_tf_prefix_Split_354/split_dim", "shape": [], "dtype": "int32"}, {"name": "PartitionedCall/onnx_tf_prefix_Transpose_364/perm", "shape": [4], "dtype": "int32"}, {"name": "unknown_94", "shape": [3], "dtype": "int32"}, {"name": "PartitionedCall/Where_14", "shape": [0, 1], "dtype": "int32"}, {"name": "PartitionedCall/Cast_14", "shape": [1], "dtype": "int32"}, {"name": "PartitionedCall/GatherV2_14", "shape": [0], "dtype": "int32"}, {"name": "PartitionedCall/zeros_14", "shape": [], "dtype": "int32"}, {"name": "unknown_95", "shape": [768, 768], "dtype": "float32"}, {"name": "PartitionedCall/onnx_tf_prefix_ReduceMean_369/reduction_indices", "shape": [], "dtype": "int32"}, {"name": "unknown_98", "shape": [768], "dtype": "float32"}, {"name": "unknown_99", "shape": [768, 3072], "dtype": "float32"}, {"name": "ConstantFolding/PartitionedCall/onnx_tf_prefix_Div_383_recip", "shape": [], "dtype": "float32"}, {"name": "PartitionedCall/onnx_tf_prefix_Constant_385", "shape": [], "dtype": "float32"}, {"name": "unknown_101", "shape": [3072, 768], "dtype": "float32"}, {"name": "PartitionedCall/onnx_tf_prefix_ReduceMean_393/reduction_indices", "shape": [], "dtype": "int32"}, {"name": "unknown_104", "shape": [768], "dtype": "float32"}, {"name": "unknown_105", "shape": [768, 2304], "dtype": "float32"}, {"name": "unknown_107", "shape": [5], "dtype": "int32"}, {"name": "PartitionedCall/Where_15", "shape": [0, 1], "dtype": "int32"}, {"name": "PartitionedCall/Cast_15", "shape": [1], "dtype": "int32"}, {"name": "PartitionedCall/GatherV2_15", "shape": [0], "dtype": "int32"}, {"name": "PartitionedCall/zeros_15", "shape": [], "dtype": "int32"}, {"name": "PartitionedCall/onnx_tf_prefix_Transpose_407/perm", "shape": [5], "dtype": "int32"}, {"name": "PartitionedCall/Const_23", "shape": [3], "dtype": "int32"}, {"name": "PartitionedCall/onnx_tf_prefix_Split_408/split_dim", "shape": [], "dtype": "int32"}, {"name": "PartitionedCall/onnx_tf_prefix_Transpose_418/perm", "shape": [4], "dtype": "int32"}, {"name": "unknown_108", "shape": [3], "dtype": "int32"}, {"name": "PartitionedCall/Where_16", "shape": [0, 1], "dtype": "int32"}, {"name": "PartitionedCall/Cast_16", "shape": [1], "dtype": "int32"}, {"name": "PartitionedCall/GatherV2_16", "shape": [0], "dtype": "int32"}, {"name": "PartitionedCall/zeros_16", "shape": [], "dtype": "int32"}, {"name": "unknown_109", "shape": [768, 768], "dtype": "float32"}, {"name": "PartitionedCall/onnx_tf_prefix_ReduceMean_423/reduction_indices", "shape": [], "dtype": "int32"}, {"name": "unknown_112", "shape": [768], "dtype": "float32"}, {"name": "unknown_113", "shape": [768, 3072], "dtype": "float32"}, {"name": "ConstantFolding/PartitionedCall/onnx_tf_prefix_Div_437_recip", "shape": [], "dtype": "float32"}, {"name": "PartitionedCall/onnx_tf_prefix_Constant_439", "shape": [], "dtype": "float32"}, {"name": "unknown_115", "shape": [3072, 768], "dtype": "float32"}, {"name": "PartitionedCall/onnx_tf_prefix_ReduceMean_447/reduction_indices", "shape": [], "dtype": "int32"}, {"name": "unknown_118", "shape": [768], "dtype": "float32"}, {"name": "unknown_119", "shape": [768, 2304], "dtype": "float32"}, {"name": "unknown_121", "shape": [5], "dtype": "int32"}, {"name": "PartitionedCall/Where_17", "shape": [0, 1], "dtype": "int32"}, {"name": "PartitionedCall/Cast_17", "shape": [1], "dtype": "int32"}, {"name": "PartitionedCall/GatherV2_17", "shape": [0], "dtype": "int32"}, {"name": "PartitionedCall/zeros_17", "shape": [], "dtype": "int32"}, {"name": "PartitionedCall/onnx_tf_prefix_Transpose_461/perm", "shape": [5], "dtype": "int32"}, {"name": "PartitionedCall/Const_26", "shape": [3], "dtype": "int32"}, {"name": "PartitionedCall/onnx_tf_prefix_Split_462/split_dim", "shape": [], "dtype": "int32"}, {"name": "PartitionedCall/onnx_tf_prefix_Transpose_472/perm", "shape": [4], "dtype": "int32"}, {"name": "unknown_122", "shape": [3], "dtype": "int32"}, {"name": "PartitionedCall/Where_18", "shape": [0, 1], "dtype": "int32"}, {"name": "PartitionedCall/Cast_18", "shape": [1], "dtype": "int32"}, {"name": "PartitionedCall/GatherV2_18", "shape": [0], "dtype": "int32"}, {"name": "PartitionedCall/zeros_18", "shape": [], "dtype": "int32"}, {"name": "unknown_123", "shape": [768, 768], "dtype": "float32"}, {"name": "PartitionedCall/onnx_tf_prefix_ReduceMean_477/reduction_indices", "shape": [], "dtype": "int32"}, {"name": "unknown_126", "shape": [768], "dtype": "float32"}, {"name": "unknown_127", "shape": [768, 3072], "dtype": "float32"}, {"name": "ConstantFolding/PartitionedCall/onnx_tf_prefix_Div_491_recip", "shape": [], "dtype": "float32"}, {"name": "PartitionedCall/onnx_tf_prefix_Constant_493", "shape": [], "dtype": "float32"}, {"name": "unknown_129", "shape": [3072, 768], "dtype": "float32"}, {"name": "PartitionedCall/onnx_tf_prefix_ReduceMean_501/reduction_indices", "shape": [], "dtype": "int32"}, {"name": "unknown_132", "shape": [768], "dtype": "float32"}, {"name": "unknown_133", "shape": [768, 2304], "dtype": "float32"}, {"name": "unknown_135", "shape": [5], "dtype": "int32"}, {"name": "PartitionedCall/Where_19", "shape": [0, 1], "dtype": "int32"}, {"name": "PartitionedCall/Cast_19", "shape": [1], "dtype": "int32"}, {"name": "PartitionedCall/GatherV2_19", "shape": [0], "dtype": "int32"}, {"name": "PartitionedCall/zeros_19", "shape": [], "dtype": "int32"}, {"name": "PartitionedCall/onnx_tf_prefix_Transpose_515/perm", "shape": [5], "dtype": "int32"}, {"name": "PartitionedCall/Const_29", "shape": [3], "dtype": "int32"}, {"name": "PartitionedCall/onnx_tf_prefix_Split_516/split_dim", "shape": [], "dtype": "int32"}, {"name": "PartitionedCall/onnx_tf_prefix_Transpose_526/perm", "shape": [4], "dtype": "int32"}, {"name": "unknown_136", "shape": [3], "dtype": "int32"}, {"name": "PartitionedCall/Where_20", "shape": [0, 1], "dtype": "int32"}, {"name": "PartitionedCall/Cast_20", "shape": [1], "dtype": "int32"}, {"name": "PartitionedCall/GatherV2_20", "shape": [0], "dtype": "int32"}, {"name": "PartitionedCall/zeros_20", "shape": [], "dtype": "int32"}, {"name": "unknown_137", "shape": [768, 768], "dtype": "float32"}, {"name": "PartitionedCall/onnx_tf_prefix_ReduceMean_531/reduction_indices", "shape": [], "dtype": "int32"}, {"name": "unknown_140", "shape": [768], "dtype": "float32"}, {"name": "unknown_141", "shape": [768, 3072], "dtype": "float32"}, {"name": "ConstantFolding/PartitionedCall/onnx_tf_prefix_Div_545_recip", "shape": [], "dtype": "float32"}, {"name": "PartitionedCall/onnx_tf_prefix_Constant_547", "shape": [], "dtype": "float32"}, {"name": "unknown_143", "shape": [3072, 768], "dtype": "float32"}, {"name": "PartitionedCall/onnx_tf_prefix_ReduceMean_555/reduction_indices", "shape": [], "dtype": "int32"}, {"name": "unknown_146", "shape": [768], "dtype": "float32"}, {"name": "unknown_147", "shape": [768, 2304], "dtype": "float32"}, {"name": "unknown_149", "shape": [5], "dtype": "int32"}, {"name": "PartitionedCall/Where_21", "shape": [0, 1], "dtype": "int32"}, {"name": "PartitionedCall/Cast_21", "shape": [1], "dtype": "int32"}, {"name": "PartitionedCall/GatherV2_21", "shape": [0], "dtype": "int32"}, {"name": "PartitionedCall/zeros_21", "shape": [], "dtype": "int32"}, {"name": "PartitionedCall/onnx_tf_prefix_Transpose_569/perm", "shape": [5], "dtype": "int32"}, {"name": "PartitionedCall/Const_32", "shape": [3], "dtype": "int32"}, {"name": "PartitionedCall/onnx_tf_prefix_Split_570/split_dim", "shape": [], "dtype": "int32"}, {"name": "PartitionedCall/onnx_tf_prefix_Transpose_580/perm", "shape": [4], "dtype": "int32"}, {"name": "unknown_150", "shape": [3], "dtype": "int32"}, {"name": "PartitionedCall/Where_22", "shape": [0, 1], "dtype": "int32"}, {"name": "PartitionedCall/Cast_22", "shape": [1], "dtype": "int32"}, {"name": "PartitionedCall/GatherV2_22", "shape": [0], "dtype": "int32"}, {"name": "PartitionedCall/zeros_22", "shape": [], "dtype": "int32"}, {"name": "unknown_151", "shape": [768, 768], "dtype": "float32"}, {"name": "PartitionedCall/onnx_tf_prefix_ReduceMean_585/reduction_indices", "shape": [], "dtype": "int32"}, {"name": "unknown_154", "shape": [768], "dtype": "float32"}, {"name": "unknown_155", "shape": [768, 3072], "dtype": "float32"}, {"name": "ConstantFolding/PartitionedCall/onnx_tf_prefix_Div_599_recip", "shape": [], "dtype": "float32"}, {"name": "PartitionedCall/onnx_tf_prefix_Constant_601", "shape": [], "dtype": "float32"}, {"name": "unknown_157", "shape": [3072, 768], "dtype": "float32"}, {"name": "PartitionedCall/onnx_tf_prefix_ReduceMean_609/reduction_indices", "shape": [], "dtype": "int32"}, {"name": "unknown_160", "shape": [768], "dtype": "float32"}, {"name": "unknown_161", "shape": [768, 2304], "dtype": "float32"}, {"name": "unknown_163", "shape": [5], "dtype": "int32"}, {"name": "PartitionedCall/Where_23", "shape": [0, 1], "dtype": "int32"}, {"name": "PartitionedCall/Cast_23", "shape": [1], "dtype": "int32"}, {"name": "PartitionedCall/GatherV2_23", "shape": [0], "dtype": "int32"}, {"name": "PartitionedCall/zeros_23", "shape": [], "dtype": "int32"}, {"name": "PartitionedCall/onnx_tf_prefix_Transpose_623/perm", "shape": [5], "dtype": "int32"}, {"name": "PartitionedCall/Const_35", "shape": [3], "dtype": "int32"}, {"name": "PartitionedCall/onnx_tf_prefix_Split_624/split_dim", "shape": [], "dtype": "int32"}, {"name": "PartitionedCall/onnx_tf_prefix_Transpose_634/perm", "shape": [4], "dtype": "int32"}, {"name": "unknown_164", "shape": [3], "dtype": "int32"}, {"name": "PartitionedCall/Where_24", "shape": [0, 1], "dtype": "int32"}, {"name": "PartitionedCall/Cast_24", "shape": [1], "dtype": "int32"}, {"name": "PartitionedCall/GatherV2_24", "shape": [0], "dtype": "int32"}, {"name": "PartitionedCall/zeros_24", "shape": [], "dtype": "int32"}, {"name": "unknown_165", "shape": [768, 768], "dtype": "float32"}, {"name": "PartitionedCall/onnx_tf_prefix_ReduceMean_639/reduction_indices", "shape": [], "dtype": "int32"}, {"name": "unknown_168", "shape": [768], "dtype": "float32"}, {"name": "unknown_169", "shape": [768, 3072], "dtype": "float32"}, {"name": "ConstantFolding/PartitionedCall/onnx_tf_prefix_Div_653_recip", "shape": [], "dtype": "float32"}, {"name": "PartitionedCall/onnx_tf_prefix_Constant_655", "shape": [], "dtype": "float32"}, {"name": "unknown_171", "shape": [3072, 768], "dtype": "float32"}, {"name": "PartitionedCall/onnx_tf_prefix_ReduceMean_663/reduction_indices", "shape": [], "dtype": "int32"}, {"name": "unknown_174", "shape": [768], "dtype": "float32"}, {"name": "PartitionedCall/onnx_tf_prefix_Constant_674", "shape": [], "dtype": "int32"}, {"name": "PartitionedCall/onnx_tf_prefix_Gather_675/axis", "shape": [], "dtype": "int32"}, {"name": "PartitionedCall/transpose_3", "shape": [768, 1000], "dtype": "float32"}, {"name": "PartitionedCall/mul_2", "shape": [1000], "dtype": "float32"}]}]}